dqn_model.pth (torch, 146066 bytes, 12 tensors)

net.0.weight f4 [128, 4]
-0.32398486 0.21886462 -0.21151406 -0.060794294 -0.16458905 0.47466946 0.31229085 -0.18887872
-0.27233154 -0.32248813 -0.46789074 0.36023283 0.09444654 -0.08186346 0.48779517 -0.39706337
0.44108248 0.12552863 0.009688973 0.0472942 0.4573446 0.041812778 -0.45213544 -0.4552713
0.028452277 -0.17422771 0.22878581 0.1306746 -0.3754226 0.32914323 -0.20950091 -0.124558985
-0.034186244 0.28439295 -0.19977713 0.008453906 -0.1673894 0.15066874 -0.47913826 0.292234
-0.04059583 -0.39446032 0.23377275 -0.0640983 -0.33347857 0.34050274 0.007565975 0.23680806
-0.4127779 -0.4891731 0.13988811 0.4700948 -0.17167741 -0.46157175 -0.3672806 -0.045592606
-0.059336007 -0.2516474 -0.33592743 0.27115947 0.39540184 -0.11361319 -0.192577 -0.29180688
0.0145994425 -0.18531388 -0.055706322 -0.2401033 -0.3760175 -0.27681088 -0.33864444 -0.20202929
0.47215986 -0.37179643 0.3411923 0.048258007 0.4160154 -0.38739038 -0.3114398 0.14521605
-0.49581796 0.043706357 0.19995785 0.35035938 0.107625544 0.13651407 -0.0896973 0.097198784
-0.12609601 -0.4417441 0.36212713 0.061124146 0.34366292 -0.2937594 -0.2734717 0.43639845
0.041703403 -0.3923326 -0.119089425 -0.09807229 -0.15432912 0.26550007 -0.203794 -0.34957045
0.22275996 -0.31530493 -0.12152344 -0.07645649 -0.4396428 -0.19302016 -0.13925791 0.22369283
0.24451447 0.37815815 0.28663337 -0.1859526 -0.18676424 0.38900328 -0.0947085 -0.32131124
-0.046731412 -0.297006 -0.07269871 0.29112047 0.13527983 -0.49188864 -0.03458047 -0.10099429
0.0015323162 0.06365764 -0.45515257 -0.44670087 -0.25781167 -0.41635674 -0.44087493 -0.30566
0.09866625 -0.4333927 -0.4369344 0.15230727 0.046499074 -0.34875804 -0.17392087 -0.26000732
0.28832316 0.009721637 0.025546372 -0.124299884 -0.2869773 -0.4534467 -0.23000717 -0.30116552
-0.14508778 -0.03246063 -0.0033746362 0.008362949 0.18070632 -0.24940693 0.3815772 0.14599729
-0.31073767 0.4068234 -0.37433767 0.26078832 0.28095704 0.46662033 0.46804512 0.2541681
-0.09257662 0.11621022 -0.40252978 0.23483723 0.2619294 -0.33005124 0.19836825 0.099882185
0.34968048 -0.37058258 0.017645478 -0.2597311 -0.2625844 -0.47646862 -0.27158552 -0.3992648
-0.42859107 0.38597983 0.34831047 -0.12522042 0.43317896 0.17426735 -0.12797642 -0.32724196
-0.32985634 0.12556255 0.49266154 -0.2047624 -0.37319267 -0.40620703 0.39474136 0.10287714
-0.34898394 0.013912797 0.42080384 0.34217215 -0.37552905 -0.45368338 -0.37305927 -0.38942593
0.4301666 -0.1137681 0.28443468 -0.23262078 -0.39525175 0.1684534 0.0818066 0.32214147
-0.052946866 0.44270563 0.3378942 -0.18377042 -0.33609807 0.025615156 -0.20202923 -0.3652951
-0.05924338 -0.25233847 0.06651884 -0.14194572 0.49474555 -0.4469512 -0.4394278 -0.17353606
0.042515278 0.1660487 0.17098814 0.08901209 0.3269474 0.2911271 0.31868362 0.33503783
-0.13981658 0.32068175 -0.25958532 -0.28014708 -0.18748039 -0.25607187 -0.39264423 0.4266746
0.0185709 0.045193374 -0.034269452 0.059880912 -0.3888976 0.35969323 0.3994769 0.43803293
00000000: 58e1 a5be 0c1e 603e 2497 58be 7003 79bd
00000010: 088a 28be e007 f33e 96e4 9f3e 6c69 41be
00000020: 0a6f 8bbe 2a1d a5be 608f efbe 7070 b83e
00000030: 306d c13d 08a8 a7bd 4ac0 f93e e44b cbbe
00000040: 90d5 e13e 948a 003e 80be 1e3c 90b7 413d
00000050: 1229 ea3e e043 2b3d 4c7e e7be 5219 e9be
00000060: c014 e93c c068 32be d446 6a3e 90cf 053e
00000070: 6437 c0be 7685 a83e 6887 56be c818 ffbd
00000080: e006 0cbd f49b 913e 6092 4cbe 4082 0a3c
00000090: 2068 2bbe e848 1a3e 9c51 f5be b29f 953e
000000a0: d047 26bd b4f6 c9be 2062 6f3e f845 83bd
000000b0: b4bd aabe 6056 ae3e 00ec f73b d07d 723e
000000c0: a057 d3be e674 fabe d43e 0f3e 44b0 f03e
000000d0: 34cc 2fbe 2253 ecbe 340c bcbe 50bf 3abd
000000e0: 500a 73bd eed7 80be aefe abbe 6ad5 8a3e
000000f0: 1c72 ca3e 08ae e8bd e832 45be b667 95be
00000100: 8032 6f3c ecc2 3dbe 502c 64bd a4dd 75be
00000110: 5e85 c0be 28ba 8dbe ce62 adbe c4e0 4ebe
00000120: f0be f13e 1a5c bebe c2b0 ae3e 30aa 453d
00000130: f8ff d43e 0858 c6be 0a75 9fbe 84b3 143e
00000140: dadb fdbe 7005 333d c0c1 4c3e 4e62 b33e
00000150: c86a dc3d 58ca 0b3e 38b3 b7bd 2810 c73d
00000160: 501f 01be 482c e2be ba68 b93e 505d 7a3d
00000170: 96f4 af3e a267 96be 7c04 8cbe 9e6f df3e
00000180: 30d1 2a3d d2df c8be 28e5 f3bd 20da c8bd
00000190: 7408 1ebe a0ef 873e 60af 50be e6fa b2be
000001a0: 301b 643e a66f a1be 48e1 f8bd 3895 9cbd
000001b0: dc18 e1be 14a7 45be a099 0ebe bc0f 653e
000001c0: 0062 7a3e f29d c13e 9cc1 923e 5c6a 3ebe
000001d0: 203f 3fbe 702b c73e 88f6 c1bd e882 a4be
000001e0: 7069 3fbd 2c11 98be 10e3 94bd be0d 953e
000001f0: cc86 0a3e d4d8 fbbe 40a4 0dbd 18d6 cebd
00000200: 00d8 c83a f05e 823d c209 e9be fab5 e4be
00000210: e4ff 83be b62c d5be 5cba e1be 787f 9cbe
00000220: 8811 ca3d a6e5 ddbe deb5 dfbe 70f6 1b3e
00000230: d075 3e3d 6a90 b2be 5018 32be ae1f 85be
00000240: 189f 933e 8047 1f3c a046 d13c f090 febd
00000250: b0ee 92be 2a2a e8be 0087 6bbe 5e32 9abe
00000260: e491 14be 70f5 04bd 0029 5dbb c004 093c
00000270: 140b 393e 8864 7fbe 165e c33e 5080 153e
00000280: 0219 9fbe 284b d03e 30a9 bfbe 0c86 853e
00000290: 9ad9 8f3e dce8 ee3e 9ca3 ef3e 5222 823e
000002a0: d098 bdbd a0ff ed3d 6218 cebe 2c79 703e
000002b0: 9c1b 863e 7afc a8be 0c21 4b3e 088f cc3d
000002c0: 5209 b33e 00bd bdbe 408d 903c 7afb 84be
000002d0: 7671 86be b2f3 f3be 420d 8bbe 706c ccbe
000002e0: 4a70 dbbe 269f c53e c055 b23e c839 00be
000002f0: a2c9 dd3e 2473 323e 400c 03be 428c a7be
00000300: eee2 a8be 7893 003e 223e fc3e 3cad 51be
00000310: 1c13 bfbe 5efa cfbe 8a1b ca3e 40b1 d23d
00000320: 06ae b2be 80f2 633c 9a73 d73e 3031 af3e
00000330: 5845 c0be 3049 e8be a001 bfbe d662 c7be
00000340: cc3e dc3e 40ff e8bd 6ca1 913e 2434 6ebe
00000350: 705e cabe 0c7f 2c3e 388a a73d baef a43e
00000360: d0de 58bd 50aa e23e 7800 ad3e 502e 3cbe
00000370: 0c15 acbe e0d6 d13c c0e0 4ebe f607 bbbe
00000380: 30a9 72bd 8232 81be 083b 883d 385a 11be
00000390: 4a4f fd3e cad6 e4be aefc e0be 70b3 31be
000003a0: 8024 2e3d ac08 2a3e 8417 2f3e f84b b63d
000003b0: a665 a73e 9c0e 953e 802a a33e 148a ab3e
000003c0: 142c 0fbe 6630 a43e 5ee8 84be 706f 8fbe
000003d0: dcfa 3fbe da1b 83be aa08 c9be 1875 da3e
000003e0: 0022 983c b01c 393d 205e 0cbd b045 753d
000003f0: 961d c7be b629 b83e 3c88 cc3e da45 e03e

net.0.bias f4 [128]
-0.3204159 0.33443236 -0.41485828 0.3232513 -0.23323393 0.21477318 -0.19340914 0.46969903
0.4850784 -0.45676917 0.38295984 -0.4276452 -0.31986362 0.21199614 -0.3254897 0.3142236
-0.13483667 0.012916923 0.4311993 -0.12853396 -0.27500856 0.119157135 -0.026089728 0.34691024
-0.1601035 -0.042449713 0.32504982 0.013522744 -0.011045635 0.38920528 0.49823517 -0.12867123
0.39030135 0.20254093 0.14740044 0.45053768 -0.4796195 0.3519132 -0.12663192 -0.079741836
-0.27538753 -0.12883484 -0.36143428 -0.30198467 -0.075844586 0.4326765 -0.2967065 -0.053998888
-0.3405556 0.063636124 -0.31733966 -0.22163874 -0.099295616 0.26260257 -0.09791809 0.4388855
-0.1813575 0.23654234 0.49657607 -0.11203778 0.07261437 0.48241317 -0.007091522 0.025617361
0.05586219 0.3318408 0.28994387 0.36221582 -0.21235001 0.2892993 0.38681656 0.35712796
-0.34850663 0.35080826 -0.19699907 0.1609692 -0.2303186 -0.027019024 -0.31303298 0.27185762
0.08268541 -0.20032561 -0.04065293 0.33505464 -0.43522924 -0.42739058 0.12339902 -0.27025104
0.06785303 -0.299222 -0.22984809 -0.12668115 0.1955989 -0.15731943 -0.18476504 -0.2868613
0.16262281 0.1704281 0.19692934 -0.25657952 0.18613994 0.46338278 -0.1755414 0.44224483
-0.25929856 -0.03628713 0.42120755 -0.037819624 0.43704003 0.21338898 -0.19514245 -0.32546264
0.4124487 0.1583885 -0.49721074 0.041311085 0.045595825 0.12204504 0.07781941 -0.26453656
0.31677264 -0.4232003 0.3974508 -0.41850597 -0.42708504 -0.03955221 0.24939841 -0.10848135
00000000: 8e0d a4be b83a ab3e 4e68 d4be 3281 a53e
00000010: e0d4 6ebe 80ed 5b3e 0c0d 46be 647c f03e
00000020: 325c f83e a6dd e9be 5013 c43e 50f4 dabe
00000030: 2ac5 a3be 8415 593e 96a6 a6be eae1 a03e
00000040: a012 0abe 80a1 533c 28c6 dc3e 689e 03be
00000050: eccd 8cbe a808 f43d 20ba d5bc 389e b13e
00000060: 2cf2 23be c0df 2dbd ee6c a63e 808e 5d3c
00000070: c0f8 34bc ea45 c73e ae18 ff3e 64c2 03be
00000080: 94d5 c73e e466 4f3e 24f0 163e e0ac e63e
00000090: b090 f5be f82d b43e ccab 01be b04f a3bd
000000a0: 98ff 8cbe 48ed 03be ea0d b9be bc9d 9abe
000000b0: 6854 9bbd c687 dd3e eae9 97be f02d 5dbd
000000c0: 4e5d aebe a853 823d 587a a2be 44f5 62be
000000d0: 805b cbbd d873 863e 4889 c8bd 9ab5 e03e
000000e0: c8b5 39be 2838 723e 383f fe3e 1074 e5bd
000000f0: d8b6 943d dcfe f63e 0060 e8bb 80db d13c
00000100: c0cf 643d 0ae7 a93e 8673 943e 5a74 b93e
00000110: 4872 59be 0a1f 943e d20c c63e 7ad9 b63e
00000120: 766f b2be 249d b33e 20ba 49be 1cd5 243e
00000130: a4d8 6bbe 0057 ddbc dc45 a0be ec30 8b3e
00000140: f856 a93d 2822 4dbe b083 26bd 488c ab3e
00000150: 5ed6 debe f0d2 dabe a0b8 fc3d 585e 8abe
00000160: 88f6 8a3d a033 99be 4c5d 6bbe b4b8 01be
00000170: 144b 483e 5818 21be 0c33 3dbe 7cdf 92be
00000180: 9886 263e b484 2e3e d8a7 493e 645e 83be
00000190: 789b 3e3e 8240 ed3e 20c1 33be ea6d e23e
000001a0: c8c2 84be d0a1 14bd 84a8 d73e c0e8 1abd
000001b0: b6c3 df3e a482 5a3e 6cd3 47be 0aa3 a6be
000001c0: 7a2c d33e 9830 223e 6892 febe d035 293d
000001d0: b0c2 3a3d c0f2 f93d c85f 9f3d 5671 87be
000001e0: 0630 a23e b6ad d8be ac7e cb3e 6a46 d6be
000001f0: e4aa dabe 8001 22bd 4c62 7f3e 782b debd

net.2.weight f4 [128, 128]
0.0016330853 0.0028075725 -0.08712151 0.056253277 0.08491687 0.07489554 0.04107546 -0.065731674
0.07946051 0.069258444 -0.008448191 0.048449136 -0.010278046 -0.05516937 0.08475409 0.0870414
0.066927515 -0.011656046 0.0461727 -0.011535928 -0.05338873 -0.07956216 -0.008176081 -0.04863587
-0.032602683 0.05191683 -0.0452486 0.009765759 0.08465224 -0.015199617 -0.039453685 0.010761209
-0.052671812 -0.059573885 -0.08580986 0.07666134 0.035522766 -0.08732423 -0.048361167 -0.06036204
-0.020095617 0.024866685 0.07943437 -0.071160235 -0.07850042 -0.06916048 0.06714489 -0.013619587
-0.047552675 -0.044621825 0.0075527504 -0.011253379 -0.058692575 0.04174041 -0.027702428 0.012686886
0.033158824 -0.08340123 0.015361153 -0.047922093 -0.07669298 -0.016246028 -0.07747356 0.078292854
-0.019901745 -0.05285614 0.01559528 -0.055462692 0.043516643 -0.0008467436 -0.07098937 -0.08246359
0.054212637 -0.035505693 -0.029251084 -0.07351103 0.03894355 -0.06482683 -0.023251161 -0.03423028
0.05920028 0.014432058 0.046838738 -0.0084472075 0.08520646 -0.025309518 -0.024189763 -0.075557984
-0.05547562 -0.052272145 0.06797459 -0.06849807 0.0786723 -0.03412188 0.019042775 0.014863707
0.048631586 0.00021767616 0.01606875 0.036544107 0.004323676 0.047507577 -0.07681142 0.059797607
0.07863871 -0.036114812 -0.057843164 0.07284983 -0.039321776 0.07989048 0.043811895 -0.0272411
-0.084332205 -0.0745154 -0.014412008 -0.034732826 -0.0761123 0.07331853 -0.03458935 -0.053749673
-0.05813124 -0.02478391 0.01581338 0.08667179 0.00986737 -0.018741123 0.08215117 -0.024288617
0.05365599 0.03737723 -0.051997315 0.04662975 0.04133702 -0.0519929 -0.014649391 0.02460128
-0.007829733 -0.03308146 0.08062174 0.009634241 -0.08414231 -0.0676909 0.071233325 0.00034814328
0.062141918 -0.085836954 -0.023437515 0.07287828 7.031113e-05 0.021301098 -0.07443102 0.07350684
0.04554697 0.07912739 0.026989259 0.053194277 -0.078356266 -0.020147823 0.08516481 -0.05750733
-0.0068507195 -0.030516267 -0.04892283 0.056745313 -0.04877566 0.068408735 -0.06963912 0.01271113
0.06730204 -0.0035470352 0.053503536 -0.07072006 0.04442426 -0.05594916 0.020438284 0.01153107
0.06499644 0.028796457 -0.07147482 0.08739386 -0.086809956 0.03460671 0.045433022 0.02679804
0.006364122 0.021565855 -0.016562134 -0.04231733 -0.039406374 -0.011868365 0.016828753 -4.196912e-05
-0.00867641 -0.070188954 0.08124261 -0.044048324 -0.041637607 -0.06769621 -0.04239994 0.083129816
-0.045072343 -0.053562194 0.07686723 -0.0533173 0.08785463 0.038584806 -0.03604276 0.0453619
0.027998306 0.027464539 -0.071547434 -0.010386102 0.016294435 0.0645472 -0.0849056 0.017490134
0.04590886 -0.0801395 0.015545055 -0.0028245747 -0.031934045 -0.049764123 -0.051985722 0.00935322
0.08806812 0.068830885 0.02285812 -0.04478677 0.009779289 -0.07790741 0.058737434 0.0076414943
0.041765682 -0.014770329 0.084957235 -0.08364201 0.0009755492 0.08560588 -0.049842674 -0.036733452
0.02438119 -0.056781594 -0.078388214 -0.057857558 -0.050269358 0.012948938 -0.020390518 0.049352266
0.005413048 0.03533937 0.021057345 -0.025222525 0.044848956 0.01874166 -0.052535698 -0.040948443
00000000: 400d d63a 40ff 373b c36c b2bd d669 663d
00000010: e5e8 ad3d d562 993d be3e 283d 549e 86bd
00000020: 31bc a23d 5fd7 8d3d 486a 0abc 9a72 463d
00000030: 4065 28bc 47f9 61bd 8d93 ad3d c342 b23d
00000040: 4b11 893d 00f9 3ebc 961f 3d3d 3001 3dbc
00000050: 24ae 5abd 7cf1 a2bd f8f4 05bc 6836 47bd
00000060: 648a 05bd bea6 543d 9956 39bd 9000 203c
00000070: 275e ad3d d007 79bc 309a 21bd c84f 303c
00000080: 66be 57bd bf03 74bd 14bd afbd 9f00 9d3d
00000090: 5280 113d 0cd7 b2bd 5c16 46bd 303e 77bd
000000a0: 909f a4bc 38b5 cb3c 7dae a23d 75bc 91bd
000000b0: d4c4 a0bd 02a4 8dbd 4383 893d b024 5fbc
000000c0: 98c6 42bd 60c5 36bd 107d f73b 1860 38bc
000000d0: a067 70bd fef7 2a3d 34f0 e2bc a8dc 4f3c
000000e0: 8cd1 073d 44ce aabd 58ad 7b3c f549 44bd
000000f0: 3611 9dbd 6416 85bc 75aa 9ebd 0158 a03d
00000100: fc08 a3bc ae7f 58bd 5883 7f3c d92c 63bd
00000110: 823e 323d 00f8 5dba e062 91bd ace2 a8bd
00000120: 120e 5e3d 6b6e 11bd f89f efbc f38c 96bd
00000130: 4683 1f3d eec3 84bd 3879 bebc 0d35 0cbd
00000140: fe7b 723d 7074 6c3c fad9 3f3d 2866 0abc
00000150: b980 ae3d e855 cfbc 9c29 c6bc 25be 9abd
00000160: 673a 63bd 511b 56bd 4336 8b3d b748 8cbd
00000170: f11e a13d 62c3 0bbd 98ff 9b3c e886 733c
00000180: ea31 473d 0040 6439 9ca2 833c 46af 153d
00000190: a0ad 8d3b 4e97 423d 4e4f 9dbd 56ee 743d
000001a0: 550d a13d 20ed 13bd f4ec 6cbd 4b32 953d
000001b0: df0f 21bd 9f9d a33d 1a74 333d ba28 dfbc
000001c0: 5db6 acbd 889b 98bd 5820 6cbc 0244 0ebd
000001d0: c4e0 9bbd 0728 963d 90ad 0dbd 9e28 5cbd
000001e0: 061b 6ebd a007 cbbc 108b 813c fb80 b13d
000001f0: c0aa 213c fc86 99bc df3e a83d ecf8 c6bc
00000200: 62c6 5b3d de18 193d 23fb 54bd d6fe 3e3d
00000210: 0251 293d 82f6 54bd 0004 70bc a088 c93c
00000220: 4848 00bc 6d80 07bd 031d a53d f0d8 1d3c
00000230: ce52 acbd 87a1 8abd c7e2 913d 0087 b639
00000240: 8688 7e3d 49cb afbd 0800 c0bc 3541 953d
00000250: 0074 9338 a47f ae3c 4a6f 98bd c18a 963d
00000260: 768f 3a3d 8b0d a23d 9418 dd3c 3ee2 593d
00000270: 4079 a0bd 0c0d a5bc e36a ae3d ce8c 6bbd
00000280: 007c e0bb 40fd f9bc 4e63 48bd c66d 683d
00000290: fdc8 47bd e119 8c3d f49e 8ebd 5842 503c
000002a0: a7d5 893d 6075 68bb 8626 5b3d aed5 90bd
000002b0: 36f6 353d f22a 65bd 306e a73c d0ec 3c3c
000002c0: db1c 853d 8ce6 eb3c 6461 92bd 8dfb b23d
000002d0: 6bc9 b1bd c4bf 0d3d fa17 3a3d 9087 db3c
000002e0: 208a d03b e0aa b03c 50ad 87bc f054 2dbd
000002f0: 9468 21bd 8873 42bc 74dc 893c 0008 30b8
00000300: 8027 0ebc 3abf 8fbd 8762 a63d 046c 34bd
00000310: 328c 2abd 50a4 8abd 8fab 2dbd f73f aa3d
00000320: c79d 38bd 0864 5bbd 916c 9d3d 3e63 5abd
00000330: 21ed b33d 1a0b 1e3d 93a1 13bd 66cd 393d
00000340: b45c e53c 50fd e03c 7687 92bd 782a 2abc
00000350: e87b 853c 5331 843d fde2 adbd 7847 8f3c
00000360: ee0a 3c3d 2e20 a4bd b0b0 7e3c 801c 39bb
00000370: 46cd 02bd 77d5 4bbd fbee 54bd 403e 193c
00000380: 0f5d b43d 35f7 8c3d f440 bb3c 5572 37bd
00000390: 5039 203c ec8d 9fbd aa96 703d 8065 fa3b
000003a0: 7e12 2b3d 40ff 71bc 0ffe ad3d 814c abbd
000003b0: 00bc 7f3a 2352 af3d d527 4cbd d175 16bd
000003c0: 10bb c73c d193 68bd 008a a0bd 0cfc 6cbd
000003d0: 3ee7 4dbd c827 543c 040a a7bc 9a25 4a3d
000003e0: f05f b13b 04c0 103d 7480 ac3c 789f cebc
000003f0: 8ab3 373d 1c88 993c ac2f 57bd 8eb9 27bd

net.2.bias f4 [128]
0.0026281327 -0.08792425 -0.038098957 0.029005095 0.006680973 0.017836347 0.0013755336 -0.07631318
0.048964627 0.039257877 0.017045923 -0.06659735 0.043025427 -0.07262038 0.05314008 0.009796374
-0.061111927 -0.048058555 0.06412011 -0.018275335 -0.055219788 0.03490161 -0.08173655 0.06265237
-0.061735913 0.012251027 0.035699233 -0.009736374 0.076117136 0.087838344 -0.07843204 -0.0060544237
0.047731616 0.02625382 -0.086837195 -0.043145306 0.03278634 0.0031125546 0.0007978156 0.010410756
0.04988862 0.028454423 -0.046617154 0.07975485 0.041789405 0.07783324 0.04983505 0.025293127
0.043634094 0.029917225 0.0005881563 -0.057543114 0.08638159 0.023250319 -0.0031677708 -0.084426224
-0.017160572 0.0121628195 0.009774886 0.00013332814 -0.038490217 -0.046722677 -0.0063037276 0.0045749247
-0.08020579 -0.03939916 0.085644014 0.047043614 -0.0882959 -0.017476015 0.08075722 -0.006768696
-0.0019438267 0.06480076 -0.06358367 -0.013038084 -0.0334984 0.054763876 0.07690858 0.03222251
-0.06409029 -0.07814628 -0.021823004 -0.075997934 -0.009623013 0.051839523 0.061787166 0.06996139
0.042634554 -0.04631631 -0.0638595 0.008122534 0.08535821 -0.013031647 -0.025293544 -0.027692303
-0.07226954 -0.08563857 -0.07171074 -0.017338589 0.07543182 -0.009578526 -0.0548582 -0.08474468
-0.018968053 0.08089549 -0.08443004 0.015442364 0.04028175 -0.006450467 -0.06157037 0.024256214
-0.034540407 0.052681364 -0.076467544 -0.007589601 -0.06782882 -0.041340295 -0.0325494 -0.0018049926
0.051452138 0.044186927 0.035316035 0.061564334 0.076314054 0.02916997 0.034500144 -0.06037402
00000000: c03c 2c3b a111 b4bd a70d 1cbd 189c ed3c
00000010: 10ec da3b 881d 923c 404b b43a 164a 9cbd
00000020: 228f 483d decc 203d e4a3 8b3c 3164 88bd
00000030: 6e3b 303d feb9 94bd 6aa9 593d f880 203c
00000040: 8050 7abd 0cd9 44bd 6751 833d 28b6 95bc
00000050: 252e 62bd fef4 0e3d 7e65 a7bd e34f 803d
00000060: ccde 7cbd 88b8 483c 5c39 123d 5085 1fbc
00000070: 4de3 9b3d 97e4 b33d faa0 a0bd 3064 c6bb
00000080: 3a82 433d 4012 d73c b3d7 b1bd 22b9 30bd
00000090: f84a 063d 00fc 4b3b 8024 513a e091 2a3c
000000a0: 0258 4c3d 4019 e93c a1f1 3ebd 8356 a33d
000000b0: 5e2b 2b3d 0967 9f3d d61f 4c3d 8833 cf3c
000000c0: aab9 323d f814 f53c 802e 1a3a 54b2 6bbd
000000d0: d5e8 b03d 7477 be3c 609a 4fbb a8e7 acbd
000000e0: 5494 8cbc 9046 473c d826 203c 00ce 0b39
000000f0: eba7 1dbd 4760 3fbd 808f cebb 40e9 953b
00000100: ef42 a4bd 0361 21bd 2166 af3d ceb0 403d
00000110: 7bd4 b4bd dc29 8fbc 0b64 a53d f0cb ddbb
00000120: 00c8 feba 43b6 843d 2838 82bd b09d 55bc
00000130: 9e35 09bd 1650 603d 3f82 9d3d c0fb 033d
00000140: c541 83bd 280b a0bd 28c6 b2bc cea4 9bbd
00000150: d8a9 1dbc ae55 543d 8a14 7d3d eb47 8f3d
00000160: 92a1 2e3d 2cb6 3dbd c5c8 82bd 6014 053c
00000170: 49d0 ae3d b082 55bc 6834 cfbc f8da e2bc
00000180: 0d02 94bd 4663 afbd 15dd 92bd a809 8ebc
00000190: ff7b 9a3d 40ef 1cbc feb2 60bd 9e8e adbd
000001a0: e462 9bbc 89ac a53d a8e9 acbd f801 7d3c
000001b0: 7afe 243d 705e d3bb 3631 7cbd f8b4 c63c
000001c0: 3e7a 0dbd 6ac8 573d 049b 9cbd 30b2 f8bb
000001d0: d6e9 8abd 7154 29bd 8552 05bd 8095 ecba
000001e0: 7abf 523d 5afd 343d 8ca7 103d e22a 7c3d
000001f0: 8b4a 9c3d dcf5 ee3c 0650 0d3d c04a 77bd

net.4.weight f4 [4, 128]
0.08816745 -0.07434801 0.04037466 -0.047228314 -0.005258031 0.061931588 0.00851424 -0.039984524
0.038716637 0.07060254 0.016226634 -0.00016601384 -0.031608514 -0.062214438 0.08356788 -0.074597895
0.036130354 -0.076364726 -0.042840753 0.060009025 0.074176066 0.008864738 0.010766827 0.01642976
-0.04651909 0.067094795 -0.04410552 0.076220386 -0.065293886 -0.08624596 0.045790173 0.079646
0.07186524 -0.03497199 -0.06122143 -0.054393593 -0.036076277 0.057771467 0.02002947 -0.034536276
0.08047732 0.01741413 0.02879288 0.08484682 -0.027444974 0.071685754 -0.040633447 -0.052783206
-0.021279566 -0.05492318 -0.07545838 0.054449134 -0.069516286 0.041362174 -0.015662633 0.058379732
-0.06006047 -0.08264641 0.034795493 0.05258297 -0.070316985 0.06533191 -0.037937146 -0.022544496
0.06914497 -0.029476672 0.08469003 -0.08434721 0.0688846 0.08558079 -0.007538162 -0.02483911
0.009474993 0.050002508 0.067247756 0.061598234 -0.0016859025 -0.08124778 0.05527071 -0.046079982
-0.024468005 -0.06537768 0.011822246 0.03532169 -0.076949894 0.064194955 0.040915124 0.0392297
0.087771215 -0.06377379 0.008189447 0.01963491 -0.06944399 0.063625745 0.07699827 -0.047072064
0.06131301 0.060349517 -0.042164214 0.005238287 0.087869726 0.046239786 -0.017038725 0.004496023
0.070765086 0.062068246 0.051865347 -0.036573052 0.075860076 -0.029598802 -0.08495395 -0.06784762
-0.053876147 -0.03670531 0.009953357 0.07206165 0.0056029484 0.031601235 0.013178594 0.05775579
-0.004105136 0.06954955 0.07409731 -0.025532864 -0.07908626 0.048600294 0.06170962 0.07689785
-0.011463255 -0.02666004 -0.060917318 -0.06096922 -0.024871416 0.072821565 0.055937387 0.041452013
-0.041963603 0.05173 -0.0830206 0.044045024 -0.034394935 0.06257563 -0.06792238 -0.031856496
-0.014442936 0.045211025 -0.03630621 -0.033905707 0.07983931 -0.0009798482 0.03036461 -0.058230877
0.08750305 0.018007286 0.053325422 0.055419885 0.051917158 -0.05303218 -0.02950764 0.03638217
-0.012850024 -0.07265812 0.083302505 -0.057314105 -0.087481976 -0.027930517 0.0862268 0.06560377
0.047677927 -0.030088425 0.031247497 -0.016694851 0.019143984 -0.024031177 -0.04845699 -0.07410084
-0.06452936 -0.03620919 0.0839119 0.0046520084 -0.082457334 -0.0723024 -0.045823224 -0.0873289
-0.051737435 0.04989455 0.07633201 -0.086283356 0.065998755 0.086636074 -0.067500755 -0.0384306
-0.062699504 0.022841208 -0.02908951 -0.012484357 -0.058871843 0.0693424 0.037432812 0.066090964
0.044180043 0.01941619 0.013519235 0.04501394 0.06211076 0.027852535 -0.040315695 -0.01850219
-0.058949985 -0.03509446 -0.00195162 0.073819555 0.061061673 -0.025448896 -0.03143352 0.017162777
-0.044699136 0.027308457 0.043881364 0.050494485 -0.027373884 -0.08604499 -0.073745415 0.001856938
0.027392626 -0.03746882 -0.011885896 -0.019744545 0.067579664 -0.037516657 -0.065487854 0.017038822
-0.02375009 0.0731109 -0.001073122 -0.07255964 -0.0049153343 0.023456499 -0.023860514 0.023965403
0.042155422 0.08416826 0.061148204 -0.0837829 0.083410956 -0.039199762 -0.01770138 -0.024298593
-0.0146905705 -0.08445161 0.017288707 -0.025465399 -0.05851485 -0.06829255 -0.07557147 -0.016728178
00000000: 2391 b43d c543 98bd e65f 253d 7a72 41bd
00000010: 904b acbb faab 7d3d 507f 0b3c d0c6 23bd
00000020: 5695 1e3d 1198 903d b8ed 843c 0014 2eb9
00000030: ee77 01bd 91d4 7ebd a325 ab3d c8c6 98bd
00000040: 6cfd 133d 1c65 9cbd c979 2fbd 06cc 753d
00000050: 9fe9 973d 683d 113c 5867 303c b497 863c
00000060: cd8a 3ebd ff68 893d fda7 34bd 6f19 9c3d
00000070: cdb8 85bd b9a1 b0bd 7a8e 3b3d 711d a33d
00000080: 152e 933d ca3e 0fbd 52c3 7abd d1cb 5ebd
00000090: b8c4 13bd c6a1 6c3d d814 a43c e975 0dbd
000000a0: 4bd1 a43d 14a8 8e3c 0cdf eb3c 2bc4 ad3d
000000b0: 48d4 e0bc fbcf 923d 426f 26bd 3433 58bd
000000c0: 7c52 aebc 21f7 60bd ec89 9abd 0e06 5f3d
000000d0: 8e5e 8ebd 626b 293d ec4e 80bc 961f 6f3d
000000e0: f801 76bd 8542 a9bd b885 0e3d 3e61 573d
000000f0: 5a02 90bd bdcc 853d fb63 1bbd 3caf b8bc
00000100: e19b 8d3d 1079 f1bc f771 ad3d 3bbe acbd
00000110: 5f13 8d3d fb44 af3d b002 f7bb 647b cbbc
00000120: 003d 1b3c 6ecf 4c3d 31b9 893d 6e4e 7c3d
00000130: 80f9 dcba 3c65 a6bd 8a63 623d 5dbe 3cbd
00000140: 2071 c8bc bce4 85bd 18b2 413c 7aad 103d
00000150: e897 9dbd a578 833d 9e96 273d 52af 203d
00000160: 65c1 b33d d59b 82bd 082d 063c 64d9 a03c
00000170: a738 8ebd 374e 823d 45b1 9d3d a3ce 40bd
00000180: 5a23 7b3d 0e31 773d 62b4 2cbd f0a5 ab3b
00000190: 0bf5 b33d ee65 3d3d cc94 8bbc 6053 933b
000001a0: 49ed 903d 463b 7e3d c270 543d a0cd 15bd
000001b0: 875c 9b3d 3079 f2bc 56fc adbd b1f3 8abd
000001c0: 3cad 5cbd 4f58 16bd 6813 233c 0f95 933d
000001d0: f098 b73b 4c70 013d 08eb 573c 5691 6c3d
000001e0: 6084 86bb ff6f 8e3d 55c0 973d 4c2a d1bc
000001f0: faf7 a1bd 1a11 473d 3ac3 7c3d 9f7c 9d3d
00000200: 60d0 3bbc 2866 dabc 7084 79bd dcba 79bd
00000210: 24bf cbbc 7923 953d 9a1e 653d 96c9 293d
00000220: 07e2 2bbd d6e2 533d b406 aabd 8e68 343d
00000230: b4e1 0cbd a727 803d e41a 8bbd f57b 02bd
00000240: 10a2 6cbc 322f 393d d2b5 14bd b6e0 0abd
00000250: cb82 a33d 406e 80ba 34bf f83c 8083 6ebd
00000260: cd34 b33d 0484 933c c26b 5a3d f6ff 623d
00000270: 16a7 543d 4538 59bd 02ba f1bc 7805 153d
00000280: e888 52bc c8cd 94bd 819a aa3d 32c2 6abd
00000290: c029 b3bd 8ace e4bc ad97 b03d 455b 863d
000002a0: ee49 433d 007c f6bc c0fa ff3c a4c3 88bc
000002b0: d8d3 9c3c 08dd c4bc d67a 46bd 2ec2 97bd
000002c0: f827 84bd 1650 14bd 01da ab3d e06f 983b
000002d0: 64df a8bd 4813 94bd 22b1 3bbd 7fd9 b2bd
000002e0: a2ea 53bd 3a5e 4c3d f553 9c3d 54b5 b0bd
000002f0: 5b2a 873d 416e b13d d63d 8abd 6869 1dbd
00000300: 9968 80bd 7c1d bb3c 204d eebc 308b 4cbc
00000310: 9a23 71bd 6303 8e3d 2653 193d b35a 873d
00000320: 22f6 343d b40e 9f3c c87f 5d3c 8a60 383d
00000330: da67 7e3d 002b e43c 1222 25bd e891 97bc
00000340: 8a75 71bd 35bf 0fbd 80cd ffba b52e 973d
00000350: ce1b 7a3d 347a d0bc 6fc0 00bd f498 8c3c
00000360: 7116 37bd fcb5 df3c f2bc 333d 4ed3 4e3d
00000370: 323f e0bc 5b38 b0bd d607 97bd 8064 f33a
00000380: 8066 e03c e878 19bd 10bd 42bc 50bf a1bc
00000390: 3567 8a3d 11ab 19bd 7f1e 86bd 0095 8b3c
000003a0: 8c8f c2bc 2bbb 953d 00a8 8cba 269a 94bd
000003b0: d010 a1bb d827 c03c 2077 c3bc 1853 c43c
000003c0: 2aab 2c3d 6960 ac3d 8a76 7a3d 5e96 abbd
000003d0: 5dd3 aa3d ee8f 20bd 7c02 91bc d80d c7bc
000003e0: b8b0 70bc f7f4 acbd 0ca1 8d3c d09c d0bc
000003f0: 44ad 6fbd f7dc 8bbd 37c5 9abd 8809 89bc

net.4.bias f4 [4]
-0.016842492 -0.0071798638 -0.039529707 -0.07118207
00000000: 44f9 89bc 1045 ebbb e7e9 21bd e8c7 91bd

net.0.weight f4 [128, 4]
-0.32398486 0.21886462 -0.21151406 -0.060794294 -0.16458905 0.47466946 0.31229085 -0.18887872
-0.27233154 -0.32248813 -0.46789074 0.36023283 0.09444654 -0.08186346 0.48779517 -0.39706337
0.44108248 0.12552863 0.009688973 0.0472942 0.4573446 0.041812778 -0.45213544 -0.4552713
0.028452277 -0.17422771 0.22878581 0.1306746 -0.3754226 0.32914323 -0.20950091 -0.124558985
-0.034186244 0.28439295 -0.19977713 0.008453906 -0.1673894 0.15066874 -0.47913826 0.292234
-0.04059583 -0.39446032 0.23377275 -0.0640983 -0.33347857 0.34050274 0.007565975 0.23680806
-0.4127779 -0.4891731 0.13988811 0.4700948 -0.17167741 -0.46157175 -0.3672806 -0.045592606
-0.059336007 -0.2516474 -0.33592743 0.27115947 0.39540184 -0.11361319 -0.192577 -0.29180688
0.0145994425 -0.18531388 -0.055706322 -0.2401033 -0.3760175 -0.27681088 -0.33864444 -0.20202929
0.47215986 -0.37179643 0.3411923 0.048258007 0.4160154 -0.38739038 -0.3114398 0.14521605
-0.49581796 0.043706357 0.19995785 0.35035938 0.107625544 0.13651407 -0.0896973 0.097198784
-0.12609601 -0.4417441 0.36212713 0.061124146 0.34366292 -0.2937594 -0.2734717 0.43639845
0.041703403 -0.3923326 -0.119089425 -0.09807229 -0.15432912 0.26550007 -0.203794 -0.34957045
0.22275996 -0.31530493 -0.12152344 -0.07645649 -0.4396428 -0.19302016 -0.13925791 0.22369283
0.24451447 0.37815815 0.28663337 -0.1859526 -0.18676424 0.38900328 -0.0947085 -0.32131124
-0.046731412 -0.297006 -0.07269871 0.29112047 0.13527983 -0.49188864 -0.03458047 -0.10099429
0.0015323162 0.06365764 -0.45515257 -0.44670087 -0.25781167 -0.41635674 -0.44087493 -0.30566
0.09866625 -0.4333927 -0.4369344 0.15230727 0.046499074 -0.34875804 -0.17392087 -0.26000732
0.28832316 0.009721637 0.025546372 -0.124299884 -0.2869773 -0.4534467 -0.23000717 -0.30116552
-0.14508778 -0.03246063 -0.0033746362 0.008362949 0.18070632 -0.24940693 0.3815772 0.14599729
-0.31073767 0.4068234 -0.37433767 0.26078832 0.28095704 0.46662033 0.46804512 0.2541681
-0.09257662 0.11621022 -0.40252978 0.23483723 0.2619294 -0.33005124 0.19836825 0.099882185
0.34968048 -0.37058258 0.017645478 -0.2597311 -0.2625844 -0.47646862 -0.27158552 -0.3992648
-0.42859107 0.38597983 0.34831047 -0.12522042 0.43317896 0.17426735 -0.12797642 -0.32724196
-0.32985634 0.12556255 0.49266154 -0.2047624 -0.37319267 -0.40620703 0.39474136 0.10287714
-0.34898394 0.013912797 0.42080384 0.34217215 -0.37552905 -0.45368338 -0.37305927 -0.38942593
0.4301666 -0.1137681 0.28443468 -0.23262078 -0.39525175 0.1684534 0.0818066 0.32214147
-0.052946866 0.44270563 0.3378942 -0.18377042 -0.33609807 0.025615156 -0.20202923 -0.3652951
-0.05924338 -0.25233847 0.06651884 -0.14194572 0.49474555 -0.4469512 -0.4394278 -0.17353606
0.042515278 0.1660487 0.17098814 0.08901209 0.3269474 0.2911271 0.31868362 0.33503783
-0.13981658 0.32068175 -0.25958532 -0.28014708 -0.18748039 -0.25607187 -0.39264423 0.4266746
0.0185709 0.045193374 -0.034269452 0.059880912 -0.3888976 0.35969323 0.3994769 0.43803293
00000000: 58e1 a5be 0c1e 603e 2497 58be 7003 79bd
00000010: 088a 28be e007 f33e 96e4 9f3e 6c69 41be
00000020: 0a6f 8bbe 2a1d a5be 608f efbe 7070 b83e
00000030: 306d c13d 08a8 a7bd 4ac0 f93e e44b cbbe
00000040: 90d5 e13e 948a 003e 80be 1e3c 90b7 413d
00000050: 1229 ea3e e043 2b3d 4c7e e7be 5219 e9be
00000060: c014 e93c c068 32be d446 6a3e 90cf 053e
00000070: 6437 c0be 7685 a83e 6887 56be c818 ffbd
00000080: e006 0cbd f49b 913e 6092 4cbe 4082 0a3c
00000090: 2068 2bbe e848 1a3e 9c51 f5be b29f 953e
000000a0: d047 26bd b4f6 c9be 2062 6f3e f845 83bd
000000b0: b4bd aabe 6056 ae3e 00ec f73b d07d 723e
000000c0: a057 d3be e674 fabe d43e 0f3e 44b0 f03e
000000d0: 34cc 2fbe 2253 ecbe 340c bcbe 50bf 3abd
000000e0: 500a 73bd eed7 80be aefe abbe 6ad5 8a3e
000000f0: 1c72 ca3e 08ae e8bd e832 45be b667 95be
00000100: 8032 6f3c ecc2 3dbe 502c 64bd a4dd 75be
00000110: 5e85 c0be 28ba 8dbe ce62 adbe c4e0 4ebe
00000120: f0be f13e 1a5c bebe c2b0 ae3e 30aa 453d
00000130: f8ff d43e 0858 c6be 0a75 9fbe 84b3 143e
00000140: dadb fdbe 7005 333d c0c1 4c3e 4e62 b33e
00000150: c86a dc3d 58ca 0b3e 38b3 b7bd 2810 c73d
00000160: 501f 01be 482c e2be ba68 b93e 505d 7a3d
00000170: 96f4 af3e a267 96be 7c04 8cbe 9e6f df3e
00000180: 30d1 2a3d d2df c8be 28e5 f3bd 20da c8bd
00000190: 7408 1ebe a0ef 873e 60af 50be e6fa b2be
000001a0: 301b 643e a66f a1be 48e1 f8bd 3895 9cbd
000001b0: dc18 e1be 14a7 45be a099 0ebe bc0f 653e
000001c0: 0062 7a3e f29d c13e 9cc1 923e 5c6a 3ebe
000001d0: 203f 3fbe 702b c73e 88f6 c1bd e882 a4be
000001e0: 7069 3fbd 2c11 98be 10e3 94bd be0d 953e
000001f0: cc86 0a3e d4d8 fbbe 40a4 0dbd 18d6 cebd
00000200: 00d8 c83a f05e 823d c209 e9be fab5 e4be
00000210: e4ff 83be b62c d5be 5cba e1be 787f 9cbe
00000220: 8811 ca3d a6e5 ddbe deb5 dfbe 70f6 1b3e
00000230: d075 3e3d 6a90 b2be 5018 32be ae1f 85be
00000240: 189f 933e 8047 1f3c a046 d13c f090 febd
00000250: b0ee 92be 2a2a e8be 0087 6bbe 5e32 9abe
00000260: e491 14be 70f5 04bd 0029 5dbb c004 093c
00000270: 140b 393e 8864 7fbe 165e c33e 5080 153e
00000280: 0219 9fbe 284b d03e 30a9 bfbe 0c86 853e
00000290: 9ad9 8f3e dce8 ee3e 9ca3 ef3e 5222 823e
000002a0: d098 bdbd a0ff ed3d 6218 cebe 2c79 703e
000002b0: 9c1b 863e 7afc a8be 0c21 4b3e 088f cc3d
000002c0: 5209 b33e 00bd bdbe 408d 903c 7afb 84be
000002d0: 7671 86be b2f3 f3be 420d 8bbe 706c ccbe
000002e0: 4a70 dbbe 269f c53e c055 b23e c839 00be
000002f0: a2c9 dd3e 2473 323e 400c 03be 428c a7be
00000300: eee2 a8be 7893 003e 223e fc3e 3cad 51be
00000310: 1c13 bfbe 5efa cfbe 8a1b ca3e 40b1 d23d
00000320: 06ae b2be 80f2 633c 9a73 d73e 3031 af3e
00000330: 5845 c0be 3049 e8be a001 bfbe d662 c7be
00000340: cc3e dc3e 40ff e8bd 6ca1 913e 2434 6ebe
00000350: 705e cabe 0c7f 2c3e 388a a73d baef a43e
00000360: d0de 58bd 50aa e23e 7800 ad3e 502e 3cbe
00000370: 0c15 acbe e0d6 d13c c0e0 4ebe f607 bbbe
00000380: 30a9 72bd 8232 81be 083b 883d 385a 11be
00000390: 4a4f fd3e cad6 e4be aefc e0be 70b3 31be
000003a0: 8024 2e3d ac08 2a3e 8417 2f3e f84b b63d
000003b0: a665 a73e 9c0e 953e 802a a33e 148a ab3e
000003c0: 142c 0fbe 6630 a43e 5ee8 84be 706f 8fbe
000003d0: dcfa 3fbe da1b 83be aa08 c9be 1875 da3e
000003e0: 0022 983c b01c 393d 205e 0cbd b045 753d
000003f0: 961d c7be b629 b83e 3c88 cc3e da45 e03e

net.0.bias f4 [128]
-0.3204159 0.33443236 -0.41485828 0.3232513 -0.23323393 0.21477318 -0.19340914 0.46969903
0.4850784 -0.45676917 0.38295984 -0.4276452 -0.31986362 0.21199614 -0.3254897 0.3142236
-0.13483667 0.012916923 0.4311993 -0.12853396 -0.27500856 0.119157135 -0.026089728 0.34691024
-0.1601035 -0.042449713 0.32504982 0.013522744 -0.011045635 0.38920528 0.49823517 -0.12867123
0.39030135 0.20254093 0.14740044 0.45053768 -0.4796195 0.3519132 -0.12663192 -0.079741836
-0.27538753 -0.12883484 -0.36143428 -0.30198467 -0.075844586 0.4326765 -0.2967065 -0.053998888
-0.3405556 0.063636124 -0.31733966 -0.22163874 -0.099295616 0.26260257 -0.09791809 0.4388855
-0.1813575 0.23654234 0.49657607 -0.11203778 0.07261437 0.48241317 -0.007091522 0.025617361
0.05586219 0.3318408 0.28994387 0.36221582 -0.21235001 0.2892993 0.38681656 0.35712796
-0.34850663 0.35080826 -0.19699907 0.1609692 -0.2303186 -0.027019024 -0.31303298 0.27185762
0.08268541 -0.20032561 -0.04065293 0.33505464 -0.43522924 -0.42739058 0.12339902 -0.27025104
0.06785303 -0.299222 -0.22984809 -0.12668115 0.1955989 -0.15731943 -0.18476504 -0.2868613
0.16262281 0.1704281 0.19692934 -0.25657952 0.18613994 0.46338278 -0.1755414 0.44224483
-0.25929856 -0.03628713 0.42120755 -0.037819624 0.43704003 0.21338898 -0.19514245 -0.32546264
0.4124487 0.1583885 -0.49721074 0.041311085 0.045595825 0.12204504 0.07781941 -0.26453656
0.31677264 -0.4232003 0.3974508 -0.41850597 -0.42708504 -0.03955221 0.24939841 -0.10848135
00000000: 8e0d a4be b83a ab3e 4e68 d4be 3281 a53e
00000010: e0d4 6ebe 80ed 5b3e 0c0d 46be 647c f03e
00000020: 325c f83e a6dd e9be 5013 c43e 50f4 dabe
00000030: 2ac5 a3be 8415 593e 96a6 a6be eae1 a03e
00000040: a012 0abe 80a1 533c 28c6 dc3e 689e 03be
00000050: eccd 8cbe a808 f43d 20ba d5bc 389e b13e
00000060: 2cf2 23be c0df 2dbd ee6c a63e 808e 5d3c
00000070: c0f8 34bc ea45 c73e ae18 ff3e 64c2 03be
00000080: 94d5 c73e e466 4f3e 24f0 163e e0ac e63e
00000090: b090 f5be f82d b43e ccab 01be b04f a3bd
000000a0: 98ff 8cbe 48ed 03be ea0d b9be bc9d 9abe
000000b0: 6854 9bbd c687 dd3e eae9 97be f02d 5dbd
000000c0: 4e5d aebe a853 823d 587a a2be 44f5 62be
000000d0: 805b cbbd d873 863e 4889 c8bd 9ab5 e03e
000000e0: c8b5 39be 2838 723e 383f fe3e 1074 e5bd
000000f0: d8b6 943d dcfe f63e 0060 e8bb 80db d13c
00000100: c0cf 643d 0ae7 a93e 8673 943e 5a74 b93e
00000110: 4872 59be 0a1f 943e d20c c63e 7ad9 b63e
00000120: 766f b2be 249d b33e 20ba 49be 1cd5 243e
00000130: a4d8 6bbe 0057 ddbc dc45 a0be ec30 8b3e
00000140: f856 a93d 2822 4dbe b083 26bd 488c ab3e
00000150: 5ed6 debe f0d2 dabe a0b8 fc3d 585e 8abe
00000160: 88f6 8a3d a033 99be 4c5d 6bbe b4b8 01be
00000170: 144b 483e 5818 21be 0c33 3dbe 7cdf 92be
00000180: 9886 263e b484 2e3e d8a7 493e 645e 83be
00000190: 789b 3e3e 8240 ed3e 20c1 33be ea6d e23e
000001a0: c8c2 84be d0a1 14bd 84a8 d73e c0e8 1abd
000001b0: b6c3 df3e a482 5a3e 6cd3 47be 0aa3 a6be
000001c0: 7a2c d33e 9830 223e 6892 febe d035 293d
000001d0: b0c2 3a3d c0f2 f93d c85f 9f3d 5671 87be
000001e0: 0630 a23e b6ad d8be ac7e cb3e 6a46 d6be
000001f0: e4aa dabe 8001 22bd 4c62 7f3e 782b debd

net.2.weight f4 [128, 128]
0.0016330853 0.0028075725 -0.08712151 0.056253277 0.08491687 0.07489554 0.04107546 -0.065731674
0.07946051 0.069258444 -0.008448191 0.048449136 -0.010278046 -0.05516937 0.08475409 0.0870414
0.066927515 -0.011656046 0.0461727 -0.011535928 -0.05338873 -0.07956216 -0.008176081 -0.04863587
-0.032602683 0.05191683 -0.0452486 0.009765759 0.08465224 -0.015199617 -0.039453685 0.010761209
-0.052671812 -0.059573885 -0.08580986 0.07666134 0.035522766 -0.08732423 -0.048361167 -0.06036204
-0.020095617 0.024866685 0.07943437 -0.071160235 -0.07850042 -0.06916048 0.06714489 -0.013619587
-0.047552675 -0.044621825 0.0075527504 -0.011253379 -0.058692575 0.04174041 -0.027702428 0.012686886
0.033158824 -0.08340123 0.015361153 -0.047922093 -0.07669298 -0.016246028 -0.07747356 0.078292854
-0.019901745 -0.05285614 0.01559528 -0.055462692 0.043516643 -0.0008467436 -0.07098937 -0.08246359
0.054212637 -0.035505693 -0.029251084 -0.07351103 0.03894355 -0.06482683 -0.023251161 -0.03423028
0.05920028 0.014432058 0.046838738 -0.0084472075 0.08520646 -0.025309518 -0.024189763 -0.075557984
-0.05547562 -0.052272145 0.06797459 -0.06849807 0.0786723 -0.03412188 0.019042775 0.014863707
0.048631586 0.00021767616 0.01606875 0.036544107 0.004323676 0.047507577 -0.07681142 0.059797607
0.07863871 -0.036114812 -0.057843164 0.07284983 -0.039321776 0.07989048 0.043811895 -0.0272411
-0.084332205 -0.0745154 -0.014412008 -0.034732826 -0.0761123 0.07331853 -0.03458935 -0.053749673
-0.05813124 -0.02478391 0.01581338 0.08667179 0.00986737 -0.018741123 0.08215117 -0.024288617
0.05365599 0.03737723 -0.051997315 0.04662975 0.04133702 -0.0519929 -0.014649391 0.02460128
-0.007829733 -0.03308146 0.08062174 0.009634241 -0.08414231 -0.0676909 0.071233325 0.00034814328
0.062141918 -0.085836954 -0.023437515 0.07287828 7.031113e-05 0.021301098 -0.07443102 0.07350684
0.04554697 0.07912739 0.026989259 0.053194277 -0.078356266 -0.020147823 0.08516481 -0.05750733
-0.0068507195 -0.030516267 -0.04892283 0.056745313 -0.04877566 0.068408735 -0.06963912 0.01271113
0.06730204 -0.0035470352 0.053503536 -0.07072006 0.04442426 -0.05594916 0.020438284 0.01153107
0.06499644 0.028796457 -0.07147482 0.08739386 -0.086809956 0.03460671 0.045433022 0.02679804
0.006364122 0.021565855 -0.016562134 -0.04231733 -0.039406374 -0.011868365 0.016828753 -4.196912e-05
-0.00867641 -0.070188954 0.08124261 -0.044048324 -0.041637607 -0.06769621 -0.04239994 0.083129816
-0.045072343 -0.053562194 0.07686723 -0.0533173 0.08785463 0.038584806 -0.03604276 0.0453619
0.027998306 0.027464539 -0.071547434 -0.010386102 0.016294435 0.0645472 -0.0849056 0.017490134
0.04590886 -0.0801395 0.015545055 -0.0028245747 -0.031934045 -0.049764123 -0.051985722 0.00935322
0.08806812 0.068830885 0.02285812 -0.04478677 0.009779289 -0.07790741 0.058737434 0.0076414943
0.041765682 -0.014770329 0.084957235 -0.08364201 0.0009755492 0.08560588 -0.049842674 -0.036733452
0.02438119 -0.056781594 -0.078388214 -0.057857558 -0.050269358 0.012948938 -0.020390518 0.049352266
0.005413048 0.03533937 0.021057345 -0.025222525 0.044848956 0.01874166 -0.052535698 -0.040948443
00000000: 400d d63a 40ff 373b c36c b2bd d669 663d
00000010: e5e8 ad3d d562 993d be3e 283d 549e 86bd
00000020: 31bc a23d 5fd7 8d3d 486a 0abc 9a72 463d
00000030: 4065 28bc 47f9 61bd 8d93 ad3d c342 b23d
00000040: 4b11 893d 00f9 3ebc 961f 3d3d 3001 3dbc
00000050: 24ae 5abd 7cf1 a2bd f8f4 05bc 6836 47bd
00000060: 648a 05bd bea6 543d 9956 39bd 9000 203c
00000070: 275e ad3d d007 79bc 309a 21bd c84f 303c
00000080: 66be 57bd bf03 74bd 14bd afbd 9f00 9d3d
00000090: 5280 113d 0cd7 b2bd 5c16 46bd 303e 77bd
000000a0: 909f a4bc 38b5 cb3c 7dae a23d 75bc 91bd
000000b0: d4c4 a0bd 02a4 8dbd 4383 893d b024 5fbc
000000c0: 98c6 42bd 60c5 36bd 107d f73b 1860 38bc
000000d0: a067 70bd fef7 2a3d 34f0 e2bc a8dc 4f3c
000000e0: 8cd1 073d 44ce aabd 58ad 7b3c f549 44bd
000000f0: 3611 9dbd 6416 85bc 75aa 9ebd 0158 a03d
00000100: fc08 a3bc ae7f 58bd 5883 7f3c d92c 63bd
00000110: 823e 323d 00f8 5dba e062 91bd ace2 a8bd
00000120: 120e 5e3d 6b6e 11bd f89f efbc f38c 96bd
00000130: 4683 1f3d eec3 84bd 3879 bebc 0d35 0cbd
00000140: fe7b 723d 7074 6c3c fad9 3f3d 2866 0abc
00000150: b980 ae3d e855 cfbc 9c29 c6bc 25be 9abd
00000160: 673a 63bd 511b 56bd 4336 8b3d b748 8cbd
00000170: f11e a13d 62c3 0bbd 98ff 9b3c e886 733c
00000180: ea31 473d 0040 6439 9ca2 833c 46af 153d
00000190: a0ad 8d3b 4e97 423d 4e4f 9dbd 56ee 743d
000001a0: 550d a13d 20ed 13bd f4ec 6cbd 4b32 953d
000001b0: df0f 21bd 9f9d a33d 1a74 333d ba28 dfbc
000001c0: 5db6 acbd 889b 98bd 5820 6cbc 0244 0ebd
000001d0: c4e0 9bbd 0728 963d 90ad 0dbd 9e28 5cbd
000001e0: 061b 6ebd a007 cbbc 108b 813c fb80 b13d
000001f0: c0aa 213c fc86 99bc df3e a83d ecf8 c6bc
00000200: 62c6 5b3d de18 193d 23fb 54bd d6fe 3e3d
00000210: 0251 293d 82f6 54bd 0004 70bc a088 c93c
00000220: 4848 00bc 6d80 07bd 031d a53d f0d8 1d3c
00000230: ce52 acbd 87a1 8abd c7e2 913d 0087 b639
00000240: 8688 7e3d 49cb afbd 0800 c0bc 3541 953d
00000250: 0074 9338 a47f ae3c 4a6f 98bd c18a 963d
00000260: 768f 3a3d 8b0d a23d 9418 dd3c 3ee2 593d
00000270: 4079 a0bd 0c0d a5bc e36a ae3d ce8c 6bbd
00000280: 007c e0bb 40fd f9bc 4e63 48bd c66d 683d
00000290: fdc8 47bd e119 8c3d f49e 8ebd 5842 503c
000002a0: a7d5 893d 6075 68bb 8626 5b3d aed5 90bd
000002b0: 36f6 353d f22a 65bd 306e a73c d0ec 3c3c
000002c0: db1c 853d 8ce6 eb3c 6461 92bd 8dfb b23d
000002d0: 6bc9 b1bd c4bf 0d3d fa17 3a3d 9087 db3c
000002e0: 208a d03b e0aa b03c 50ad 87bc f054 2dbd
000002f0: 9468 21bd 8873 42bc 74dc 893c 0008 30b8
00000300: 8027 0ebc 3abf 8fbd 8762 a63d 046c 34bd
00000310: 328c 2abd 50a4 8abd 8fab 2dbd f73f aa3d
00000320: c79d 38bd 0864 5bbd 916c 9d3d 3e63 5abd
00000330: 21ed b33d 1a0b 1e3d 93a1 13bd 66cd 393d
00000340: b45c e53c 50fd e03c 7687 92bd 782a 2abc
00000350: e87b 853c 5331 843d fde2 adbd 7847 8f3c
00000360: ee0a 3c3d 2e20 a4bd b0b0 7e3c 801c 39bb
00000370: 46cd 02bd 77d5 4bbd fbee 54bd 403e 193c
00000380: 0f5d b43d 35f7 8c3d f440 bb3c 5572 37bd
00000390: 5039 203c ec8d 9fbd aa96 703d 8065 fa3b
000003a0: 7e12 2b3d 40ff 71bc 0ffe ad3d 814c abbd
000003b0: 00bc 7f3a 2352 af3d d527 4cbd d175 16bd
000003c0: 10bb c73c d193 68bd 008a a0bd 0cfc 6cbd
000003d0: 3ee7 4dbd c827 543c 040a a7bc 9a25 4a3d
000003e0: f05f b13b 04c0 103d 7480 ac3c 789f cebc
000003f0: 8ab3 373d 1c88 993c ac2f 57bd 8eb9 27bd

net.2.bias f4 [128]
0.0026281327 -0.08792425 -0.038098957 0.029005095 0.006680973 0.017836347 0.0013755336 -0.07631318
0.048964627 0.039257877 0.017045923 -0.06659735 0.043025427 -0.07262038 0.05314008 0.009796374
-0.061111927 -0.048058555 0.06412011 -0.018275335 -0.055219788 0.03490161 -0.08173655 0.06265237
-0.061735913 0.012251027 0.035699233 -0.009736374 0.076117136 0.087838344 -0.07843204 -0.0060544237
0.047731616 0.02625382 -0.086837195 -0.043145306 0.03278634 0.0031125546 0.0007978156 0.010410756
0.04988862 0.028454423 -0.046617154 0.07975485 0.041789405 0.07783324 0.04983505 0.025293127
0.043634094 0.029917225 0.0005881563 -0.057543114 0.08638159 0.023250319 -0.0031677708 -0.084426224
-0.017160572 0.0121628195 0.009774886 0.00013332814 -0.038490217 -0.046722677 -0.0063037276 0.0045749247
-0.08020579 -0.03939916 0.085644014 0.047043614 -0.0882959 -0.017476015 0.08075722 -0.006768696
-0.0019438267 0.06480076 -0.06358367 -0.013038084 -0.0334984 0.054763876 0.07690858 0.03222251
-0.06409029 -0.07814628 -0.021823004 -0.075997934 -0.009623013 0.051839523 0.061787166 0.06996139
0.042634554 -0.04631631 -0.0638595 0.008122534 0.08535821 -0.013031647 -0.025293544 -0.027692303
-0.07226954 -0.08563857 -0.07171074 -0.017338589 0.07543182 -0.009578526 -0.0548582 -0.08474468
-0.018968053 0.08089549 -0.08443004 0.015442364 0.04028175 -0.006450467 -0.06157037 0.024256214
-0.034540407 0.052681364 -0.076467544 -0.007589601 -0.06782882 -0.041340295 -0.0325494 -0.0018049926
0.051452138 0.044186927 0.035316035 0.061564334 0.076314054 0.02916997 0.034500144 -0.06037402
00000000: c03c 2c3b a111 b4bd a70d 1cbd 189c ed3c
00000010: 10ec da3b 881d 923c 404b b43a 164a 9cbd
00000020: 228f 483d decc 203d e4a3 8b3c 3164 88bd
00000030: 6e3b 303d feb9 94bd 6aa9 593d f880 203c
00000040: 8050 7abd 0cd9 44bd 6751 833d 28b6 95bc
00000050: 252e 62bd fef4 0e3d 7e65 a7bd e34f 803d
00000060: ccde 7cbd 88b8 483c 5c39 123d 5085 1fbc
00000070: 4de3 9b3d 97e4 b33d faa0 a0bd 3064 c6bb
00000080: 3a82 433d 4012 d73c b3d7 b1bd 22b9 30bd
00000090: f84a 063d 00fc 4b3b 8024 513a e091 2a3c
000000a0: 0258 4c3d 4019 e93c a1f1 3ebd 8356 a33d
000000b0: 5e2b 2b3d 0967 9f3d d61f 4c3d 8833 cf3c
000000c0: aab9 323d f814 f53c 802e 1a3a 54b2 6bbd
000000d0: d5e8 b03d 7477 be3c 609a 4fbb a8e7 acbd
000000e0: 5494 8cbc 9046 473c d826 203c 00ce 0b39
000000f0: eba7 1dbd 4760 3fbd 808f cebb 40e9 953b
00000100: ef42 a4bd 0361 21bd 2166 af3d ceb0 403d
00000110: 7bd4 b4bd dc29 8fbc 0b64 a53d f0cb ddbb
00000120: 00c8 feba 43b6 843d 2838 82bd b09d 55bc
00000130: 9e35 09bd 1650 603d 3f82 9d3d c0fb 033d
00000140: c541 83bd 280b a0bd 28c6 b2bc cea4 9bbd
00000150: d8a9 1dbc ae55 543d 8a14 7d3d eb47 8f3d
00000160: 92a1 2e3d 2cb6 3dbd c5c8 82bd 6014 053c
00000170: 49d0 ae3d b082 55bc 6834 cfbc f8da e2bc
00000180: 0d02 94bd 4663 afbd 15dd 92bd a809 8ebc
00000190: ff7b 9a3d 40ef 1cbc feb2 60bd 9e8e adbd
000001a0: e462 9bbc 89ac a53d a8e9 acbd f801 7d3c
000001b0: 7afe 243d 705e d3bb 3631 7cbd f8b4 c63c
000001c0: 3e7a 0dbd 6ac8 573d 049b 9cbd 30b2 f8bb
000001d0: d6e9 8abd 7154 29bd 8552 05bd 8095 ecba
000001e0: 7abf 523d 5afd 343d 8ca7 103d e22a 7c3d
000001f0: 8b4a 9c3d dcf5 ee3c 0650 0d3d c04a 77bd

net.4.weight f4 [4, 128]
0.08816745 -0.07434801 0.04037466 -0.047228314 -0.005258031 0.061931588 0.00851424 -0.039984524
0.038716637 0.07060254 0.016226634 -0.00016601384 -0.031608514 -0.062214438 0.08356788 -0.074597895
0.036130354 -0.076364726 -0.042840753 0.060009025 0.074176066 0.008864738 0.010766827 0.01642976
-0.04651909 0.067094795 -0.04410552 0.076220386 -0.065293886 -0.08624596 0.045790173 0.079646
0.07186524 -0.03497199 -0.06122143 -0.054393593 -0.036076277 0.057771467 0.02002947 -0.034536276
0.08047732 0.01741413 0.02879288 0.08484682 -0.027444974 0.071685754 -0.040633447 -0.052783206
-0.021279566 -0.05492318 -0.07545838 0.054449134 -0.069516286 0.041362174 -0.015662633 0.058379732
-0.06006047 -0.08264641 0.034795493 0.05258297 -0.070316985 0.06533191 -0.037937146 -0.022544496
0.06914497 -0.029476672 0.08469003 -0.08434721 0.0688846 0.08558079 -0.007538162 -0.02483911
0.009474993 0.050002508 0.067247756 0.061598234 -0.0016859025 -0.08124778 0.05527071 -0.046079982
-0.024468005 -0.06537768 0.011822246 0.03532169 -0.076949894 0.064194955 0.040915124 0.0392297
0.087771215 -0.06377379 0.008189447 0.01963491 -0.06944399 0.063625745 0.07699827 -0.047072064
0.06131301 0.060349517 -0.042164214 0.005238287 0.087869726 0.046239786 -0.017038725 0.004496023
0.070765086 0.062068246 0.051865347 -0.036573052 0.075860076 -0.029598802 -0.08495395 -0.06784762
-0.053876147 -0.03670531 0.009953357 0.07206165 0.0056029484 0.031601235 0.013178594 0.05775579
-0.004105136 0.06954955 0.07409731 -0.025532864 -0.07908626 0.048600294 0.06170962 0.07689785
-0.011463255 -0.02666004 -0.060917318 -0.06096922 -0.024871416 0.072821565 0.055937387 0.041452013
-0.041963603 0.05173 -0.0830206 0.044045024 -0.034394935 0.06257563 -0.06792238 -0.031856496
-0.014442936 0.045211025 -0.03630621 -0.033905707 0.07983931 -0.0009798482 0.03036461 -0.058230877
0.08750305 0.018007286 0.053325422 0.055419885 0.051917158 -0.05303218 -0.02950764 0.03638217
-0.012850024 -0.07265812 0.083302505 -0.057314105 -0.087481976 -0.027930517 0.0862268 0.06560377
0.047677927 -0.030088425 0.031247497 -0.016694851 0.019143984 -0.024031177 -0.04845699 -0.07410084
-0.06452936 -0.03620919 0.0839119 0.0046520084 -0.082457334 -0.0723024 -0.045823224 -0.0873289
-0.051737435 0.04989455 0.07633201 -0.086283356 0.065998755 0.086636074 -0.067500755 -0.0384306
-0.062699504 0.022841208 -0.02908951 -0.012484357 -0.058871843 0.0693424 0.037432812 0.066090964
0.044180043 0.01941619 0.013519235 0.04501394 0.06211076 0.027852535 -0.040315695 -0.01850219
-0.058949985 -0.03509446 -0.00195162 0.073819555 0.061061673 -0.025448896 -0.03143352 0.017162777
-0.044699136 0.027308457 0.043881364 0.050494485 -0.027373884 -0.08604499 -0.073745415 0.001856938
0.027392626 -0.03746882 -0.011885896 -0.019744545 0.067579664 -0.037516657 -0.065487854 0.017038822
-0.02375009 0.0731109 -0.001073122 -0.07255964 -0.0049153343 0.023456499 -0.023860514 0.023965403
0.042155422 0.08416826 0.061148204 -0.0837829 0.083410956 -0.039199762 -0.01770138 -0.024298593
-0.0146905705 -0.08445161 0.017288707 -0.025465399 -0.05851485 -0.06829255 -0.07557147 -0.016728178
00000000: 2391 b43d c543 98bd e65f 253d 7a72 41bd
00000010: 904b acbb faab 7d3d 507f 0b3c d0c6 23bd
00000020: 5695 1e3d 1198 903d b8ed 843c 0014 2eb9
00000030: ee77 01bd 91d4 7ebd a325 ab3d c8c6 98bd
00000040: 6cfd 133d 1c65 9cbd c979 2fbd 06cc 753d
00000050: 9fe9 973d 683d 113c 5867 303c b497 863c
00000060: cd8a 3ebd ff68 893d fda7 34bd 6f19 9c3d
00000070: cdb8 85bd b9a1 b0bd 7a8e 3b3d 711d a33d
00000080: 152e 933d ca3e 0fbd 52c3 7abd d1cb 5ebd
00000090: b8c4 13bd c6a1 6c3d d814 a43c e975 0dbd
000000a0: 4bd1 a43d 14a8 8e3c 0cdf eb3c 2bc4 ad3d
000000b0: 48d4 e0bc fbcf 923d 426f 26bd 3433 58bd
000000c0: 7c52 aebc 21f7 60bd ec89 9abd 0e06 5f3d
000000d0: 8e5e 8ebd 626b 293d ec4e 80bc 961f 6f3d
000000e0: f801 76bd 8542 a9bd b885 0e3d 3e61 573d
000000f0: 5a02 90bd bdcc 853d fb63 1bbd 3caf b8bc
00000100: e19b 8d3d 1079 f1bc f771 ad3d 3bbe acbd
00000110: 5f13 8d3d fb44 af3d b002 f7bb 647b cbbc
00000120: 003d 1b3c 6ecf 4c3d 31b9 893d 6e4e 7c3d
00000130: 80f9 dcba 3c65 a6bd 8a63 623d 5dbe 3cbd
00000140: 2071 c8bc bce4 85bd 18b2 413c 7aad 103d
00000150: e897 9dbd a578 833d 9e96 273d 52af 203d
00000160: 65c1 b33d d59b 82bd 082d 063c 64d9 a03c
00000170: a738 8ebd 374e 823d 45b1 9d3d a3ce 40bd
00000180: 5a23 7b3d 0e31 773d 62b4 2cbd f0a5 ab3b
00000190: 0bf5 b33d ee65 3d3d cc94 8bbc 6053 933b
000001a0: 49ed 903d 463b 7e3d c270 543d a0cd 15bd
000001b0: 875c 9b3d 3079 f2bc 56fc adbd b1f3 8abd
000001c0: 3cad 5cbd 4f58 16bd 6813 233c 0f95 933d
000001d0: f098 b73b 4c70 013d 08eb 573c 5691 6c3d
000001e0: 6084 86bb ff6f 8e3d 55c0 973d 4c2a d1bc
000001f0: faf7 a1bd 1a11 473d 3ac3 7c3d 9f7c 9d3d
00000200: 60d0 3bbc 2866 dabc 7084 79bd dcba 79bd
00000210: 24bf cbbc 7923 953d 9a1e 653d 96c9 293d
00000220: 07e2 2bbd d6e2 533d b406 aabd 8e68 343d
00000230: b4e1 0cbd a727 803d e41a 8bbd f57b 02bd
00000240: 10a2 6cbc 322f 393d d2b5 14bd b6e0 0abd
00000250: cb82 a33d 406e 80ba 34bf f83c 8083 6ebd
00000260: cd34 b33d 0484 933c c26b 5a3d f6ff 623d
00000270: 16a7 543d 4538 59bd 02ba f1bc 7805 153d
00000280: e888 52bc c8cd 94bd 819a aa3d 32c2 6abd
00000290: c029 b3bd 8ace e4bc ad97 b03d 455b 863d
000002a0: ee49 433d 007c f6bc c0fa ff3c a4c3 88bc
000002b0: d8d3 9c3c 08dd c4bc d67a 46bd 2ec2 97bd
000002c0: f827 84bd 1650 14bd 01da ab3d e06f 983b
000002d0: 64df a8bd 4813 94bd 22b1 3bbd 7fd9 b2bd
000002e0: a2ea 53bd 3a5e 4c3d f553 9c3d 54b5 b0bd
000002f0: 5b2a 873d 416e b13d d63d 8abd 6869 1dbd
00000300: 9968 80bd 7c1d bb3c 204d eebc 308b 4cbc
00000310: 9a23 71bd 6303 8e3d 2653 193d b35a 873d
00000320: 22f6 343d b40e 9f3c c87f 5d3c 8a60 383d
00000330: da67 7e3d 002b e43c 1222 25bd e891 97bc
00000340: 8a75 71bd 35bf 0fbd 80cd ffba b52e 973d
00000350: ce1b 7a3d 347a d0bc 6fc0 00bd f498 8c3c
00000360: 7116 37bd fcb5 df3c f2bc 333d 4ed3 4e3d
00000370: 323f e0bc 5b38 b0bd d607 97bd 8064 f33a
00000380: 8066 e03c e878 19bd 10bd 42bc 50bf a1bc
00000390: 3567 8a3d 11ab 19bd 7f1e 86bd 0095 8b3c
000003a0: 8c8f c2bc 2bbb 953d 00a8 8cba 269a 94bd
000003b0: d010 a1bb d827 c03c 2077 c3bc 1853 c43c
000003c0: 2aab 2c3d 6960 ac3d 8a76 7a3d 5e96 abbd
000003d0: 5dd3 aa3d ee8f 20bd 7c02 91bc d80d c7bc
000003e0: b8b0 70bc f7f4 acbd 0ca1 8d3c d09c d0bc
000003f0: 44ad 6fbd f7dc 8bbd 37c5 9abd 8809 89bc
