dqn_model.pth (torch, 291904 bytes, 24 tensors)

net.0.weight f4 [128, 4]
000000 66 b6 91 bf 45 17 37 3f a4 8d 24 bf a7 17 31 bc
       -1.1383789 0.7151988 -0.64278626 -0.010808862
000010 88 fc b1 bd 68 ac 55 be 9e 63 84 be ac 4d b0 be
       -0.08690745 -0.20866549 -0.25857252 -0.3443426
000020 29 9f 70 3f 50 15 ac be 86 15 30 3f bb 46 45 3e
       0.9399286 -0.3361001 0.6878284 0.19265263
000030 20 91 92 3e ea 17 4a 3f 8e 8b 86 bf 2d 29 89 bf
       0.28626347 0.7894274 -1.0511339 -1.0715691
000040 9b 3c d5 bd 48 16 91 bf 8b c3 1f bf df b5 d3 be
       -0.1041195 -1.1334925 -0.6240775 -0.41349694
000050 a8 12 42 3f da d1 36 3f 4b b6 5c be f3 a6 61 be
       0.7580972 0.7141396 -0.21553914 -0.22036342
000060 0c ab 1c bf 5f d5 c4 bf 06 75 77 be 1f b6 0a bf
       -0.61198497 -1.5377616 -0.24165735 -0.54184145
000070 1c b1 51 bf 88 34 87 bf 7e de 32 bf f5 25 91 3d
       -0.8191087 -1.0562906 -0.69870746 0.07087318
000080 e5 d4 1a 3f 69 9b 9c bf 5b b7 d1 3e 9f 7d 9c 3e
       0.604811 -1.2234927 0.40960202 0.3056459
000090 73 7b 74 3f 55 07 ff be 5a 5f 38 3e 80 7a 0f 3e
       0.9550087 -0.4981028 0.18005124 0.14011574
0000a0 6b f1 4c bf 67 f1 6f 3f 0c da 2d 3e 8d 85 9c be
       -0.80055875 0.93727726 0.1697771 -0.3057064
0000b0 38 5d 79 be 90 72 4f be 38 2a ab bd 60 d4 ce bc
       -0.24351966 -0.20258546 -0.08357662 -0.025247753
0000c0 fc 46 55 3f 1a 88 48 3f da 30 ef be 2e 5a 82 bd
       0.8331144 0.78332675 -0.46716958 -0.06364857
0000d0 dc df d5 3e b2 5c 5c bf 4b 40 28 be bd 50 e9 3d
       0.41772354 -0.8607894 -0.16430776 0.11392353
0000e0 0c 68 ca 3e 06 0e 0a 3f f8 f3 64 3e bc fd be 3e
       0.39532506 0.5392765 0.22358692 0.3730296
0000f0 1b 3e c4 3e 02 08 2f bf f6 c8 8c bf cc 8b 26 bf
       0.38328633 -0.68371594 -1.0998828 -0.65057063
000100 8d 27 d5 bf 3f b4 c9 3f dd 4d 2a be 8e b5 c6 3e
       -1.6652695 1.5758132 -0.16631265 0.3881039
000110 b4 b7 d8 be 07 73 a9 bf c1 02 06 3f 73 05 9d 3e
       -0.42327654 -1.3238229 0.5234795 0.3066822
000120 4e af 47 3e eb 7a a7 3f 1f 53 b0 be a7 a3 a9 3e
       0.19500467 1.3084387 -0.34438416 0.3313267
000130 24 1e 03 3e 08 f0 5a be 48 51 56 be 7e 90 ed be
       0.12804466 -0.21380627 -0.20929444 -0.463993
000140 83 59 80 3f af 9b 14 be 2c ec 46 bf 60 45 1c bf
       1.0027317 -0.14512514 -0.7770412 -0.6104336
000150 ac 41 57 be 4c 97 bd be 00 ce 16 bd b0 55 4f 3e
       -0.21021146 -0.37029493 -0.03681755 0.20247531
000160 12 92 c1 bd 5a 1f 86 3e b8 cb 12 bf 1a f0 94 3d
       -0.09451689 0.26195794 -0.573421 0.07272358
000170 5e 41 4d bf 78 41 97 3f 1b 20 d5 3d 25 12 fd bd
       -0.8017787 1.1816854 0.10406514 -0.123569764
000180 fb f4 5e bf 4b 83 f2 3e 8e 11 45 be 73 3e ea 3d
       -0.8709256 0.47365794 -0.19244978 0.114376925
000190 0d 7b e5 bf 84 28 25 bf ec 67 b7 3e d4 cd bb 3e
       -1.7928177 -0.64514947 0.35821474 0.36680472
0001a0 98 e3 ad be a0 b8 dc bd 78 bc 3b 3e 8a 80 d4 be
       -0.33962703 -0.10777402 0.18333614 -0.41504318
0001b0 88 ea 15 bf e1 c2 a2 3f 5b ed 01 bf 7e f5 1e be
       -0.5856099 1.2715722 -0.507528 -0.15523335
0001c0 41 a8 cf bf 99 db 39 3f bf d7 cb bc b4 09 f5 3e
       -1.6223222 0.72600704 -0.02488315 0.47858965
0001d0 96 7a 84 bf e7 de 84 bf 33 dd 84 3e 83 36 87 be
       -1.034991 -1.0380524 0.25950012 -0.26408777
0001e0 ed 08 0f 3f 71 ac cf bf e7 0f 12 3f 49 dc 9e 3e
       0.55872995 -1.62245 0.57055515 0.3102744
0001f0 9c 21 00 3e 20 61 49 bf 07 c6 80 bb 72 21 30 bf
       0.12512821 -0.78663826 -0.0039298567 -0.68801033
000200 61 b4 a4 3e bc aa 80 3f 14 4d 84 3e 4e 68 8a 3e
       0.32168868 1.0052104 0.25840056 0.27032703
000210 d1 a2 22 3f 43 a5 74 bf fd 56 bb 3d 20 ff 07 3f
       0.6352969 -0.9556467 0.09147451 0.53123665
000220 7d 7e 3d bf e4 d2 7a bf e8 82 19 bf e6 74 8b be
       -0.7402113 -0.97978044 -0.5996537 -0.27237624
000230 99 9d 2a 3f 71 3e 0a c0 e9 be df 3e 9a 58 4d 3e
       0.66646725 -2.1600611 0.4370034 0.2005333
000240 73 1c 96 3f 6c 99 b3 3e 00 14 8b bf 87 59 1d bf
       1.1727432 0.3507799 -1.0865479 -0.6146473
000250 2b 20 4e 3f ae 5b 48 3f c0 5b 97 3e f4 1c 54 3e
       0.80517834 0.7826489 0.29562187 0.2071417
000260 f7 1c c2 bf 69 9f d6 bd 02 ba 15 3e 13 01 0a 3f
       -1.5165089 -0.10479624 0.14621738 0.5390789
000270 56 4b b6 bf dc a1 ba 3d 77 ed 3b 3f 59 8b 07 3f
       -1.4241741 0.091129035 0.7340922 0.52947
000280 a4 19 bf bf 20 f1 1d be 7a de d2 3e 88 ab 73 be
       -1.49297 -0.15424013 0.4118536 -0.23795903
000290 e8 a8 8a bf f1 82 81 bf 0b 3c 43 bf 57 83 23 bf
       -1.0832796 -1.0118085 -0.76263493 -0.63872284
0002a0 ad b2 71 3f 43 8d 5e 3f 5f 9a 23 3e 37 68 17 be
       0.9441326 0.869343 0.15976857 -0.14785849
0002b0 f6 8d f0 be e3 73 6d be ce dd 02 be d6 c0 ae bd
       -0.46983308 -0.23188739 -0.12779924 -0.08532874
0002c0 5e 14 1d bf 98 69 99 bf ab 54 95 3e 24 02 01 3f
       -0.613592 -1.198535 0.2916616 0.5039389
0002d0 4a 2c d8 3e 38 ba fe be a0 7f de 3d 8c d4 51 be
       0.4222129 -0.4975145 0.10864186 -0.20491236
0002e0 ce 8f 80 bf d1 7b 2e 3f 0a 4a c0 be 8a b8 f8 be
       -1.0043886 0.6815768 -0.37556487 -0.48578292
0002f0 b6 9a 2c 3f 13 f1 3d bf 90 83 10 bf 7d ef e5 be
       0.6742357 -0.74195975 -0.5645075 -0.44909278
000300 87 71 0a c0 dc cc 12 3f 92 25 2b be 1c 5c cd 3e
       -2.1631792 0.5734384 -0.1671355 0.40109336
000310 78 83 f4 3d cc 94 94 be 4c 89 d3 be c4 74 cb be
       0.11939138 -0.29019773 -0.41315687 -0.39737523
000320 24 10 8d 3e f1 4e 93 3f 3e ae 44 be 71 83 d4 be
       0.27551377 1.1508466 -0.19207093 -0.41506532
000330 3b c7 2e 3f f4 77 bf 3e 43 9c 39 bc 29 f6 b7 3e
       0.6827275 0.37396204 -0.01132876 0.35929993
000340 bd 25 c4 3e 44 b7 0b 3f 15 b6 a7 3d 29 09 30 3e
       0.38310042 0.54576516 0.08189026 0.17190994
000350 5d c7 8c bf 61 00 8c bf 1d 6e 1f 3e bb ca b9 3e
       -1.0998341 -1.0937616 0.15569349 0.36287484
000360 b0 39 4a bd a0 52 0a bd 18 6f d9 bd 90 46 bd be
       -0.04937142 -0.033770204 -0.106168926 -0.36967897
000370 7f 15 f4 bf db 9b c0 be 17 aa 31 bf a9 44 5d bf
       -1.906906 -0.37618908 -0.6940016 -0.8643289
000380 7d 17 56 bd 5a 1f 9b 3e 3f 13 f8 3e 24 02 30 3f
       -0.052268494 0.30297357 0.48452184 0.68753266
000390 e7 ea 79 3e 5b e1 8f bf 2e 47 01 3f 3a f9 08 3f
       0.24406014 -1.1240648 0.50499237 0.5350529
0003a0 55 35 80 3f 2f 08 6b 3f ef ce 63 3e 61 34 18 be
       1.0016276 0.9180936 0.22246908 -0.14863731
0003b0 47 9d d7 bf 8b 07 56 3f 56 b1 08 bd b7 22 37 3e
       -1.6844872 0.8360526 -0.033372246 0.17884336
0003c0 2e 6d c5 3e 4e 63 c7 bf 42 da 25 3e fb 0f df be
       0.3855986 -1.557718 0.1619654 -0.4356688
0003d0 5a 40 f6 bf b8 d2 0e 3f 61 e4 c1 3e 8a 08 d1 3d
       -1.9238389 0.5579028 0.37869552 0.10206707
0003e0 20 e7 e8 bc ea 07 d3 be a0 06 6a 3d c8 b5 71 be
       -0.028430521 -0.41216975 0.057135224 -0.236045
0003f0 16 11 33 bd 18 a9 c4 be 3e 45 0c bf 63 7c 00 be
       -0.043717466 -0.38410258 -0.54793155 -0.1254745

net.0.bias f4 [128]
000000 c2 ee 35 3f 0c 94 5b be cc 0f bc bc 3c 46 0d bd
       0.7106744 -0.21443194 -0.022956751 -0.03449081
000010 2b c3 9a 3f 7f 7d b6 3c c0 02 81 3f 30 96 37 3f
       1.209081 0.022276638 1.0078964 0.7171354
000020 84 a5 03 bf a2 52 b9 bd 58 17 3e 3e f0 15 15 3d
       -0.5142443 -0.09048964 0.18563592 0.036397874
000030 9d 10 a6 bf 6e 4e 22 3f 9a 8a 35 bf 1d 78 c4 3e
       -1.297382 0.63400924 -0.70914614 0.3837289
000040 32 6f aa be 2f 51 5d be bf 80 5b be 5a fc e2 be
       -0.3328796 -0.21613 -0.21435831 -0.44333154
000050 aa 5f f9 be 9a 60 f8 be 80 6c 86 be 2e 1a 08 bf
       -0.48705798 -0.485112 -0.26254654 -0.5316495
000060 ab 86 20 3f 6e 9a 89 be 12 1a bd be ad c6 ee 3e
       0.62705487 -0.26875633 -0.36933953 0.46635953
000070 6a 71 8d be 61 42 84 3f 01 5c 8d 3e c5 21 24 3f
       -0.2762559 1.0332757 0.27609256 0.6411403
000080 0f 5a 4a bf 2c 6d 8e be 2f 30 2e 3f 2a e2 61 bf
       -0.7904367 -0.27817667 0.6804227 -0.88235724
000090 aa 8c 2d bf 1a 26 4a be 21 37 e5 be 2f 0a dc 3e
       -0.6779276 -0.19741097 -0.44768623 0.4297652
0000a0 86 21 83 3f ee d0 80 3f 0e b7 7f be 46 ef 2e 3f
       1.0244606 1.006376 -0.24972174 0.6833385
0000b0 0e 95 1e 3c f0 bc da be bd e3 32 bf 8e ec b8 be
       0.009679092 -0.42722273 -0.6987875 -0.36117977
0000c0 74 70 ee 3d 7c 72 13 be 4c ed 21 3e 78 80 4b bf
       0.116425425 -0.14399141 0.15813178 -0.794929
0000d0 66 57 51 be 42 6a d9 be 1a fe ec be 92 f4 6d 3e
       -0.20443496 -0.4246388 -0.46287614 0.23237827
0000e0 92 06 3d bf ca 7e 4b 3e 8f c1 99 bf 4a fe a3 be
       -0.7383815 0.19872585 -1.2012194 -0.32029945
0000f0 74 54 79 3f e5 24 3b bf ae 58 df be 1b a2 ea 3d
       0.9739449 -0.7310317 -0.43622345 0.114567004
000100 7a 18 4a 3f ce a8 ed bd 66 3c 14 be e7 36 0b 3f
       0.789436 -0.116044626 -0.14476165 0.5438065
000110 50 bd e7 bd 5d 7a 97 bf 21 3d 33 bf e9 bc 7e bf
       -0.11315405 -1.1834217 -0.7001515 -0.99507004
000120 5e 2c f0 3e 2f 65 4f be 7d 51 07 3f 6e 64 0d 3f
       0.4690885 -0.20253442 0.52858716 0.5523137
000130 52 4f d7 be 7d 7d 10 3e 5a 07 13 3f 31 fd 03 3f
       -0.42052704 0.1411037 0.5743309 0.51558214
000140 20 fe a7 bd 68 db c4 be 88 4c a1 be 5c 4e 24 3f
       -0.08202767 -0.38448644 -0.315037 0.64182067
000150 7f 9c 1b 3f 20 aa 1a 3f 00 87 c9 3e c3 cf 52 bf
       0.6078567 0.6041584 0.3936081 -0.8234827
000160 53 ce bf be 1f 25 1a 3f 7f fc 45 bf f8 51 89 bd
       -0.374621 0.6021289 -0.77338403 -0.067050874
000170 a8 56 62 be de d7 f6 be 72 c2 e6 be 18 df 17 3f
       -0.22103369 -0.4821157 -0.45070225 0.5932479
000180 8b d3 ef 3d 04 fc 07 3d e4 27 0d 3f 7e a1 e6 b9
       0.117102705 0.033199325 0.55138993 -0.0004398934
000190 eb 39 29 3f 3c fa e6 be 56 51 62 be 5c 77 a3 be
       0.66104 -0.4511279 -0.2210134 -0.31927
0001a0 87 0b a0 bd f2 87 e3 3d 74 c6 8a be 80 de b0 be
       -0.07814699 0.11109914 -0.27104533 -0.34544754
0001b0 67 10 1c bf 58 27 3b be 68 a1 06 be f5 b9 39 3f
       -0.6096253 -0.18276727 -0.13147509 0.7254937
0001c0 6d 17 f4 3e a6 5c 67 be d0 71 f7 3e cd 82 11 bf
       0.47674122 -0.22593936 0.4832902 -0.5684021
0001d0 2b 6f b1 be bf 13 80 3f 45 57 8e be 29 ef 94 3f
       -0.34655127 1.0006026 -0.27800956 1.1635486
0001e0 e7 21 2c be ce 69 21 3e 0b 6f 09 bc 81 d4 d2 3d
       -0.16809808 0.15763018 -0.008388291 0.10294438
0001f0 e0 e4 90 be 3c 11 16 3f 76 ed f3 3e ef 97 72 bf
       -0.28299618 0.5862005 0.47642106 -0.9476308

net.2.weight f4 [128, 128]
000000 e5 b8 bf bc 48 0d ad bc cd 08 7a bd 0c 66 45 bd
       -0.023403594 -0.021124497 -0.06104355 -0.048193023
000010 8b df 00 3d 55 e3 40 bc fe 8e 22 3c 4f 6e e4 3c
       0.031463187 -0.01177295 0.009921787 0.02788463
000020 45 30 b7 bd 1e dc bb bd c9 8b 8c bd 74 15 07 bd
       -0.089447536 -0.091728434 -0.068625994 -0.032979444
000030 e7 7a 9d bc 10 79 29 bd f6 b9 84 3b eb 5c c4 bd
       -0.019223643 -0.04137522 0.0040504886 -0.09588035
000040 4c 66 80 bd 43 91 24 3d 20 a3 33 bd 3c 63 b0 bd
       -0.062695116 0.040177595 -0.04385674 -0.086126775
000050 f6 75 28 be ca 1c 05 bd c1 8d 3b bd 07 d5 0f be
       -0.16451249 -0.03249816 -0.045789484 -0.14046107
000060 93 c5 c1 bd 23 f6 b8 3d 8a b7 2f 3d 32 95 00 be
       -0.094615124 0.09031322 0.042899646 -0.12556913
000070 74 d2 b7 bd 47 bf ca 3c 7a 22 13 bd 5c 7d cf bd
       -0.089756876 0.024749411 -0.03592155 -0.10131332
000080 7f 3a 9b bc be 98 21 3d 39 7d 0d 3c 24 95 80 bd
       -0.018948792 0.039452307 0.008635812 -0.06278446
000090 9f a9 52 bd 3e 4f 0b bd c6 0f 09 3e 74 ca 75 bd
       -0.051431295 -0.034011118 0.13384923 -0.060007527
0000a0 8c 11 5a 3c 86 a3 1b 3d d6 29 e2 bd 11 10 64 bd
       0.013309848 0.037997745 -0.11043136 -0.055679385
0000b0 4d 74 bc 3c c8 0d c2 3c f6 5e ef bd 1f e3 05 bd
       0.023004675 0.023688212 -0.11688034 -0.032687303
0000c0 e9 f8 00 3d a8 bb 21 bc 4b c5 f1 bd 8c 3a 1f be
       0.03148738 -0.009871401 -0.11805209 -0.15549678
0000d0 7e 26 b6 bc fc 9e 2f 3d 32 b1 10 3d fd 17 e2 bd
       -0.022235151 0.04287623 0.035325237 -0.11039732
0000e0 87 aa cb bd d8 7c 2e 3c cb 66 1f be 57 29 a3 bd
       -0.09944635 0.010649882 -0.15566556 -0.07966869
0000f0 69 71 42 3d f8 c9 15 bd 9c 25 0f bd a6 1d 18 bd
       0.047471438 -0.036569566 -0.034947976 -0.03713765
000100 27 ed e9 bc bd 14 20 3d 06 f8 1e bd 40 4e 25 bd
       -0.028555466 0.039082278 -0.038810752 -0.04035783
000110 e3 f0 b7 bd cb 72 24 be bf 83 8a bb 8d cf cc bd
       -0.08981492 -0.16059415 -0.004227131 -0.10000525
000120 a8 f9 46 bd 7e 74 b2 3c 21 2c dc 3d 6c d1 c4 3c
       -0.048577935 0.021784063 0.107506044 0.024025641
000130 10 3a f2 bb ef 42 96 bd 5f 3f 1d 3d 52 47 53 3d
       -0.0073921755 -0.07336985 0.038390514 0.05158169
000140 29 96 ae 3d c0 fa 5a bc 5f 1b d3 bd e8 9c f8 bd
       0.085247345 -0.0133654475 -0.10307955 -0.121393025
000150 ab 26 e2 bc b4 4d 9e bd 5e 84 11 bd 45 49 9a bd
       -0.027606329 -0.077296644 -0.035526626 -0.07533506
000160 c2 88 47 bd c6 92 29 3c be 48 22 be 7b 71 9b 3d
       -0.048714407 0.010349935 -0.15848061 0.07590004
000170 c6 38 43 3d 2c 71 cb ba de 49 f1 bc 4e 8d c9 bc
       0.047661565 -0.0015521399 -0.029454168 -0.024603512
000180 ed f5 a5 bd 2b 33 fd ba 46 6e c0 3c e7 95 d4 bd
       -0.08103547 -0.0019317617 0.023490082 -0.10380154
000190 5b 50 da bd 36 79 e6 bd 50 e7 08 3c 1d e2 1b 3d
       -0.10659858 -0.11253588 0.00835593 0.038057435
0001a0 c6 bd 13 be 03 74 bd bd be d3 2d bd 1c 02 c8 bd
       -0.14427862 -0.09250643 -0.04243826 -0.09766027
0001b0 94 f3 ed 3c 46 b3 14 3d a8 28 f2 bd df 63 6b 3b
       0.029046811 0.03630378 -0.11824161 0.0035917682
0001c0 94 e9 a5 3c 89 dc e9 bd 84 7f 6c b9 80 2f a8 bc
       0.02025298 -0.11419017 -0.00022554217 -0.020530462
0001d0 71 ad da bd 95 f2 5f bd 24 02 97 bd 4b 48 56 bd
       -0.106776126 -0.054674704 -0.07373455 -0.052315038
0001e0 1b 93 1c be a1 f5 98 bc b8 be 18 be 5b 49 b8 3c
       -0.15290491 -0.018671812 -0.14916503 0.022495916
0001f0 84 fc e4 3c 2d 0b 6c 3d a6 00 5f 3d 43 c0 b4 bd
       0.02795244 0.057627846 0.054443978 -0.088257335
000200 42 cf 2a be d9 b7 83 3d 7a e6 8d 3d 11 75 bb 3d
       -0.16680625 0.064315505 0.069287255 0.09153188
000210 2f c8 a1 3d d9 6c 07 be 3e 83 8d bf de 77 8e 3e
       0.0789951 -0.13225116 -1.1055677 0.27825826
000220 f1 a6 7c 3f 67 db 98 bc 04 f3 cb bd 5e 45 7a 3d
       0.9869223 -0.018659307 -0.09958461 0.06110131
000230 2c 69 80 c0 92 82 38 3e 90 92 bf bd 85 0b 17 3e
       -4.0128384 0.18018559 -0.093541265 0.14750488
000240 ed 12 dc be 95 19 aa be ec 6c 12 3b e0 89 c3 bb
       -0.4298319 -0.33222643 0.0022342755 -0.0059673637
000250 12 a4 65 3e 80 68 94 3b 49 7d 37 bd 8e 89 55 be
       0.22425869 0.004529059 -0.044797216 -0.20853254
000260 ee 63 ce bb 28 da 09 be 40 b4 9b bb 00 90 ab 3d
       -0.0062985336 -0.13462126 -0.004751712 0.08377075
000270 7a 69 f8 be bd a4 bd bf 33 05 46 3d 20 da ce 3d
       -0.48517972 -1.4815899 0.048344802 0.10100198
000280 f2 da 33 bf cd 16 24 bf 51 12 82 bd b3 2c ce be
       -0.7025596 -0.6409729 -0.0635115 -0.40268478
000290 e9 14 48 3e fe 4d 26 3d 0a 0d 59 be c2 c5 02 be
       0.19539227 0.040601723 -0.2119638 -0.12770751
0002a0 2c 27 30 be 54 b2 c0 3e f1 ef 6d be 52 78 b5 39
       -0.17202443 0.37636054 -0.23236062 0.00034612656
0002b0 43 ab 62 bd 10 b8 ac 3b ed b6 d4 bd 41 c9 78 bf
       -0.05533911 0.0052709654 -0.10386453 -0.9718209
0002c0 74 ed 9a be 70 18 80 3c 98 b5 6a bd 3a a1 7d 3c
       -0.30259287 0.015636653 -0.057302088 0.015480334
0002d0 7a 3e 10 3c 2c 91 66 be a8 84 14 bc 42 63 53 be
       0.008803958 -0.22516316 -0.009064831 -0.20643333
0002e0 86 c4 57 bd 98 e6 2a be 00 e7 f5 be 29 3d 66 3d
       -0.052677654 -0.16689527 -0.48027802 0.05621067
0002f0 a8 92 ea bd a5 4d a6 be 4e 8f 87 bd 70 2e 01 3e
       -0.11453754 -0.32481113 -0.0661913 0.12615371
000300 2b 19 07 3e ca 17 b2 bd 17 65 fb ba d6 d8 f6 bd
       0.13193195 -0.08695944 -0.0019179907 -0.12053077
000310 fb c9 68 bf bd 34 9b be 7b fa 0f be 95 39 f4 bd
       -0.909332 -0.30313674 -0.14060394 -0.119250454
000320 a4 92 ea 3e 49 a8 9e 3d e1 66 ac be 15 a2 6b bd
       0.45815003 0.077469416 -0.3367224 -0.05752762
000330 82 a8 30 3d 1a 3a 56 bf 89 76 26 3e b5 b3 79 bd
       0.04312945 -0.83682406 0.16256155 -0.060962398
000340 98 f0 2d bc b0 eb 54 3c ce 17 2b 3e 15 28 bb 3d
       -0.010616444 0.012995645 0.167083 0.091385044
000350 89 47 df be e5 ad 22 3d 67 05 e4 3d 3d 69 c2 bd
       -0.43609264 0.03971662 0.11133843 -0.09492729
000360 31 d2 71 bd 30 03 b9 38 cd f2 d5 bc 52 d3 35 3d
       -0.059038345 8.822081e-05 -0.026116753 0.044390984
000370 73 42 ad 3d 7a a1 8e bd 48 1b a6 bc c0 63 ba 3c
       0.0845994 -0.06964393 -0.02027668 0.022752643
000380 87 d4 ed be 0c 57 33 3e 28 46 3e be 57 96 2b 3f
       -0.46451208 0.17513674 -0.1858145 0.67026275
000390 16 72 18 3d ed 34 bc bd 0b 04 be 3e 46 ea ec 3c
       0.037218176 -0.09189782 0.3711246 0.028920304
0003a0 23 1b 77 3d 49 ab 75 be 79 fa 88 3d 56 58 81 3c
       0.060328614 -0.23991121 0.06688399 0.015789192
0003b0 00 47 51 3d 5a 87 6d 3d 19 14 5f be 54 e7 b0 3c
       0.0510931 0.05799041 -0.2178501 0.02159468
0003c0 c8 0b 4c bd 9a 7f 9e bf 5d a8 f6 bb 0a e8 20 be
       -0.049815923 -1.2382691 -0.0075273947 -0.15713516
0003d0 a4 50 1c be 7b 3e d0 3d 47 a2 86 3d 87 61 a1 3d
       -0.15265137 0.10168167 0.06573921 0.0787993
0003e0 74 e1 a7 bd 95 05 14 bd 0b 5b 02 3e 0d 05 25 bd
       -0.08197299 -0.036138136 0.12730043 -0.04028802
0003f0 95 87 8f bd 78 84 88 be cb 8f ab be 8c 3c b6 be
       -0.07008282 -0.26663566 -0.33508143 -0.3559307

net.2.bias f4 [128]
000000 ac 6d ba bd a1 8c d1 3d 32 55 21 3e 80 c4 1e bd
       -0.091029495 0.10231901 0.15755156 -0.038761616
000010 6d 41 39 bd e8 f9 c8 3d 66 57 94 3e 74 77 4d 3e
       -0.04522841 0.09813291 0.2897293 0.20065099
000020 84 b1 ab 3d a2 9d 46 3d 42 d9 a3 bc 03 05 ec 3c
       0.08383468 0.048490174 -0.020001058 0.028810984
000030 24 74 91 bd 48 50 a3 3b 20 5a 12 3e 12 25 88 bd
       -0.0710223 0.0049839355 0.14292192 -0.066476956
000040 5c cc 5c 3e 7f 70 de bd 67 cf 83 bd 61 2c e1 bd
       0.21562332 -0.10861301 -0.06436043 -0.10994793
000050 ac bf b6 bd 63 af a7 bd 49 25 83 3e ff 98 a4 3e
       -0.08923277 -0.08187749 0.25614384 0.32147977
000060 c1 b9 84 bd 3b db 3d bd 90 1f 10 3e e7 32 06 3e
       -0.06480742 -0.046351653 0.1407454 0.13105355
000070 06 e0 df 3b 38 79 18 be 47 0b 13 bd d5 8b 1f 3d
       0.0068321256 -0.14889991 -0.035899427 0.038951714
000080 7b 55 03 3e 3f 64 78 3d b9 c1 22 3e 20 b1 99 be
       0.12825577 0.060642477 0.15894212 -0.30017948
000090 de bf 67 3d 22 f1 d2 3e b7 7d c0 3d de 41 f2 3e
       0.056579463 0.41199595 0.09398978 0.47315878
0000a0 e8 73 f5 bb 1c 3a 73 3e 95 3d 20 be 27 12 ca 3e
       -0.0074906237 0.23752636 -0.15648492 0.39466974
0000b0 6c c7 81 bd ec c3 78 bd 2e 53 d0 3d 2f 5c 2b be
       -0.06336865 -0.06073372 0.10172115 -0.16734384
0000c0 3f e8 37 bd e3 16 60 bd 6c f1 82 bd b2 00 a1 3d
       -0.04489922 -0.054709326 -0.06393704 0.07861461
0000d0 7b e2 cc bd da 75 14 bd f2 f3 2f be b6 20 f1 bd
       -0.10004135 -0.036245205 -0.17182902 -0.11773817
0000e0 80 be ca bc 99 cf ee bd 65 22 b8 bd 1b e7 5a 3e
       -0.02474904 -0.1166069 -0.08990935 0.21377222
0000f0 15 89 5a 3c 4d 78 0b 3d 72 a9 0b 3f 2b b2 28 bd
       0.013338347 0.034050275 0.5455543 -0.04118554
000100 ff 12 b4 3a f6 cf b0 bd 9d de 45 bc ea fd ae bd
       0.0013738571 -0.086334154 -0.012077001 -0.08544524
000110 ea b6 ca bd dc 22 e3 3e cf 91 37 bd ac 33 56 3e
       -0.09898169 0.44362533 -0.04481679 0.20918149
000120 10 f7 82 bd d7 8d e5 3d 99 26 55 3e 1d 63 06 be
       -0.0639478 0.112086944 0.20815505 -0.13123746
000130 de 3f 85 3c 0f 45 5d be e0 fa 00 bd 59 07 39 be
       0.016265806 -0.21608375 -0.031489253 -0.18069209
000140 b2 97 aa be c4 43 9a bd fd fc 20 bd dd 0a 6d 3e
       -0.3331886 -0.075324565 -0.03930377 0.23148675
000150 01 b1 21 bd 73 7f a7 3e 81 3a 40 3e 95 88 56 3d
       -0.039475445 0.32714424 0.18772317 0.05237635
000160 e8 08 c3 3e 51 2f fa 3c 42 cf 95 bd c4 57 ae 3d
       0.38092732 0.03054014 -0.07314922 0.08512834
000170 4d 41 c4 3c bc 47 0e 3d cc 76 a8 3e 58 79 1d 3d
       0.02395692 0.03473638 0.32903135 0.0384458
000180 ed 11 2b 3e fc 7e 2e 3c de b4 e9 bc 0e 24 f0 bd
       0.16706057 0.010650393 -0.028528627 -0.11725627
000190 49 3f ed bd 44 d5 18 3e 70 9f c2 b9 10 8a 5f 3d
       -0.11584336 0.14925104 -0.00037121354 0.054575026
0001a0 d5 9f f3 3c 1a ce df 3d c3 4e 07 bd 91 35 87 3e
       0.0297393 0.10927983 -0.033034097 0.26408055
0001b0 5c 02 62 3e 28 37 ac 3d 2a e4 54 3e 29 7a 5e 3e
       0.22071213 0.08408958 0.20790163 0.21726288
0001c0 c1 51 c8 3d 03 67 a1 3d d5 84 98 3e ac 28 bc 3e
       0.09781218 0.07880976 0.29788843 0.3674978
0001d0 23 70 ea bd 54 5d cf 3e 14 6c b0 3e 6f 91 38 3e
       -0.1144717 0.4050089 0.34457457 0.18024229
0001e0 08 35 d1 be 07 e4 fa 3c 92 f4 38 bd cf d4 93 bc
       -0.40860772 0.03062631 -0.045155115 -0.018045811
0001f0 7c 18 2b 3e d7 41 08 be a2 29 50 bd 14 41 ae 3e
       0.16708559 -0.13306366 -0.050820954 0.34034026

net.4.weight f4 [4, 128]
000000 79 87 1e 3c 15 c0 8c 3f 17 f4 2f 3e 94 54 48 3d
       0.009675854 1.0996119 0.17182957 0.048908785
000010 f4 8b 1e bd 8d 60 61 3d a5 18 90 bf 48 24 ad be
       -0.03870769 0.05502372 -1.1257521 -0.33816743
000020 28 64 72 bf 39 d3 4d bd 1d 12 8f bd ef e1 34 3f
       -0.94684076 -0.050250266 -0.06985877 0.7065725
000030 b5 10 3b bd 9f c9 33 bd ab 4c d6 3e 30 ef 19 bc
       -0.04567023 -0.043893453 0.41855368 -0.009395406
000040 db 2f 69 3f f1 7c 88 bc 0b c2 e8 3c 79 dc d6 bf
       0.91088647 -0.01666114 0.02841284 -1.6786033
000050 7c f3 59 3c 37 b3 08 bd 50 87 16 be 64 42 4d 3f
       0.01330268 -0.033374038 -0.14700055 0.8017943
000060 2a d1 af bd c2 f1 04 bd 61 b0 21 3e 9d 5d 4a 3f
       -0.08584817 -0.03245712 0.1578994 0.7904909
000070 7e e3 1e 3d 2f a7 12 3f e1 32 8d b8 01 92 f2 3d
       0.038791172 0.5728635 -6.732881e-05 0.11844254
000080 1c f9 c1 bd 25 57 02 be d2 82 35 3f e0 89 3c 3d
       -0.09471342 -0.12728556 0.7090274 0.046029925
000090 c5 9e 20 bf 7e c6 5b be 7d 8c f8 be 7b 4c 73 3f
       -0.62742263 -0.21462438 -0.48544684 0.95038575
0000a0 7c 1e 55 3d e4 ec 49 3f ee 2f 9c be c9 a8 79 3f
       0.052031025 0.7887709 -0.30505317 0.9752317
0000b0 ce 97 95 bc 90 c7 b0 3c 58 8d 23 3f 9d 62 86 be
       -0.018260863 0.021579534 0.6388755 -0.2624711
0000c0 32 33 92 3e af f2 5a 3e ff 85 95 bd 84 78 10 bf
       0.28554684 0.21381639 -0.07300948 -0.5643389
0000d0 a7 4d 25 3f 8b 90 0e bf e6 c6 55 be 89 cc fb 3c
       0.64571613 -0.55689305 -0.20876655 0.030737178
0000e0 dc bc bd 3e f0 91 2d bc 8f 6c 96 3b 3f 27 39 bf
       0.3705815 -0.010593876 0.004590578 -0.7232551
0000f0 61 74 50 3f fa 2a 24 3f cc 6a c9 3e 5d 32 3c bd
       0.8142758 0.6412808 0.39339292 -0.045946468
000100 08 50 98 bd 0d 2e b5 3d cc ec 33 3e c7 a7 71 3d
       -0.0743714 0.08846674 0.175708 0.058997896
000110 62 2f 27 bd 5e 6e 6e 3f 5a 41 0a bf 40 be 40 bd
       -0.040816672 0.93137157 -0.5400597 -0.047056437
000120 ca e8 59 3f b2 6d c9 3e 73 51 61 bf cb 53 94 3e
       0.8512083 0.39341503 -0.88014907 0.2897018
000130 0a af 46 bf 26 da 5c bf 3a 3e 74 3f a4 36 ec 3d
       -0.7761084 -0.8627037 0.9540745 0.11533859
000140 9a b4 a9 be 15 1f 90 3d 1a af 41 3f 26 1b 31 3f
       -0.331456 0.070371784 0.7565781 0.6918205
000150 d6 e7 2b 3d 4f 20 27 bf cd 40 90 3f 0d 3f 09 bf
       0.041969143 -0.65283674 1.1269776 -0.5361183
000160 86 c5 4c 3f e3 a8 df 3c 5c 5a 52 3f 21 49 4c 3f
       0.79988897 0.027302211 0.8216913 0.79799086
000170 f2 c0 19 bf f1 e1 5d 3d bb b2 86 bf ba 6e 3b bf
       -0.60060036 0.054170553 -1.0523294 -0.7321583
000180 79 4f 78 be fe e0 01 3d 0a 7b a7 bd 7d df b0 be
       -0.24249066 0.03170871 -0.08177765 -0.34545508
000190 67 1e ab bd 60 29 3e be 73 b1 3b 3d a5 85 6b 3f
       -0.08355408 -0.18570471 0.045823526 0.920008
0001a0 91 7f bb bd 6d cd b3 be 28 f8 69 3c 56 82 22 bf
       -0.09155191 -0.35117665 0.0142803565 -0.63480127
0001b0 59 e7 da 3e a5 d1 3d 3f 75 4f e8 be 87 94 f3 3d
       0.4275463 0.7414802 -0.4537312 0.11893564
0001c0 d6 92 08 bf 02 67 41 bf 03 d3 30 3f 26 8f 81 3f
       -0.53349054 -0.755478 0.6907198 1.012181
0001d0 0f 53 b5 be c6 ec e7 bd 20 59 94 3f c9 fe e5 be
       -0.3541493 -0.11324458 1.1589699 -0.44920948
0001e0 ef 4e 65 bf c6 c2 61 3f a4 50 b9 be 13 c7 68 3d
       -0.8957357 0.88187826 -0.36194336 0.056830477
0001f0 a7 18 2a 3e 21 52 66 bf dc 1e a2 3d 15 42 44 3f
       0.16610967 -0.8996907 0.07916042 0.76663333
000200 d6 f5 03 3e 9d 4a 2c bc fc 48 6b be 42 8a ba bd
       0.12886748 -0.010515836 -0.2297706 -0.09108402
000210 c7 8d ac 3c 47 7d d8 be ec 4b b4 be ba 75 bd 3e
       0.021063698 -0.4228308 -0.35214174 0.3700388
000220 1d ee 22 be 3e c5 6b bd 0a 5b 1e be 95 81 f5 3d
       -0.15911146 -0.05756115 -0.15464416 0.119876064
000230 66 1d ac bd f3 e6 c7 bc f2 38 13 3f 25 3f 00 bd
       -0.08404045 -0.024402117 0.57508767 -0.03131022
000240 7a c2 d1 be 1d 9e 74 3c ed 5f c8 bc 31 1c 9d be
       -0.40968686 0.014930275 -0.024459803 -0.3068557
000250 ce 15 91 3d 09 ca ed bc c0 38 1d bf 15 11 1c 3f
       0.07084237 -0.029027002 -0.6141472 0.60963565
000260 43 0d 8a bf a2 f5 dc bb 6a a3 1d bf c8 e2 18 3e
       -1.0785297 -0.006743149 -0.61577475 0.1493026
000270 a4 a2 bf bd fe fb d4 be 98 06 20 bc d0 fb 27 3d
       -0.09357193 -0.41598505 -0.009767197 0.04101163
000280 6a 43 b4 3e 40 50 5b 3e 7e 12 07 bf 4a e1 93 bf
       0.35207683 0.21417332 -0.5276259 -1.1553128
000290 d4 74 09 3f f0 86 cb be e7 94 37 bf 3d 97 4a 3d
       0.5369389 -0.39751387 -0.7171158 0.04946064
0002a0 92 85 52 bd 51 7b d1 3d a0 45 fb 3e 8f 67 33 be
       -0.051396914 0.10228599 0.49076557 -0.17519973
0002b0 a4 9a a1 3c 08 4d 04 3d a7 08 0e 3f 96 e8 71 bf
       0.019727059 0.032300025 0.5548195 -0.9449552
0002c0 00 7d 4d bf 87 66 62 bd 41 43 51 bd 1e b0 92 bf
       -0.8026886 -0.05527356 -0.05108953 -1.1459997
0002d0 71 a9 0a be a8 a7 46 bf 68 69 e9 bf 9d 32 9b 3b
       -0.135412 -0.77599573 -1.8235292 0.004736258
0002e0 99 5b c4 be f4 fc fd 3c d1 70 92 bb d8 4a 9f 3f
       -0.38351133 0.031004407 -0.004469015 1.2444715
0002f0 d2 74 96 3e 9b 9a 2c 3f 54 bb d8 3e 2d fb 7e bc
       0.29386002 0.6742341 0.4233042 -0.015562815
000300 fa de 6c 3d 50 88 c1 3b 88 b0 d9 3d cf 1c 9e bd
       0.057829835 0.0059061423 0.10629374 -0.077203386
000310 75 3e 81 bd 04 46 eb 3a 36 d8 fa be 33 0f 53 3f
       -0.06310741 0.0017949943 -0.4899308 0.8244507
000320 57 6f 6a 3f 4c 70 52 3e 16 f2 d7 3e 08 28 b4 bd
       0.9157614 0.2055065 0.42176884 -0.08796698
000330 77 00 a8 3f 7c e3 12 be 51 9a b1 be ae b7 2c bc
       1.3125142 -0.14344591 -0.34688047 -0.0105418395
000340 2b f7 9c bf 84 95 2b bd cd 47 87 be 02 50 fd be
       -1.226293 -0.041890636 -0.26421967 -0.49475104
000350 ba 4e 63 3d 34 0b 6d 3f d1 f1 73 bf 06 60 0c 3f
       0.055495 0.9259522 -0.9529086 0.5483402
000360 16 0d ad be ff 44 c0 3d 1e be e0 3b ec 98 9a 3e
       -0.33799046 0.0938816 0.0068586012 0.30194795
000370 7d 7e 55 bf 83 9c 65 bd 4f 27 95 bd a0 e7 3c 3f
       -0.8339613 -0.056057464 -0.07282888 0.7379093
000380 e1 3c af 3e ab 46 28 bd c5 09 32 bd c3 98 9d bf
       0.34226134 -0.04108302 -0.04346635 -1.2312244
000390 9f 04 90 3d 88 5c ac 3e de 4d 5c 3d ed ef c8 bc
       0.070321314 0.33664346 0.053785197 -0.024528468
0003a0 4f ac 27 bd 37 a4 b8 3e da 9b 56 bd ec 86 8a 3d
       -0.04093581 0.36062786 -0.052394725 0.067640156
0003b0 4e 8d 25 3f 96 6c 06 bf db 5a eb 3e 68 b4 2b 3f
       0.6466874 -0.5250944 0.45967755 0.67072153
0003c0 05 ad 97 bf 5f e7 c2 be 17 2a b3 be 50 13 32 bd
       -1.1849676 -0.38067147 -0.3499305 -0.04347545
0003d0 b7 90 f2 3e 09 ca b9 3e 86 03 4a 3f de 0c f9 3f
       0.47376034 0.36286953 0.78911626 1.9457052
0003e0 22 07 94 bf 27 06 99 3d cd 34 b8 3e 7a 31 b1 bd
       -1.1564677 0.074718766 0.35977784 -0.08652015
0003f0 e3 34 fd 3e 59 72 03 3f 43 7d 18 bd e1 7a d3 3e
       0.49454412 0.51346356 -0.037228834 0.41304687

net.4.bias f4 [4]
000000 ca 57 48 3e 24 08 5b 3e c5 c2 04 be 64 a3 22 3e
       0.19564739 0.21389824 -0.12964924 0.15882641

net.0.weight f4 [128, 4]
000000 66 b6 91 bf 45 17 37 3f a4 8d 24 bf a7 17 31 bc
       -1.1383789 0.7151988 -0.64278626 -0.010808862
000010 88 fc b1 bd 68 ac 55 be 9e 63 84 be ac 4d b0 be
       -0.08690745 -0.20866549 -0.25857252 -0.3443426
000020 29 9f 70 3f 50 15 ac be 86 15 30 3f bb 46 45 3e
       0.9399286 -0.3361001 0.6878284 0.19265263
000030 20 91 92 3e ea 17 4a 3f 8e 8b 86 bf 2d 29 89 bf
       0.28626347 0.7894274 -1.0511339 -1.0715691
000040 9b 3c d5 bd 48 16 91 bf 8b c3 1f bf df b5 d3 be
       -0.1041195 -1.1334925 -0.6240775 -0.41349694
000050 a8 12 42 3f da d1 36 3f 4b b6 5c be f3 a6 61 be
       0.7580972 0.7141396 -0.21553914 -0.22036342
000060 0c ab 1c bf 5f d5 c4 bf 06 75 77 be 1f b6 0a bf
       -0.61198497 -1.5377616 -0.24165735 -0.54184145
000070 1c b1 51 bf 88 34 87 bf 7e de 32 bf f5 25 91 3d
       -0.8191087 -1.0562906 -0.69870746 0.07087318
000080 e5 d4 1a 3f 69 9b 9c bf 5b b7 d1 3e 9f 7d 9c 3e
       0.604811 -1.2234927 0.40960202 0.3056459
000090 73 7b 74 3f 55 07 ff be 5a 5f 38 3e 80 7a 0f 3e
       0.9550087 -0.4981028 0.18005124 0.14011574
0000a0 6b f1 4c bf 67 f1 6f 3f 0c da 2d 3e 8d 85 9c be
       -0.80055875 0.93727726 0.1697771 -0.3057064
0000b0 38 5d 79 be 90 72 4f be 38 2a ab bd 60 d4 ce bc
       -0.24351966 -0.20258546 -0.08357662 -0.025247753
0000c0 fc 46 55 3f 1a 88 48 3f da 30 ef be 2e 5a 82 bd
       0.8331144 0.78332675 -0.46716958 -0.06364857
0000d0 dc df d5 3e b2 5c 5c bf 4b 40 28 be bd 50 e9 3d
       0.41772354 -0.8607894 -0.16430776 0.11392353
0000e0 0c 68 ca 3e 06 0e 0a 3f f8 f3 64 3e bc fd be 3e
       0.39532506 0.5392765 0.22358692 0.3730296
0000f0 1b 3e c4 3e 02 08 2f bf f6 c8 8c bf cc 8b 26 bf
       0.38328633 -0.68371594 -1.0998828 -0.65057063
000100 8d 27 d5 bf 3f b4 c9 3f dd 4d 2a be 8e b5 c6 3e
       -1.6652695 1.5758132 -0.16631265 0.3881039
000110 b4 b7 d8 be 07 73 a9 bf c1 02 06 3f 73 05 9d 3e
       -0.42327654 -1.3238229 0.5234795 0.3066822
000120 4e af 47 3e eb 7a a7 3f 1f 53 b0 be a7 a3 a9 3e
       0.19500467 1.3084387 -0.34438416 0.3313267
000130 24 1e 03 3e 08 f0 5a be 48 51 56 be 7e 90 ed be
       0.12804466 -0.21380627 -0.20929444 -0.463993
000140 83 59 80 3f af 9b 14 be 2c ec 46 bf 60 45 1c bf
       1.0027317 -0.14512514 -0.7770412 -0.6104336
000150 ac 41 57 be 4c 97 bd be 00 ce 16 bd b0 55 4f 3e
       -0.21021146 -0.37029493 -0.03681755 0.20247531
000160 12 92 c1 bd 5a 1f 86 3e b8 cb 12 bf 1a f0 94 3d
       -0.09451689 0.26195794 -0.573421 0.07272358
000170 5e 41 4d bf 78 41 97 3f 1b 20 d5 3d 25 12 fd bd
       -0.8017787 1.1816854 0.10406514 -0.123569764
000180 fb f4 5e bf 4b 83 f2 3e 8e 11 45 be 73 3e ea 3d
       -0.8709256 0.47365794 -0.19244978 0.114376925
000190 0d 7b e5 bf 84 28 25 bf ec 67 b7 3e d4 cd bb 3e
       -1.7928177 -0.64514947 0.35821474 0.36680472
0001a0 98 e3 ad be a0 b8 dc bd 78 bc 3b 3e 8a 80 d4 be
       -0.33962703 -0.10777402 0.18333614 -0.41504318
0001b0 88 ea 15 bf e1 c2 a2 3f 5b ed 01 bf 7e f5 1e be
       -0.5856099 1.2715722 -0.507528 -0.15523335
0001c0 41 a8 cf bf 99 db 39 3f bf d7 cb bc b4 09 f5 3e
       -1.6223222 0.72600704 -0.02488315 0.47858965
0001d0 96 7a 84 bf e7 de 84 bf 33 dd 84 3e 83 36 87 be
       -1.034991 -1.0380524 0.25950012 -0.26408777
0001e0 ed 08 0f 3f 71 ac cf bf e7 0f 12 3f 49 dc 9e 3e
       0.55872995 -1.62245 0.57055515 0.3102744
0001f0 9c 21 00 3e 20 61 49 bf 07 c6 80 bb 72 21 30 bf
       0.12512821 -0.78663826 -0.0039298567 -0.68801033
000200 61 b4 a4 3e bc aa 80 3f 14 4d 84 3e 4e 68 8a 3e
       0.32168868 1.0052104 0.25840056 0.27032703
000210 d1 a2 22 3f 43 a5 74 bf fd 56 bb 3d 20 ff 07 3f
       0.6352969 -0.9556467 0.09147451 0.53123665
000220 7d 7e 3d bf e4 d2 7a bf e8 82 19 bf e6 74 8b be
       -0.7402113 -0.97978044 -0.5996537 -0.27237624
000230 99 9d 2a 3f 71 3e 0a c0 e9 be df 3e 9a 58 4d 3e
       0.66646725 -2.1600611 0.4370034 0.2005333
000240 73 1c 96 3f 6c 99 b3 3e 00 14 8b bf 87 59 1d bf
       1.1727432 0.3507799 -1.0865479 -0.6146473
000250 2b 20 4e 3f ae 5b 48 3f c0 5b 97 3e f4 1c 54 3e
       0.80517834 0.7826489 0.29562187 0.2071417
000260 f7 1c c2 bf 69 9f d6 bd 02 ba 15 3e 13 01 0a 3f
       -1.5165089 -0.10479624 0.14621738 0.5390789
000270 56 4b b6 bf dc a1 ba 3d 77 ed 3b 3f 59 8b 07 3f
       -1.4241741 0.091129035 0.7340922 0.52947
000280 a4 19 bf bf 20 f1 1d be 7a de d2 3e 88 ab 73 be
       -1.49297 -0.15424013 0.4118536 -0.23795903
000290 e8 a8 8a bf f1 82 81 bf 0b 3c 43 bf 57 83 23 bf
       -1.0832796 -1.0118085 -0.76263493 -0.63872284
0002a0 ad b2 71 3f 43 8d 5e 3f 5f 9a 23 3e 37 68 17 be
       0.9441326 0.869343 0.15976857 -0.14785849
0002b0 f6 8d f0 be e3 73 6d be ce dd 02 be d6 c0 ae bd
       -0.46983308 -0.23188739 -0.12779924 -0.08532874
0002c0 5e 14 1d bf 98 69 99 bf ab 54 95 3e 24 02 01 3f
       -0.613592 -1.198535 0.2916616 0.5039389
0002d0 4a 2c d8 3e 38 ba fe be a0 7f de 3d 8c d4 51 be
       0.4222129 -0.4975145 0.10864186 -0.20491236
0002e0 ce 8f 80 bf d1 7b 2e 3f 0a 4a c0 be 8a b8 f8 be
       -1.0043886 0.6815768 -0.37556487 -0.48578292
0002f0 b6 9a 2c 3f 13 f1 3d bf 90 83 10 bf 7d ef e5 be
       0.6742357 -0.74195975 -0.5645075 -0.44909278
000300 87 71 0a c0 dc cc 12 3f 92 25 2b be 1c 5c cd 3e
       -2.1631792 0.5734384 -0.1671355 0.40109336
000310 78 83 f4 3d cc 94 94 be 4c 89 d3 be c4 74 cb be
       0.11939138 -0.29019773 -0.41315687 -0.39737523
000320 24 10 8d 3e f1 4e 93 3f 3e ae 44 be 71 83 d4 be
       0.27551377 1.1508466 -0.19207093 -0.41506532
000330 3b c7 2e 3f f4 77 bf 3e 43 9c 39 bc 29 f6 b7 3e
       0.6827275 0.37396204 -0.01132876 0.35929993
000340 bd 25 c4 3e 44 b7 0b 3f 15 b6 a7 3d 29 09 30 3e
       0.38310042 0.54576516 0.08189026 0.17190994
000350 5d c7 8c bf 61 00 8c bf 1d 6e 1f 3e bb ca b9 3e
       -1.0998341 -1.0937616 0.15569349 0.36287484
000360 b0 39 4a bd a0 52 0a bd 18 6f d9 bd 90 46 bd be
       -0.04937142 -0.033770204 -0.106168926 -0.36967897
000370 7f 15 f4 bf db 9b c0 be 17 aa 31 bf a9 44 5d bf
       -1.906906 -0.37618908 -0.6940016 -0.8643289
000380 7d 17 56 bd 5a 1f 9b 3e 3f 13 f8 3e 24 02 30 3f
       -0.052268494 0.30297357 0.48452184 0.68753266
000390 e7 ea 79 3e 5b e1 8f bf 2e 47 01 3f 3a f9 08 3f
       0.24406014 -1.1240648 0.50499237 0.5350529
0003a0 55 35 80 3f 2f 08 6b 3f ef ce 63 3e 61 34 18 be
       1.0016276 0.9180936 0.22246908 -0.14863731
0003b0 47 9d d7 bf 8b 07 56 3f 56 b1 08 bd b7 22 37 3e
       -1.6844872 0.8360526 -0.033372246 0.17884336
0003c0 2e 6d c5 3e 4e 63 c7 bf 42 da 25 3e fb 0f df be
       0.3855986 -1.557718 0.1619654 -0.4356688
0003d0 5a 40 f6 bf b8 d2 0e 3f 61 e4 c1 3e 8a 08 d1 3d
       -1.9238389 0.5579028 0.37869552 0.10206707
0003e0 20 e7 e8 bc ea 07 d3 be a0 06 6a 3d c8 b5 71 be
       -0.028430521 -0.41216975 0.057135224 -0.236045
0003f0 16 11 33 bd 18 a9 c4 be 3e 45 0c bf 63 7c 00 be
       -0.043717466 -0.38410258 -0.54793155 -0.1254745

net.0.bias f4 [128]
000000 c2 ee 35 3f 0c 94 5b be cc 0f bc bc 3c 46 0d bd
       0.7106744 -0.21443194 -0.022956751 -0.03449081
000010 2b c3 9a 3f 7f 7d b6 3c c0 02 81 3f 30 96 37 3f
       1.209081 0.022276638 1.0078964 0.7171354
000020 84 a5 03 bf a2 52 b9 bd 58 17 3e 3e f0 15 15 3d
       -0.5142443 -0.09048964 0.18563592 0.036397874
000030 9d 10 a6 bf 6e 4e 22 3f 9a 8a 35 bf 1d 78 c4 3e
       -1.297382 0.63400924 -0.70914614 0.3837289
000040 32 6f aa be 2f 51 5d be bf 80 5b be 5a fc e2 be
       -0.3328796 -0.21613 -0.21435831 -0.44333154
000050 aa 5f f9 be 9a 60 f8 be 80 6c 86 be 2e 1a 08 bf
       -0.48705798 -0.485112 -0.26254654 -0.5316495
000060 ab 86 20 3f 6e 9a 89 be 12 1a bd be ad c6 ee 3e
       0.62705487 -0.26875633 -0.36933953 0.46635953
000070 6a 71 8d be 61 42 84 3f 01 5c 8d 3e c5 21 24 3f
       -0.2762559 1.0332757 0.27609256 0.6411403
000080 0f 5a 4a bf 2c 6d 8e be 2f 30 2e 3f 2a e2 61 bf
       -0.7904367 -0.27817667 0.6804227 -0.88235724
000090 aa 8c 2d bf 1a 26 4a be 21 37 e5 be 2f 0a dc 3e
       -0.6779276 -0.19741097 -0.44768623 0.4297652
0000a0 86 21 83 3f ee d0 80 3f 0e b7 7f be 46 ef 2e 3f
       1.0244606 1.006376 -0.24972174 0.6833385
0000b0 0e 95 1e 3c f0 bc da be bd e3 32 bf 8e ec b8 be
       0.009679092 -0.42722273 -0.6987875 -0.36117977
0000c0 74 70 ee 3d 7c 72 13 be 4c ed 21 3e 78 80 4b bf
       0.116425425 -0.14399141 0.15813178 -0.794929
0000d0 66 57 51 be 42 6a d9 be 1a fe ec be 92 f4 6d 3e
       -0.20443496 -0.4246388 -0.46287614 0.23237827
0000e0 92 06 3d bf ca 7e 4b 3e 8f c1 99 bf 4a fe a3 be
       -0.7383815 0.19872585 -1.2012194 -0.32029945
0000f0 74 54 79 3f e5 24 3b bf ae 58 df be 1b a2 ea 3d
       0.9739449 -0.7310317 -0.43622345 0.114567004
000100 7a 18 4a 3f ce a8 ed bd 66 3c 14 be e7 36 0b 3f
       0.789436 -0.116044626 -0.14476165 0.5438065
000110 50 bd e7 bd 5d 7a 97 bf 21 3d 33 bf e9 bc 7e bf
       -0.11315405 -1.1834217 -0.7001515 -0.99507004
000120 5e 2c f0 3e 2f 65 4f be 7d 51 07 3f 6e 64 0d 3f
       0.4690885 -0.20253442 0.52858716 0.5523137
000130 52 4f d7 be 7d 7d 10 3e 5a 07 13 3f 31 fd 03 3f
       -0.42052704 0.1411037 0.5743309 0.51558214
000140 20 fe a7 bd 68 db c4 be 88 4c a1 be 5c 4e 24 3f
       -0.08202767 -0.38448644 -0.315037 0.64182067
000150 7f 9c 1b 3f 20 aa 1a 3f 00 87 c9 3e c3 cf 52 bf
       0.6078567 0.6041584 0.3936081 -0.8234827
000160 53 ce bf be 1f 25 1a 3f 7f fc 45 bf f8 51 89 bd
       -0.374621 0.6021289 -0.77338403 -0.067050874
000170 a8 56 62 be de d7 f6 be 72 c2 e6 be 18 df 17 3f
       -0.22103369 -0.4821157 -0.45070225 0.5932479
000180 8b d3 ef 3d 04 fc 07 3d e4 27 0d 3f 7e a1 e6 b9
       0.117102705 0.033199325 0.55138993 -0.0004398934
000190 eb 39 29 3f 3c fa e6 be 56 51 62 be 5c 77 a3 be
       0.66104 -0.4511279 -0.2210134 -0.31927
0001a0 87 0b a0 bd f2 87 e3 3d 74 c6 8a be 80 de b0 be
       -0.07814699 0.11109914 -0.27104533 -0.34544754
0001b0 67 10 1c bf 58 27 3b be 68 a1 06 be f5 b9 39 3f
       -0.6096253 -0.18276727 -0.13147509 0.7254937
0001c0 6d 17 f4 3e a6 5c 67 be d0 71 f7 3e cd 82 11 bf
       0.47674122 -0.22593936 0.4832902 -0.5684021
0001d0 2b 6f b1 be bf 13 80 3f 45 57 8e be 29 ef 94 3f
       -0.34655127 1.0006026 -0.27800956 1.1635486
0001e0 e7 21 2c be ce 69 21 3e 0b 6f 09 bc 81 d4 d2 3d
       -0.16809808 0.15763018 -0.008388291 0.10294438
0001f0 e0 e4 90 be 3c 11 16 3f 76 ed f3 3e ef 97 72 bf
       -0.28299618 0.5862005 0.47642106 -0.9476308

net.2.weight f4 [128, 128]
000000 e5 b8 bf bc 48 0d ad bc cd 08 7a bd 0c 66 45 bd
       -0.023403594 -0.021124497 -0.06104355 -0.048193023
000010 8b df 00 3d 55 e3 40 bc fe 8e 22 3c 4f 6e e4 3c
       0.031463187 -0.01177295 0.009921787 0.02788463
000020 45 30 b7 bd 1e dc bb bd c9 8b 8c bd 74 15 07 bd
       -0.089447536 -0.091728434 -0.068625994 -0.032979444
000030 e7 7a 9d bc 10 79 29 bd f6 b9 84 3b eb 5c c4 bd
       -0.019223643 -0.04137522 0.0040504886 -0.09588035
000040 4c 66 80 bd 43 91 24 3d 20 a3 33 bd 3c 63 b0 bd
       -0.062695116 0.040177595 -0.04385674 -0.086126775
000050 f6 75 28 be ca 1c 05 bd c1 8d 3b bd 07 d5 0f be
       -0.16451249 -0.03249816 -0.045789484 -0.14046107
000060 93 c5 c1 bd 23 f6 b8 3d 8a b7 2f 3d 32 95 00 be
       -0.094615124 0.09031322 0.042899646 -0.12556913
000070 74 d2 b7 bd 47 bf ca 3c 7a 22 13 bd 5c 7d cf bd
       -0.089756876 0.024749411 -0.03592155 -0.10131332
000080 7f 3a 9b bc be 98 21 3d 39 7d 0d 3c 24 95 80 bd
       -0.018948792 0.039452307 0.008635812 -0.06278446
000090 9f a9 52 bd 3e 4f 0b bd c6 0f 09 3e 74 ca 75 bd
       -0.051431295 -0.034011118 0.13384923 -0.060007527
0000a0 8c 11 5a 3c 86 a3 1b 3d d6 29 e2 bd 11 10 64 bd
       0.013309848 0.037997745 -0.11043136 -0.055679385
0000b0 4d 74 bc 3c c8 0d c2 3c f6 5e ef bd 1f e3 05 bd
       0.023004675 0.023688212 -0.11688034 -0.032687303
0000c0 e9 f8 00 3d a8 bb 21 bc 4b c5 f1 bd 8c 3a 1f be
       0.03148738 -0.009871401 -0.11805209 -0.15549678
0000d0 7e 26 b6 bc fc 9e 2f 3d 32 b1 10 3d fd 17 e2 bd
       -0.022235151 0.04287623 0.035325237 -0.11039732
0000e0 87 aa cb bd d8 7c 2e 3c cb 66 1f be 57 29 a3 bd
       -0.09944635 0.010649882 -0.15566556 -0.07966869
0000f0 69 71 42 3d f8 c9 15 bd 9c 25 0f bd a6 1d 18 bd
       0.047471438 -0.036569566 -0.034947976 -0.03713765
000100 27 ed e9 bc bd 14 20 3d 06 f8 1e bd 40 4e 25 bd
       -0.028555466 0.039082278 -0.038810752 -0.04035783
000110 e3 f0 b7 bd cb 72 24 be bf 83 8a bb 8d cf cc bd
       -0.08981492 -0.16059415 -0.004227131 -0.10000525
000120 a8 f9 46 bd 7e 74 b2 3c 21 2c dc 3d 6c d1 c4 3c
       -0.048577935 0.021784063 0.107506044 0.024025641
000130 10 3a f2 bb ef 42 96 bd 5f 3f 1d 3d 52 47 53 3d
       -0.0073921755 -0.07336985 0.038390514 0.05158169
000140 29 96 ae 3d c0 fa 5a bc 5f 1b d3 bd e8 9c f8 bd
       0.085247345 -0.0133654475 -0.10307955 -0.121393025
000150 ab 26 e2 bc b4 4d 9e bd 5e 84 11 bd 45 49 9a bd
       -0.027606329 -0.077296644 -0.035526626 -0.07533506
000160 c2 88 47 bd c6 92 29 3c be 48 22 be 7b 71 9b 3d
       -0.048714407 0.010349935 -0.15848061 0.07590004
000170 c6 38 43 3d 2c 71 cb ba de 49 f1 bc 4e 8d c9 bc
       0.047661565 -0.0015521399 -0.029454168 -0.024603512
000180 ed f5 a5 bd 2b 33 fd ba 46 6e c0 3c e7 95 d4 bd
       -0.08103547 -0.0019317617 0.023490082 -0.10380154
000190 5b 50 da bd 36 79 e6 bd 50 e7 08 3c 1d e2 1b 3d
       -0.10659858 -0.11253588 0.00835593 0.038057435
0001a0 c6 bd 13 be 03 74 bd bd be d3 2d bd 1c 02 c8 bd
       -0.14427862 -0.09250643 -0.04243826 -0.09766027
0001b0 94 f3 ed 3c 46 b3 14 3d a8 28 f2 bd df 63 6b 3b
       0.029046811 0.03630378 -0.11824161 0.0035917682
0001c0 94 e9 a5 3c 89 dc e9 bd 84 7f 6c b9 80 2f a8 bc
       0.02025298 -0.11419017 -0.00022554217 -0.020530462
0001d0 71 ad da bd 95 f2 5f bd 24 02 97 bd 4b 48 56 bd
       -0.106776126 -0.054674704 -0.07373455 -0.052315038
0001e0 1b 93 1c be a1 f5 98 bc b8 be 18 be 5b 49 b8 3c
       -0.15290491 -0.018671812 -0.14916503 0.022495916
0001f0 84 fc e4 3c 2d 0b 6c 3d a6 00 5f 3d 43 c0 b4 bd
       0.02795244 0.057627846 0.054443978 -0.088257335
000200 42 cf 2a be d9 b7 83 3d 7a e6 8d 3d 11 75 bb 3d
       -0.16680625 0.064315505 0.069287255 0.09153188
000210 2f c8 a1 3d d9 6c 07 be 3e 83 8d bf de 77 8e 3e
       0.0789951 -0.13225116 -1.1055677 0.27825826
000220 f1 a6 7c 3f 67 db 98 bc 04 f3 cb bd 5e 45 7a 3d
       0.9869223 -0.018659307 -0.09958461 0.06110131
000230 2c 69 80 c0 92 82 38 3e 90 92 bf bd 85 0b 17 3e
       -4.0128384 0.18018559 -0.093541265 0.14750488
000240 ed 12 dc be 95 19 aa be ec 6c 12 3b e0 89 c3 bb
       -0.4298319 -0.33222643 0.0022342755 -0.0059673637
000250 12 a4 65 3e 80 68 94 3b 49 7d 37 bd 8e 89 55 be
       0.22425869 0.004529059 -0.044797216 -0.20853254
000260 ee 63 ce bb 28 da 09 be 40 b4 9b bb 00 90 ab 3d
       -0.0062985336 -0.13462126 -0.004751712 0.08377075
000270 7a 69 f8 be bd a4 bd bf 33 05 46 3d 20 da ce 3d
       -0.48517972 -1.4815899 0.048344802 0.10100198
000280 f2 da 33 bf cd 16 24 bf 51 12 82 bd b3 2c ce be
       -0.7025596 -0.6409729 -0.0635115 -0.40268478
000290 e9 14 48 3e fe 4d 26 3d 0a 0d 59 be c2 c5 02 be
       0.19539227 0.040601723 -0.2119638 -0.12770751
0002a0 2c 27 30 be 54 b2 c0 3e f1 ef 6d be 52 78 b5 39
       -0.17202443 0.37636054 -0.23236062 0.00034612656
0002b0 43 ab 62 bd 10 b8 ac 3b ed b6 d4 bd 41 c9 78 bf
       -0.05533911 0.0052709654 -0.10386453 -0.9718209
0002c0 74 ed 9a be 70 18 80 3c 98 b5 6a bd 3a a1 7d 3c
       -0.30259287 0.015636653 -0.057302088 0.015480334
0002d0 7a 3e 10 3c 2c 91 66 be a8 84 14 bc 42 63 53 be
       0.008803958 -0.22516316 -0.009064831 -0.20643333
0002e0 86 c4 57 bd 98 e6 2a be 00 e7 f5 be 29 3d 66 3d
       -0.052677654 -0.16689527 -0.48027802 0.05621067
0002f0 a8 92 ea bd a5 4d a6 be 4e 8f 87 bd 70 2e 01 3e
       -0.11453754 -0.32481113 -0.0661913 0.12615371
000300 2b 19 07 3e ca 17 b2 bd 17 65 fb ba d6 d8 f6 bd
       0.13193195 -0.08695944 -0.0019179907 -0.12053077
000310 fb c9 68 bf bd 34 9b be 7b fa 0f be 95 39 f4 bd
       -0.909332 -0.30313674 -0.14060394 -0.119250454
000320 a4 92 ea 3e 49 a8 9e 3d e1 66 ac be 15 a2 6b bd
       0.45815003 0.077469416 -0.3367224 -0.05752762
000330 82 a8 30 3d 1a 3a 56 bf 89 76 26 3e b5 b3 79 bd
       0.04312945 -0.83682406 0.16256155 -0.060962398
000340 98 f0 2d bc b0 eb 54 3c ce 17 2b 3e 15 28 bb 3d
       -0.010616444 0.012995645 0.167083 0.091385044
000350 89 47 df be e5 ad 22 3d 67 05 e4 3d 3d 69 c2 bd
       -0.43609264 0.03971662 0.11133843 -0.09492729
000360 31 d2 71 bd 30 03 b9 38 cd f2 d5 bc 52 d3 35 3d
       -0.059038345 8.822081e-05 -0.026116753 0.044390984
000370 73 42 ad 3d 7a a1 8e bd 48 1b a6 bc c0 63 ba 3c
       0.0845994 -0.06964393 -0.02027668 0.022752643
000380 87 d4 ed be 0c 57 33 3e 28 46 3e be 57 96 2b 3f
       -0.46451208 0.17513674 -0.1858145 0.67026275
000390 16 72 18 3d ed 34 bc bd 0b 04 be 3e 46 ea ec 3c
       0.037218176 -0.09189782 0.3711246 0.028920304
0003a0 23 1b 77 3d 49 ab 75 be 79 fa 88 3d 56 58 81 3c
       0.060328614 -0.23991121 0.06688399 0.015789192
0003b0 00 47 51 3d 5a 87 6d 3d 19 14 5f be 54 e7 b0 3c
       0.0510931 0.05799041 -0.2178501 0.02159468
0003c0 c8 0b 4c bd 9a 7f 9e bf 5d a8 f6 bb 0a e8 20 be
       -0.049815923 -1.2382691 -0.0075273947 -0.15713516
0003d0 a4 50 1c be 7b 3e d0 3d 47 a2 86 3d 87 61 a1 3d
       -0.15265137 0.10168167 0.06573921 0.0787993
0003e0 74 e1 a7 bd 95 05 14 bd 0b 5b 02 3e 0d 05 25 bd
       -0.08197299 -0.036138136 0.12730043 -0.04028802
0003f0 95 87 8f bd 78 84 88 be cb 8f ab be 8c 3c b6 be
       -0.07008282 -0.26663566 -0.33508143 -0.3559307

net.2.bias f4 [128]
000000 ac 6d ba bd a1 8c d1 3d 32 55 21 3e 80 c4 1e bd
       -0.091029495 0.10231901 0.15755156 -0.038761616
000010 6d 41 39 bd e8 f9 c8 3d 66 57 94 3e 74 77 4d 3e
       -0.04522841 0.09813291 0.2897293 0.20065099
000020 84 b1 ab 3d a2 9d 46 3d 42 d9 a3 bc 03 05 ec 3c
       0.08383468 0.048490174 -0.020001058 0.028810984
000030 24 74 91 bd 48 50 a3 3b 20 5a 12 3e 12 25 88 bd
       -0.0710223 0.0049839355 0.14292192 -0.066476956
000040 5c cc 5c 3e 7f 70 de bd 67 cf 83 bd 61 2c e1 bd
       0.21562332 -0.10861301 -0.06436043 -0.10994793
000050 ac bf b6 bd 63 af a7 bd 49 25 83 3e ff 98 a4 3e
       -0.08923277 -0.08187749 0.25614384 0.32147977
000060 c1 b9 84 bd 3b db 3d bd 90 1f 10 3e e7 32 06 3e
       -0.06480742 -0.046351653 0.1407454 0.13105355
000070 06 e0 df 3b 38 79 18 be 47 0b 13 bd d5 8b 1f 3d
       0.0068321256 -0.14889991 -0.035899427 0.038951714
000080 7b 55 03 3e 3f 64 78 3d b9 c1 22 3e 20 b1 99 be
       0.12825577 0.060642477 0.15894212 -0.30017948
000090 de bf 67 3d 22 f1 d2 3e b7 7d c0 3d de 41 f2 3e
       0.056579463 0.41199595 0.09398978 0.47315878
0000a0 e8 73 f5 bb 1c 3a 73 3e 95 3d 20 be 27 12 ca 3e
       -0.0074906237 0.23752636 -0.15648492 0.39466974
0000b0 6c c7 81 bd ec c3 78 bd 2e 53 d0 3d 2f 5c 2b be
       -0.06336865 -0.06073372 0.10172115 -0.16734384
0000c0 3f e8 37 bd e3 16 60 bd 6c f1 82 bd b2 00 a1 3d
       -0.04489922 -0.054709326 -0.06393704 0.07861461
0000d0 7b e2 cc bd da 75 14 bd f2 f3 2f be b6 20 f1 bd
       -0.10004135 -0.036245205 -0.17182902 -0.11773817
0000e0 80 be ca bc 99 cf ee bd 65 22 b8 bd 1b e7 5a 3e
       -0.02474904 -0.1166069 -0.08990935 0.21377222
0000f0 15 89 5a 3c 4d 78 0b 3d 72 a9 0b 3f 2b b2 28 bd
       0.013338347 0.034050275 0.5455543 -0.04118554
000100 ff 12 b4 3a f6 cf b0 bd 9d de 45 bc ea fd ae bd
       0.0013738571 -0.086334154 -0.012077001 -0.08544524
000110 ea b6 ca bd dc 22 e3 3e cf 91 37 bd ac 33 56 3e
       -0.09898169 0.44362533 -0.04481679 0.20918149
000120 10 f7 82 bd d7 8d e5 3d 99 26 55 3e 1d 63 06 be
       -0.0639478 0.112086944 0.20815505 -0.13123746
000130 de 3f 85 3c 0f 45 5d be e0 fa 00 bd 59 07 39 be
       0.016265806 -0.21608375 -0.031489253 -0.18069209
000140 b2 97 aa be c4 43 9a bd fd fc 20 bd dd 0a 6d 3e
       -0.3331886 -0.075324565 -0.03930377 0.23148675
000150 01 b1 21 bd 73 7f a7 3e 81 3a 40 3e 95 88 56 3d
       -0.039475445 0.32714424 0.18772317 0.05237635
000160 e8 08 c3 3e 51 2f fa 3c 42 cf 95 bd c4 57 ae 3d
       0.38092732 0.03054014 -0.07314922 0.08512834
000170 4d 41 c4 3c bc 47 0e 3d cc 76 a8 3e 58 79 1d 3d
       0.02395692 0.03473638 0.32903135 0.0384458
000180 ed 11 2b 3e fc 7e 2e 3c de b4 e9 bc 0e 24 f0 bd
       0.16706057 0.010650393 -0.028528627 -0.11725627
000190 49 3f ed bd 44 d5 18 3e 70 9f c2 b9 10 8a 5f 3d
       -0.11584336 0.14925104 -0.00037121354 0.054575026
0001a0 d5 9f f3 3c 1a ce df 3d c3 4e 07 bd 91 35 87 3e
       0.0297393 0.10927983 -0.033034097 0.26408055
0001b0 5c 02 62 3e 28 37 ac 3d 2a e4 54 3e 29 7a 5e 3e
       0.22071213 0.08408958 0.20790163 0.21726288
0001c0 c1 51 c8 3d 03 67 a1 3d d5 84 98 3e ac 28 bc 3e
       0.09781218 0.07880976 0.29788843 0.3674978
0001d0 23 70 ea bd 54 5d cf 3e 14 6c b0 3e 6f 91 38 3e
       -0.1144717 0.4050089 0.34457457 0.18024229
0001e0 08 35 d1 be 07 e4 fa 3c 92 f4 38 bd cf d4 93 bc
       -0.40860772 0.03062631 -0.045155115 -0.018045811
0001f0 7c 18 2b 3e d7 41 08 be a2 29 50 bd 14 41 ae 3e
       0.16708559 -0.13306366 -0.050820954 0.34034026
