GridWorld/DQN_For_All_Optimal_Way/dqn_model.pth (torch, 83008 bytes, 24 tensors)

fc.0.weight f4 [64, 2]
00000000: 5e80 2e3e aad9 17be 00ba 58be a5d7 ad3d
00000010: c624 b53e 7906 22c0 67bd 9c3e 252e 6cbf
00000020: e00a 6fbd e817 babe 7a65 3abe 56ca dd3e
00000030: 7652 86be 8e91 73bd 7d2b 45bf 48e5 f83e
00000040: 234a 0e3f adf4 0bc0 b426 883e a9e2 47be
00000050: 1e93 2ebf 71a2 2e3f d9f9 a9be 5f28 163e
00000060: 1b80 e73e 169e 91bd 293e 1f3e 8cdc 34bf
00000070: 790c 8a3d 96e8 053d 59b1 9abe 20f9 26bd
00000080: e054 51be 38ad a1be 7758 b93c cf85 8dbe
00000090: 45d7 9f3e 0981 b43e e519 09be 99ad 9d3e
000000a0: f8d8 ee3d a97b 14bf 7df2 cd3e e350 813e
000000b0: 45c7 ebbf 47be ea3e eba9 953e 9949 15c0
000000c0: 7d2b b2bd 3ef6 ddbe 0aa4 17bf a749 aabe
000000d0: f475 78be 3969 36be 3d95 6abf b904 673e
000000e0: 80b3 633e 8e8b 35bd 5da1 ed3e 268d 36be
000000f0: 69db bcbe 74d4 ed3e 1fd5 273d 4eb3 80be
00000100: fbe7 97be 8da1 53be 5e60 163d 9002 4bbf
00000110: 9a53 07bf 02fd 613e 4be2 cfbd ce00 3abe
00000120: 8b44 98be 2494 3dbd 1654 0fbf e0e8 3d3f
00000130: 3052 adbe cf90 893e 7742 123f fca2 ec3c
00000140: 140c f73c 9815 0c3d b66d 0bbf 8846 30be
00000150: 0486 da3e aeaf 5cbf 9ff3 2f3f c01b a3bf
00000160: e31f 04bf c6df 193b 3d43 13be 9d50 2c3f
00000170: 4f57 193f 0725 f4bf 1e74 10bf 13e0 5c3e
00000180: 4445 a6be 8353 aa3d fe38 033e 65bb be3d
00000190: 93ad a3be acb5 a83e 5897 91be 28f9 80be
000001a0: aaa2 c4be 7ed8 7ebe 6b80 2abf 3741 973c
000001b0: 15ca a53e bd4c 9ebe a4d7 6d3e aaaa a03e
000001c0: 54d5 66be cd9a 6a3d 621b 6b3e 438f 95bb
000001d0: d6b0 863d 3914 22bf 690e 64be 9404 5a3e
000001e0: e590 873d 6653 e2be c472 803e 83cb 28c0
000001f0: 9ff3 ae3e 6315 a3be 6a44 403d 5edb aa3e
0.17041156 -0.14829126 -0.21164703 0.084883966 0.35379618 -2.531645 0.30613253 -0.9225791
-0.05835998 -0.36346364 -0.18202773 0.43318433 -0.26234788 -0.059464984 -0.7701948 0.48612428
0.55581874 -2.1868088 0.26592028 -0.19520058 -0.68193233 0.68216616 -0.3319843 0.14663838
0.45214924 -0.071102306 0.15551056 -0.7064903 0.0674066 0.032692514 -0.3021343 -0.040764928
-0.20442533 -0.31577468 0.022625191 -0.2764115 0.31218925 0.35254696 -0.13388784 0.30796507
0.11662477 -0.5800119 0.40224066 0.25257024 -1.8420187 0.45848295 0.292312 -2.332617
-0.08699701 -0.4335193 -0.5923468 -0.33259317 -0.24263746 -0.17813577 -0.9163397 0.22560395
0.22236443 -0.044322543 0.46412173 -0.17827281 -0.36886147 0.4645115 0.040974732 -0.251368
-0.29669175 -0.20667095 0.036712997 -0.79300785 -0.5286194 0.22069171 -0.10150584 -0.1816437
-0.29739794 -0.046283856 -0.5598768 0.74183464 -0.33851767 0.26868293 0.5713267 0.02888631
0.030157126 0.03420028 -0.5446428 -0.17214406 0.4268037 -0.86205566 0.6873111 -1.2742844
-0.51611155 0.0023479327 -0.14381118 0.67310506 0.5989885 -1.90738 -0.5642718 0.21569853
-0.3247472 0.0831671 0.1281471 0.093130864 -0.31968364 0.32951105 -0.2843578 -0.2519009
-0.38405353 -0.24887273 -0.666022 0.018463714 0.3238074 -0.30917922 0.23226792 0.31380206
-0.22542316 0.057276536 0.22959664 -0.0045641973 0.065766975 -0.6331211 -0.22271122 0.21290809
0.06619433 -0.44204253 0.2508756 -2.6374214 0.34170243 -0.31852254 0.046940245 0.3337049

fc.0.bias f4 [64]
00000000: 1a1d cc3f b554 8e3f 9841 93be 0f43 01c0
00000010: ca68 b4be 72ae f7bf 146d f33f 33dc a83f
00000020: 82a6 40bf 7d04 e03f 3e3a ffbf 96d0 ca3f
00000030: 6ae2 d8bf 0e41 01be 5b27 80bf 7b4d 18bf
00000040: 3009 0440 e262 b63f 46a1 e9bf 39f1 acbf
00000050: ae25 0540 8b88 1dc0 b6b8 9dbf 60b2 0ebf
00000060: eef3 b03e cd11 05bf 4c05 0f40 624d ca3f
00000070: 5c94 ddbf 6c8d ffbf eb43 66bf 6e63 c1be
00000080: f979 0240 ce49 873f 816f 9b3e 7ded 8f3f
00000090: 870a 493f 574f 11c0 948f da3f ca78 bfbe
000000a0: 07d9 17bf 9458 2cbf 0d2f ae3d ed0e 9fbf
000000b0: 5a93 0540 5277 a4bf 6bae 513e 568e f63f
000000c0: 0bc9 a33f b52d 02c0 8776 f23b afd9 d8be
000000d0: 5789 1640 001e 7abe 71a4 41bf 96b7 05c0
000000e0: db05 9b3f 71c2 08c0 82ff 1bbf 6fef 86bf
000000f0: 3c06 ef3f 3ffe c93c 0a84 6abf 8516 06c0
1.5946381 1.11196 -0.28760982 -2.019718 -0.35236198 -1.9350111 1.9017663 1.31922
-0.7525407 1.750137 -1.9939649 1.5844905 -1.6944096 -0.12622473 -1.001201 -0.59493226
2.0630608 1.4248927 -1.8252342 -1.3511115 2.0804248 -2.461459 -1.2321994 -0.5574093
0.34561104 -0.51980287 2.2346983 1.5804865 -1.7310901 -1.9965034 -0.89947385 -0.3777117
2.0386946 1.0569398 0.30358508 1.1244351 0.7853169 -2.2704675 1.7075067 -0.37396842
-0.5931553 -0.6732266 0.08505068 -1.242643 2.0871186 -1.2848914 0.20476691 1.9262187
1.2795728 -2.0340397 0.0073993835 -0.4235358 2.3521326 -0.24425507 -0.7564154 -2.0893302
1.2111162 -2.1368678 -0.6093675 -1.0541819 1.8673778 0.024657367 -0.91607726 -2.0951245

fc.2.weight f4 [64, 64]
00000000: c94c cd3c 9f32 a0bc 00ff f43c 7d65 fcbd
00000010: 80b9 753c b97b d63d 32cd b33d da44 9abd
00000020: 9019 4fbc 0c23 d5bd 5880 ad3c 68f1 b9bd
00000030: 44ff ea3d 8e7d 7abd d800 c63d c0ae b4bc
00000040: cb52 d3bd 2766 d73d 28c2 8ebd f9ec 47bd
00000050: 112f 913c c470 c7bd 5db2 153d 1aa2 2b3c
00000060: 49f7 e23d d0ab 243d cb4c 3fbd 6cde e7bd
00000070: d0df 98bd 901a f8bd 6492 edbd 646e e73c
00000080: 88ec 9a3c aa36 db3d c19b 883d ad32 f1bb
00000090: 5f19 8a3d ff10 c83d c66c 42bd a156 30bd
000000a0: f9c0 d6bd 0e6b d0bd dfc6 b93a 8034 363b
000000b0: ec51 453d 6565 713d 017f f8bc 64f9 01be
000000c0: 70a2 97bd 4629 edbd e79b 0cbd e0ea e7bb
000000d0: 2421 e6bd 20c3 46bd a468 acbd 064b a1bd
000000e0: c251 f63c c8d3 3fbd 6c58 6b3d ecb0 03bd
000000f0: 29c9 0fbe 3eab 563c 30f1 193d 7d14 833d
00000100: 3b11 373c 0ace 3f3e 4492 1b3f 8c20 21bf
00000110: 709a ffbc f914 c2bf 0eba 703e f560 73be
00000120: 5a07 40bb 14a5 7e3c 3adf 32c0 d3c4 123e
00000130: 61d5 bdbe 6d95 9abd b911 aa3d b45d b03d
00000140: be4e 553e 599d 42bb 4caf 0dbf 6d00 15c0
00000150: 6a98 1d3e 5cbb eebe 3d5c c5bf 4d46 673e
00000160: a9f3 9bbd 68b8 c43c c2b7 e23e 4016 9cbe
00000170: b31c febe 46dd 4abe d59c 12bf a803 c53d
00000180: c050 233f 1d34 94be bd2d 13bf bd06 f3be
00000190: 6efe 413e 9904 11c0 e7ae 6c3e 5e0d 90bc
000001a0: dc8c 633d d02d 5cbc 8ffe 153e 057b 1abe
000001b0: b9f3 64bd 5102 7d3e b39e ab3e 2d92 733e
000001c0: 3e8a 2abc 0a4a 9ebe d2e0 0a3f 9060 a4bd
000001d0: 5e56 d43d 3698 c53d beaa 88bc c268 1dbe
000001e0: e953 a93d 9f46 23c0 fe80 c3bd cc15 2cbf
000001f0: dc9e 42be e021 033f 85af 75be 5a0f b7bf
00000200: f0da b23d ac66 b03c 26f1 adbe 2560 0cbe
00000210: c077 79bb 0de3 3bbf 10bc 13be 1f20 a13d
00000220: 57b9 0ac0 eb69 a53e 9b7e 2b3f c08c de3e
00000230: 6695 e0be a604 b9be 2968 c9bd 8042 d73b
00000240: d7ec 5c3f 4882 8d3e 658b 28bd ed3e 2cbf
00000250: 5ff0 d33d 6d07 24be fdee 343e 8473 09bf
00000260: a9bd 713f acb1 49bd 22a8 56be 6fcb 6ebf
00000270: 7bfc e2bf 3101 53bf f9a0 58be 7022 e23d
00000280: 6c81 2e3e 5e2b 41be 51d1 27bf bc5e d1bf
00000290: 9bcd 73bf ba2b 39be 158d b03b 8a34 2a3e
000002a0: 76ff e13d a280 813d 08d4 2e3c f535 053f
000002b0: 5a9b 3dbe 97f4 02be 88bc 653e 34f6 e83d
000002c0: 638b 613e 7e5d a63d 12c3 543e 0c71 cc3d
000002d0: 14e1 e4bc 939a 0bbd d49e 8f3e c62c 05be
000002e0: c651 de3d a1bf 4bbf 8cb7 6cbf 25c1 f5be
000002f0: 3255 3a3e f6c0 6fbf d487 13be beea 3cbe
00000300: 3815 383e f690 edbf fb8c 93bf aeb7 81be
00000310: 804b 23bc 1d33 f9bf f36e 67c0 3cb1 0cc0
00000320: 5040 95be 5ae2 6e3e c2e0 b9be 2c21 013f
00000330: 735a 4bbf 09db 733b 3a3b 0cbf 142a 973d
00000340: 4502 6d3f 2869 2e3e 2b11 17c0 96c4 3fbe
00000350: 904f 4d3f 98a8 d9bf 0ad2 79be a7ed 8cbf
00000360: 7d5a dc3b 38f3 433d dd02 933f f0de 83bf
00000370: 73e6 2dbf 172d b1bf 05a0 2fc0 5082 4d3e
00000380: abb7 4cc0 c894 f8bd 88b7 56c0 5da1 0ebe
00000390: e038 ec3e b7b7 a4be 8763 383f 1ea7 01bb
000003a0: bd86 b03d cc20 5d3d 282d 203f 9efb 81c0
000003b0: 4788 22c0 3ab6 acbf a414 03bf 8ef9 87c0
000003c0: 71d4 053e d4e6 0dbf faa1 82c0 3023 d3bc
000003d0: c643 ddbf dee3 c2bd 1560 c03e b1d5 a7bf
000003e0: 021f 20bf 8b07 6dbf 4ed4 c73d 1585 32c0
000003f0: 69bd 083f 2053 a8bf fe50 1b3f 6dc7 fcbd
0.025061028 -0.019555388 0.02990675 -0.12324045 0.01499784 0.10472817 0.08779372 -0.07532664
-0.012640372 -0.10407075 0.021179363 -0.09079248 0.11474469 -0.061154895 0.0966813 -0.022055984
-0.10318526 0.10517531 -0.06970626 -0.04880998 0.017722638 -0.09738305 0.036547054 0.01047566
0.11082322 0.040202916 -0.046704095 -0.113217205 -0.07464564 -0.121144414 -0.116001874 0.02825088
0.018911615 0.10703786 0.06670333 -0.0073607774 0.067431204 0.09768867 -0.047467016 -0.043051366
-0.10486025 -0.10176669 0.0014173648 0.0027802289 0.04817383 0.058934588 -0.030333998 -0.12692791
-0.07404029 -0.11580138 -0.034328368 -0.00707756 -0.1123679 -0.04852593 -0.08418396 -0.07875638
0.030068282 -0.04683283 0.057457373 -0.032151148 -0.1404158 0.013102351 0.03758353 0.06400392
0.011173542 0.18730941 0.6077006 -0.6294029 -0.031201571 -1.516265 0.23508474 -0.23767455
-0.0029301257 0.015542287 -2.7948747 0.14332895 -0.37076858 -0.07548032 0.083041616 0.086116225
0.20830819 -0.0029695837 -0.55345607 -2.328151 0.15390173 -0.4662732 -1.5418774 0.22585411
-0.07614834 0.024013713 0.4428082 -0.30485725 -0.4963127 -0.19810972 -0.57270557 0.09619838
0.6379509 -0.2894601 -0.57491666 -0.47466078 0.18944713 -2.2659056 0.23113595 -0.017584499
0.055554256 -0.013438657 0.14647888 -0.1508599 -0.055896495 0.24707915 0.33519515 0.2378623
-0.010408936 -0.30915862 0.542493 -0.0802623 0.10368036 0.096481726 -0.016682979 -0.15371993
0.08267958 -2.5511854 -0.09546088 -0.6722076 -0.19005913 0.51223564 -0.23992737 -1.430156
0.08733165 0.021533333 -0.33973044 -0.13708551 -0.0038065761 -0.73393327 -0.14427209 0.07867455
-2.1675622 0.32307371 0.6699006 0.4346676 -0.43863982 -0.3613636 -0.0983432 0.0065692067
0.8629889 0.2763846 -0.041148562 -0.6728352 0.103485815 -0.16018458 0.17669292 -0.5369189
0.94430023 -0.049241707 -0.20962575 -0.93279165 -1.7733301 -0.8242369 -0.21155156 0.11041725
0.17041558 -0.188642 -0.65553766 -1.6357036 -0.95235604 -0.18083087 0.005387912 0.16621605
0.110350534 0.06323363 0.010670669 0.52035457 -0.18516293 -0.12788616 0.224352 0.113750845
0.22025828 0.08123301 0.20777538 0.099824995 -0.027939357 -0.03408296 0.28050864 -0.13005361
0.10855441 -0.7958928 -0.9246757 -0.4799892 0.18196562 -0.9365381 -0.14407283 -0.18448922
0.17976844 -1.8559864 -1.1527399 -0.2533545 -0.009966731 -1.9468724 -3.6161468 -2.1983175
-0.2915063 0.23328534 -0.3630429 0.5044124 -0.7943489 0.0037209413 -0.5477787 0.07381073
0.9258159 0.17032301 -2.3604228 -0.18727335 0.8019953 -1.7004576 -0.2439653 -1.1010026
0.006724654 0.047839373 1.1485249 -1.030241 -0.6792976 -1.3841885 -2.7441418 0.20069242
-3.1987102 -0.12137753 -3.3549519 -0.13928743 0.46137142 -0.32171413 0.72026867 -0.0019783447
0.08619449 0.053986356 0.625689 -4.061965 -2.5395677 -1.3493111 -0.5120337 -4.249213
0.13069321 -0.5543034 -4.0822725 -0.025773615 -1.7286308 -0.095161185 0.37573305 -1.3112088
-0.62547314 -0.92589635 0.09757291 -2.7893727 0.53414017 -1.3150368 0.6067046 -0.12342725

fc.2.bias f4 [64]
00000000: 0e7f 463c 68e4 7f3e abee fc3e 7fdb 943e
00000010: 8f30 0abe f5e8 c0be 70a7 efbc 84f9 14bf
00000020: 7348 75be 66b7 48bd 463b c5bd 4317 ebbd
00000030: a47f 0a3f 5eb9 b43c 90ba f33e 7cbf e5bd
00000040: 742d cabe 7179 d5bc 9ed6 3b3e f7e8 c63e
00000050: 929a c7bd 1d58 643f 01b1 4f3e 34e9 4dbf
00000060: 4ca2 6ebd 2c8c c3bd fa19 90bd c136 383f
00000070: 76d2 ecbe a8ca 163f e2a8 253d 1e79 27be
00000080: 6f2e 453f c8e8 fcbd f970 263f 2573 263f
00000090: 869a ac3e 5953 6b3f c0c5 09be f9ca 3d3f
000000a0: f7a0 f63c 3d90 333f 1abf 7cbe af3e 18bf
000000b0: 6cb1 5c3e 4c13 19be f19e bf3e 6fe2 7ebe
000000c0: 4f74 d33e 2418 753e b564 1fbe 4946 0f3f
000000d0: 24ad 28be 63df 173e b2c8 0d3f eea0 3bbf
000000e0: 9214 253e 33e2 173f a1dd 4d3f 3950 c83d
000000f0: cb3a 90bd b622 a13e f842 21bc 2ec3 213f
0.012115253 0.24989474 0.4940084 0.29073712 -0.13495086 -0.37677732 -0.029254645 -0.5819323
-0.23953418 -0.049003027 -0.09630446 -0.11479046 0.54101014 0.022061046 0.47603273 -0.11218163
-0.39487803 -0.026058884 0.18343589 0.38849613 -0.09746279 0.8919695 0.20282365 -0.80433965
-0.058260247 -0.0954822 -0.07036205 0.7195855 -0.4625432 0.5890298 0.040444262 -0.16354796
0.7702398 -0.12349087 0.6501613 0.65019447 0.33711642 0.91924053 -0.13454342 0.74137837
0.03010605 0.70141965 -0.24682274 -0.5947065 0.21552056 -0.14948767 0.3742595 -0.24891065
0.41299674 0.2393499 -0.1556576 0.5596662 -0.16472298 0.14831309 0.5538436 -0.73292434
0.16121128 0.5932953 0.80416304 0.09780926 -0.07042464 0.31471795 -0.009842627 0.63188446

fc.4.weight f4 [4, 64]
00000000: 9435 04bd b095 233e 336a 5c3e 7b85 a63f
00000010: f82c 953d 86cb c7be 6f5c 9e3d 03d4 bf3e
00000020: 4cde 91bf e1ba 923e 5013 be3d 77bb 48bc
00000030: 415d 433f d4aa d1bd 5ccd ba3f fc38 883d
00000040: c04d 87bf 1ba5 a0bc 0606 00bf 2338 60bf
00000050: 8ddc 4e3f 73b2 80bf 3dce ce3d 2bcb 64bf
00000060: 84c3 3ec0 2b93 f23d 4dfc c83d b72a 863e
00000070: 074b 343e 93cc 343f 48a4 913c 3f65 41be
00000080: 762c 503f 4c15 fbbd ff2f 7abd 6eb6 fa3e
00000090: 7215 c93e bc9e af3e 1377 c63e a5ca 0b40
000000a0: 5399 a5bf 4d7a d33e 99ad d3be b538 4f3e
000000b0: 177d bcbf 23a8 89bb c1b9 b8bf b68c 903f
000000c0: 8c64 0e3e 447d 423f 0b47 b1be 1024 913f
000000d0: 44ba bebd 2ea6 993f 1ccb 283f 204d 62be
000000e0: 4a41 84bf aef8 29be d547 373f f228 713f
000000f0: 3b3c bb3d ccfa 96bf 7db3 46bd 4f39 85bf
00000100: 242f bc3d 22a7 56bd 5f1a d6bb db03 9c3f
00000110: 189e f1bd f5ff 93be c347 1c3e ba84 d1be
00000120: fb92 8abf 369e fabd 84fe 2f3e 08a7 f6bd
00000130: 1bac fcbe d00f d23c 06f3 eabf 95a4 0c3d
00000140: 53c7 c1bd 5e1a da3d aea6 be3f 791f 31be
00000150: 9c04 b6be c4e2 c23f d513 26bf e7db b6be
00000160: 9675 ecbf 9e43 163e 6068 f73c f4f3 c03d
00000170: e28a 243f 7684 673e b41c 3f3d 46ae 5b3e
00000180: 31d5 e03e 42a0 5fbc c715 4e3f f258 223e
00000190: 0280 2d3d 9619 b03e 876f a73c d318 f7be
000001a0: 0d03 263e b8b4 4c3f cf73 57bf 88d6 38bd
000001b0: 3cce b93e 6ad3 8a3e 332c aa3f 7b16 6ebf
000001c0: 0cd2 1d3f 0c78 713f e6ed 5fbe 9466 6dbf
000001d0: 60c1 033c 0899 5f3f 2bb4 833f 3058 f0bf
000001e0: ed8d ef3e 12e0 963f 886d 1a40 5bff 61bf
000001f0: 9afd 7e3f 9be4 583f 6a23 0e3d 7322 9d3f
00000200: 50e1 c43c 583f 1e3f 8416 3c3f 4ef9 39c0
00000210: caa6 be3a e826 f93d 6d96 f9bc ed27 af3f
00000220: a167 a43d bf3c 8fbc 6da4 86bf e067 6c3c
00000230: 2fbb 90be ac7c ed3c c819 463d 52f7 3cbd
00000240: 5e88 7bbf 1b39 953d 9f96 b4be 55e8 883f
00000250: b132 a0bf e65c b73f 9d67 b53e 7dd5 cf3e
00000260: f8bd d1be af5e 67bd d696 64bc 9916 e73e
00000270: 74a3 6540 12e7 cbbe 6e83 fdbc 6b18 cc3e
00000280: dd0a 253f e0c8 86bb d314 223f f679 5dbd
00000290: e51f 343f 24cf 263f f62c 77be 62a0 9b3f
000002a0: 4c50 8b3f 749b a13e abf2 4abe 762b 1fbf
000002b0: 65b3 703e c966 783e 31ae 63bf 2068 763e
000002c0: 6eb7 1abf fcc2 6a3e a652 60be 3894 0740
000002d0: faed de3d 2afb 47be d5ad 033f d8a9 7f3d
000002e0: 3697 71bf aa5e a83f 8944 98bf fc78 373a
000002f0: 7434 543e e68c 99bf a6e8 afbd 01a9 21c0
00000300: 1d81 b1bd 478c 803d c851 b5be 8368 5d40
00000310: dc07 893d 7b06 4e3e d709 9c3d 027e a3bf
00000320: 4c64 7c3d 6bf0 babd eb2f 583f 61bf 873d
00000330: 59ed 3cbe f6cf d9bd df43 563e c906 bfbd
00000340: 685d 163f fcc6 85bd 1fe6 c6bd 0a86 40bf
00000350: 9360 0fbd db73 813d bd00 823e e077 d1be
00000360: 681a a23f 32d4 983d b345 9e3c 7641 de3e
00000370: 2889 f3be 3498 9e3f 0330 99bd 6bdb e23e
00000380: a043 30bf 2c92 d83d 66b0 dd3f 0103 b03f
00000390: 86c4 943e 74aa ec3e 6d79 06bf bedd 6e3c
000003a0: 52c3 8f3e 6690 7e3f 1c0f 9b3e d6b9 25bf
000003b0: 8fcf a1bf 0668 2abd 6d5e e13f c962 21c0
000003c0: 6b4d ef3e 42e2 2abe c9e0 873f a49b e53e
000003d0: b514 7abc 002b 40be 2561 133f 6d2e 45bf
000003e0: 322d 3cbf b916 bdbd 13c4 01bf d5d4 7c3d
000003f0: 170d 74bc da22 36bf 59a1 593d 1bd8 0ec0
-0.03227766 0.1597507 0.21524887 1.3009485 0.07283968 -0.39022464 0.07732474 0.3746644
-1.1395965 0.28658202 0.09281027 -0.012251726 0.7631417 -0.10237661 1.4593921 0.06651494
-1.0570602 -0.019609978 -0.5000919 -0.8758566 0.80805284 -1.0054458 0.100979306 -0.8937251
-2.9806833 0.11844476 0.098137476 0.26204464 0.17606746 0.70624655 0.01777853 -0.18886279
0.8131784 -0.122599214 -0.06108093 0.48967308 0.39274174 0.34300792 0.3876272 2.1842434
-1.2937416 0.41304246 -0.41343382 0.20236476 -1.4725674 -0.0042009517 -1.4431688 1.1292942
0.13905543 0.7597239 -0.34624514 1.133913 -0.09312871 1.2003839 0.6593492 -0.22099733
-1.0332425 -0.1659877 0.7159398 0.942031 0.091423474 -1.1795287 -0.048511017 -1.0408114
0.09188679 -0.052405484 -0.0065339054 1.2188677 -0.11797732 -0.28906217 0.1526175 -0.40921575
-1.0826105 -0.122372076 0.17186934 -0.120435774 -0.49350056 0.025642306 -1.8355415 0.034336645
-0.09461846 0.106495604 1.4894617 -0.17297162 -0.35550392 1.5225453 -0.6487401 -0.35714647
-1.8473384 0.14674231 0.030201137 0.0942153 0.6427442 0.22609124 0.046658233 0.21453199
0.43912652 -0.013649048 0.8050198 0.15854242 0.042358406 0.3439452 0.020438923 -0.48261127
0.16212101 0.79963255 -0.84161085 -0.045126468 0.36290157 0.2711442 1.3294739 -0.9300305
0.6164863 0.943238 -0.21868095 -0.92734647 0.00804171 0.8734288 1.0289358 -1.8776913
0.46787968 1.1787131 2.4129353 -0.88280267 0.99605715 0.84723824 0.034701742 1.2276138
0.024033219 0.61815405 0.73471856 -2.9058414 0.0014545557 0.12165624 -0.030467236 1.3684059
0.08027578 -0.01748502 -1.0518929 0.014429063 -0.2826781 0.028990112 0.04836443 -0.0461343
-0.98254955 0.07286283 -0.35271165 1.0695902 -1.251547 1.4325225 0.35430613 0.40592566
-0.40965247 -0.05648678 -0.013951978 0.45134428 3.5881014 -0.3982473 -0.03094646 0.3986238
0.644697 -0.0041133016 0.63313025 -0.05407139 0.7036117 0.6515982 -0.24138245 1.215832
1.088388 0.31563914 -0.19819133 -0.6217569 0.23505934 0.2425796 -0.8893767 0.24063158
-0.6043614 0.22925943 -0.21906528 2.1184216 0.10885234 -0.19529405 0.5143712 0.062417835
-0.94371355 1.3153889 -1.1895915 0.0006998924 0.20723134 -1.1996124 -0.08589296 -2.5259402
-0.086672045 0.06276756 -0.35413957 3.459504 0.06690952 0.2011966 0.07619064 -1.277283
0.061619088 -0.09127887 0.84448117 0.066282995 -0.18449916 -0.106353685 0.20924328 -0.09327466
0.58736277 -0.06532094 -0.09711861 -0.7520453 -0.03500421 0.06320926 0.25391188 -0.4091177
1.2664309 0.07462348 0.019320345 0.43409318 -0.4756558 1.2390199 -0.07479861 0.44308028
-0.6885319 0.10574755 1.7319458 1.3750917 0.29056185 0.46223795 -0.5252903 0.014579235
0.28078705 0.99439085 0.30284965 -0.6473669 -1.2641467 -0.04160311 1.7606941 -2.5216544
0.46738753 -0.16687873 1.0615474 0.44845307 -0.015263726 -0.18766403 0.57570106 -0.77023965
-0.7350646 -0.0923285 -0.5068981 0.06172641 -0.014895699 -0.7114693 0.05313239 -2.23194

fc.4.bias f4 [4]
00000000: 5946 ec3e 07b0 d53e 5c94 223f 90e7 863f
0.4614742 0.4173586 0.6350763 1.0539417

fc.0.weight f4 [64, 2]
00000000: 056d 3e3e fa3e 0cbe 763f 69be 2198 943d
00000010: ee23 af3e bb60 23c0 f748 963e 2da7 52bf
00000020: e00a 6fbd e817 babe 9763 0bbe c4fb d53e
00000030: db1a 8abe 2d86 3abd 86b8 3dbf 046c fe3e
00000040: 9d45 0f3f 2be5 0cc0 ee29 8e3e ce9d 41be
00000050: 1ec6 22bf e0e3 293f 8d03 abbe e2eb 243e
00000060: 3742 e73e beb6 8ebd 2a95 2e3e 694b 11bf
00000070: 790c 8a3d 96e8 053d 59b1 9abe 20f9 26bd
00000080: e016 74be 5c31 87be a09a de3c 67dd 8bbe
00000090: 7219 a23e 9bbb ac3e 98d0 d8bd 3b36 a03e
000000a0: 84ff f93d 7a60 0fbf 6b57 d73e c79a 813e
000000b0: 66e0 c8bf 1d40 ec3e 8f63 993e 9949 15c0
000000c0: 3b4f 98bd 3ef6 ddbe 0aa4 17bf a749 aabe
000000d0: 4182 83be 1c70 28be a3f7 5fbf 2d2a 823e
000000e0: afa1 7c3e 8631 11bd 97cf eb3e e2e4 48be
000000f0: 98d4 c7be 054f f03e 1fd5 273d 4eb3 80be
00000100: a2c8 adbe c083 33be 8061 a93d ae39 64bf
00000110: cf99 0bbf f102 793e c7d2 1abe 61d7 61be
00000120: 457b 87be 27e5 adbd 6dd6 0ebf 0b29 413f
00000130: d2f5 adbe c0d8 7d3e 3500 1b3f 295c 143d
00000140: 140c f73c 9815 0c3d b66d 0bbf 8846 30be
00000150: 57ed de3e 9781 66bf f2a1 2f3f 8f0e a6bf
00000160: d46b f9be 1af9 1abd 1d35 06be 1a35 2b3f
00000170: fe58 193f 9630 fcbf 3434 11bf 286a 7e3e
00000180: 9b4e a8be 83ee bf3d fe38 033e 65bb be3d
00000190: 34d5 a6be 27fc a53e 5897 91be 28f9 80be
000001a0: cba3 bfbe 17cc 4bbe 6b80 2abf 3741 973c
000001b0: caea 9e3e 0470 a1be 8fcf 6a3e ff47 9c3e
000001c0: eaa0 86be a51e 263d 621b 6b3e 438f 95bb
000001d0: 0630 123e de56 23bf 9bdb 47be debb 7d3e
000001e0: 6b16 e83c 76e3 e6be edaa 873e 48df 27c0
000001f0: c853 aa3e 0308 9fbe 7d62 7f3d d501 b63e
0.18596275 -0.13695899 -0.22778115 0.07255579 0.342071 -2.552779 0.29352543 -0.8228634
-0.05835998 -0.36346364 -0.1361221 0.41793644 -0.26973614 -0.045538116 -0.74109685 0.49691784
0.55965596 -2.2014873 0.27766365 -0.18907854 -0.6358355 0.66363335 -0.33401147 0.16105607
0.45167705 -0.06968449 0.17049089 -0.5675569 0.0674066 0.032692514 -0.3021343 -0.040764928
-0.23836851 -0.26404846 0.02717334 -0.27317354 0.31660038 0.33736882 -0.10586661 0.31291375
0.12206939 -0.56006587 0.42058882 0.25313398 -1.5693481 0.46142665 0.2995877 -2.332617
-0.07436987 -0.4335193 -0.5923468 -0.33259317 -0.25685313 -0.16449016 -0.8748724 0.25422803
0.24671052 -0.03544762 0.46056816 -0.19618562 -0.39029384 0.46935287 0.040974732 -0.251368
-0.33942133 -0.17530727 0.0827055 -0.8915051 -0.5453157 0.24317528 -0.15119468 -0.22054817
-0.26461235 -0.08490973 -0.5579594 0.7545325 -0.3397661 0.24789715 0.6054719 0.036220703
0.030157126 0.03420028 -0.5446428 -0.17214406 0.4354045 -0.9004149 0.68606484 -1.2973193
-0.4871508 -0.037835218 -0.13106199 0.668779 0.59901416 -1.9702327 -0.5672028 0.24845183
-0.3287247 0.093716644 0.1281471 0.093130864 -0.32584536 0.3241894 -0.2843578 -0.2519009
-0.37429652 -0.19902073 -0.666022 0.018463714 0.31038505 -0.31530774 0.2293074 0.3052368
-0.26294643 0.04055657 0.22959664 -0.0045641973 0.14276132 -0.63804424 -0.19517367 0.24778697
0.028331002 -0.45095414 0.26497594 -2.623003 0.33267045 -0.310608 0.062349785 0.35548273

fc.0.bias f4 [64]
00000000: a669 cc3f b594 913f 77b1 91be e5f5 fcbf
00000010: ca68 b4be defb f9bf ff70 f13f 83c6 af3f
00000020: dd4b 3abf 098c df3f 9721 01c0 cc16 cb3f
00000030: 949f d9bf c25b f7bd 5b27 80bf 7b4d 18bf
00000040: d78f 0440 773e bb3f f721 f3bf 58c7 abbf
00000050: 51cf 0640 2179 1ec0 0e18 9bbf 1790 0dbf
00000060: b197 ad3e cd11 05bf 96ef 0f40 6abe cf3f
00000070: 2405 d9bf 5cb7 00c0 3c27 5fbf 6e63 c1be
00000080: 0ba7 0040 d454 8d3f 3a8d a33e bb23 903f
00000090: 2b00 3f3f 85b3 0fc0 f080 dc3f 11cf c2be
000000a0: 07d9 17bf 9458 2cbf 273b ba3d e056 9fbf
000000b0: 2a55 0540 a845 aebf cc27 553e e694 f63f
000000c0: 7f07 a73f b52d 02c0 27c5 393c afd9 d8be
000000d0: 105e 1640 001e 7abe dfd5 48bf 1355 0ac0
000000e0: 6208 9c3f 71c2 08c0 0c8f 08bf 7723 84bf
000000f0: c5a1 f13f edf0 ad3d 1b34 66bf 5961 03c0
1.5969741 1.1373507 -0.28455707 -1.9762541 -0.35236198 -1.9529989 1.8862609 1.3732456
-0.7277201 1.746461 -2.0176752 1.5866332 -1.7001824 -0.12078048 -1.001201 -0.59493226
2.0712793 1.4628438 -1.899474 -1.342021 2.1064036 -2.4761431 -1.2116716 -0.5529799
0.33904794 -0.51980287 2.2489982 1.6229985 -1.6954694 -2.0111914 -0.8716924 -0.3777117
2.0101955 1.1041512 0.31943685 1.1260904 0.7460963 -2.245332 1.7226849 -0.38048604
-0.5931553 -0.6732266 0.09093314 -1.2448387 2.083323 -1.3615007 0.20815963 1.926419
1.3049163 -2.0340397 0.011338509 -0.4235358 2.3494911 -0.24425507 -0.7845134 -2.1614425
1.2190058 -2.1368678 -0.5334327 -1.0323323 1.8877493 0.084932186 -0.89923257 -2.0528166

fc.2.weight f4 [64, 64]
00000000: c94c cd3c 9f32 a0bc 00ff f43c 7d65 fcbd
00000010: 80b9 753c b97b d63d 32cd b33d da44 9abd
00000020: 9019 4fbc 0c23 d5bd 5880 ad3c 68f1 b9bd
00000030: 44ff ea3d 8e7d 7abd d800 c63d c0ae b4bc
00000040: cb52 d3bd 2766 d73d 28c2 8ebd f9ec 47bd
00000050: 112f 913c c470 c7bd 5db2 153d 1aa2 2b3c
00000060: 49f7 e23d d0ab 243d cb4c 3fbd 6cde e7bd
00000070: d0df 98bd 901a f8bd 6492 edbd 646e e73c
00000080: 88ec 9a3c aa36 db3d c19b 883d ad32 f1bb
00000090: 5f19 8a3d ff10 c83d c66c 42bd a156 30bd
000000a0: f9c0 d6bd 0e6b d0bd dfc6 b93a 8034 363b
000000b0: ec51 453d 6565 713d 017f f8bc 64f9 01be
000000c0: 70a2 97bd 4629 edbd e79b 0cbd e0ea e7bb
000000d0: 2421 e6bd 20c3 46bd a468 acbd 064b a1bd
000000e0: c251 f63c c8d3 3fbd 6c58 6b3d ecb0 03bd
000000f0: 29c9 0fbe 3eab 563c 30f1 193d 7d14 833d
00000100: 34aa 09bc 8494 293e 53d1 123f e3ed 1ebf
00000110: 709a ffbc 9dcf b3bf c7cd 653e 52fd 94be
00000120: ee80 debc f019 bdbb cab6 3dc0 dd88 f63d
00000130: a642 d3be 1f86 c7bd b911 aa3d b45d b03d
00000140: c731 5b3e 5902 b3bb 0b01 0dbf 6a7e 0bc0
00000150: 895c 223e a77f 0bbf 6b0d e2bf a4dd 473e
00000160: ae81 66bd 68b8 c43c 2df3 de3e eca0 a4be
00000170: c5dd 01bf 9e85 74be 01b4 2bbf a803 c53d
00000180: 3988 203f 2e3c 93be efd4 26bf a905 f8be
00000190: 8d2b 443e e306 0bc0 7023 503e bc4e 58bd
000001a0: dc8c 633d d02d 5cbc 4122 cc3d 3254 30be
000001b0: fec9 a1bd 26b0 18bc 2dad 943e abb1 513e
000001c0: 0dbf d4bc 0a4a 9ebe eeb4 853e 9060 a4bd
000001d0: 7f0e b33d 3698 c53d cee4 3dbd 032c 42be
000001e0: 475c 823d 9f46 23c0 3c1a 0ebe cc15 2cbf
000001f0: 2afb 38be e6d8 ed3e 007c 8abe 1bb3 94bf
00000200: c2b9 9c3d bf67 c53b 9ea1 d0be 2560 0cbe
00000210: c077 79bb 6322 0abf 3fa0 19be a7d5 debc
00000220: 1f4c ffbf 22b9 a03e ac02 6e3f a636 d23e
00000230: 68b9 c9be a025 97be 2968 c9bd 8042 d73b
00000240: ec05 473f df8c 843e 06d7 62bb 2e8a 24bf
00000250: 876c 6f3d 1347 f4bd fdee 343e d3c3 e0bd
00000260: 5160 533f acb1 49bd 6b74 67be efe6 81bf
00000270: 54d4 acbf 5d94 46bf 0e97 71be 7022 e23d
00000280: 8f6b a23c aeaa 7dbe 1b11 28bf 298c e2bf
00000290: ec57 7ebf 23a5 5fbd a82b 8bb8 6263 2f3e
000002a0: 76ff e13d a280 813d a22c b6bd e4b8 183f
000002b0: 81e9 c5be d400 09be b885 2c3e dece 443d
000002c0: ae10 473e 7e5d a63d c240 053e 0c71 cc3d
000002d0: 2074 67be 939a 0bbd 6f63 8b3e 5895 a7bd
000002e0: f9f1 d63d a1bf 4bbf 89c1 6cbf fc1e 95be
000002f0: 365c fe3d cf98 86bf def1 10be 3c67 15be
00000300: 8bfc 1f3e 0696 f4bf fb8c 93bf aeb7 81be
00000310: 804b 23bc 1d33 f9bf 94b2 6ac0 3cb1 0cc0
00000320: 5040 95be 4e81 563e c2e0 b9be d4cd fa3e
00000330: 4bba 51bf 09db 733b 3a3b 0cbf 142a 973d
00000340: bb4b 673f 7f24 183e 86ed 19c0 96c4 3fbe
00000350: 0dd7 463f 7832 dfbf 0ad2 79be a7ed 8cbf
00000360: 7d5a dc3b 38f3 433d fb40 903f f0de 83bf
00000370: 73e6 2dbf 0996 b9bf 05a0 2fc0 5082 4d3e
00000380: 3bfe 53c0 c894 f8bd 88b7 56c0 5025 10be
00000390: e038 ec3e b7b7 a4be 98be 333f 7fcc d0bc
000003a0: bd86 b03d cc20 5d3d 012e 1e3f 7ef7 80c0
000003b0: 4788 22c0 3ab6 acbf a414 03bf 8ef9 87c0
000003c0: 71d4 053e d4e6 0dbf faa1 82c0 3023 d3bc
000003d0: e93e debf dee3 c2bd 8413 b93e b1d5 a7bf
000003e0: 1872 26bf 8b07 6dbf 4ed4 c73d 1585 32c0
000003f0: 98f4 013f 2053 a8bf ee6d 1b3f 6dc7 fcbd
0.025061028 -0.019555388 0.02990675 -0.12324045 0.01499784 0.10472817 0.08779372 -0.07532664
-0.012640372 -0.10407075 0.021179363 -0.09079248 0.11474469 -0.061154895 0.0966813 -0.022055984
-0.10318526 0.10517531 -0.06970626 -0.04880998 0.017722638 -0.09738305 0.036547054 0.01047566
0.11082322 0.040202916 -0.046704095 -0.113217205 -0.07464564 -0.121144414 -0.116001874 0.02825088
0.018911615 0.10703786 0.06670333 -0.0073607774 0.067431204 0.09768867 -0.047467016 -0.043051366
-0.10486025 -0.10176669 0.0014173648 0.0027802289 0.04817383 0.058934588 -0.030333998 -0.12692791
-0.07404029 -0.11580138 -0.034328368 -0.00707756 -0.1123679 -0.04852593 -0.08418396 -0.07875638
0.030068282 -0.04683283 0.057457373 -0.032151148 -0.1404158 0.013102351 0.03758353 0.06400392
-0.008402396 0.1656056 0.57350653 -0.62081736 -0.031201571 -1.4047734 0.22441779 -0.29099518
-0.027161088 -0.0057709143 -2.9642816 0.12037823 -0.41261786 -0.097423784 0.083041616 0.086116225
0.21405707 -0.0054629263 -0.55079716 -2.1795907 0.15855612 -0.54491657 -1.7660345 0.19518143
-0.056276016 0.024013713 0.43544903 -0.32154024 -0.5072902 -0.23879096 -0.6707154 0.09619838
0.6270786 -0.2875685 -0.6516866 -0.48441818 0.19157238 -2.1722953 0.20326018 -0.052809462
0.055554256 -0.013438657 0.09967471 -0.17219618 -0.07899855 -0.009319341 0.29038373 0.20477931
-0.025970006 -0.30915862 0.261146 -0.0802623 0.08742999 0.096481726 -0.046360783 -0.18962102
0.06365257 -2.5511854 -0.13877195 -0.6722076 -0.18064561 0.46454543 -0.2704773 -1.1617159
0.07652618 0.0060243304 -0.40748304 -0.13708551 -0.0038065761 -0.5395872 -0.15002535 -0.027201487
-1.9945105 0.31391245 0.92972827 0.41057318 -0.39399266 -0.29520893 -0.0983432 0.0065692067
0.7774341 0.25888726 -0.0034613027 -0.64273345 0.05845311 -0.11927619 0.17669292 -0.109748505
0.8256884 -0.049241707 -0.22603004 -1.01486 -1.3502297 -0.77570134 -0.23592779 0.11041725
0.019826679 -0.2477214 -0.656511 -1.7699023 -0.9935291 -0.054600846 -6.636168e-05 0.17127755
0.110350534 0.06323363 -0.08895232 0.5965712 -0.38654712 -0.13379222 0.16847885 0.048048846
0.19439957 0.08123301 0.13012984 0.099824995 -0.22602892 -0.03408296 0.272243 -0.08182782
0.10495371 -0.7958928 -0.9248281 -0.29125202 0.124199316 -1.0515383 -0.14154765 -0.14590162
0.15623681 -1.9108284 -1.1527399 -0.2533545 -0.009966731 -1.9468724 -3.6671495 -2.1983175
-0.2915063 0.20947763 -0.3630429 0.4898516 -0.81924886 0.0037209413 -0.5477787 0.07381073
0.9034993 0.14857672 -2.4051223 -0.18727335 0.7767189 -1.7437277 -0.2439653 -1.1010026
0.006724654 0.047839373 1.126983 -1.030241 -0.6792976 -1.4498912 -2.7441418 0.20069242
-3.312392 -0.12137753 -3.3549519 -0.14076734 0.46137142 -0.32171413 0.702127 -0.025488136
0.08619449 0.053986356 0.61788946 -4.0302114 -2.5395677 -1.3493111 -0.5120337 -4.249213
0.13069321 -0.5543034 -4.0822725 -0.025773615 -1.7362949 -0.095161185 0.36147702 -1.3112088
-0.65017843 -0.92589635 0.09757291 -2.7893727 0.50763845 -1.3150368 0.60714614 -0.12342725

fc.2.bias f4 [64]
00000000: 0e7f 463c 222d 693e 297f f53e 3eed 873e
00000010: 8f30 0abe ecd8 b8be 70a7 efbc 9509 12bf
00000020: 9d16 5fbe 0fa1 d7bd 9617 f1bd 4317 ebbd
00000030: a35b 003f 5eb9 b43c 891d e23e 7cbf e5bd
00000040: 5980 bdbe 7179 d5bc 9ed6 3b3e 3f8e d83e
00000050: 929a c7bd 5d8f 683f e296 753e e4e7 47bf
00000060: 4ca2 6ebd 2c8c c3bd fa19 90bd 472a 333f
00000070: 76d2 ecbe fce3 143f e2a8 253d bfe3 37be
00000080: 057e 463f c8e8 fcbd 152b 213f 72a5 163f
00000090: 7de2 a23e 1dde 633f a0fc d6bd b27d 443f
000000a0: 81b2 3f3c f3d0 273f 201a 67be 1542 0fbf
000000b0: 9e01 423e 4c13 19be 8f11 cc3e df22 5fbe
000000c0: e3c0 d63e 7570 6e3e 517e 03be ac9d 0c3f
000000d0: 24ad 28be 9ad8 1d3e 21e3 073f fb94 29bf
000000e0: 8bbc 403e ddee 283f 1665 503f f748 a93d
000000f0: 4ba0 14bd d71b b93e f842 21bc 7119 213f
0.012115253 0.22771123 0.47948578 0.2654819 -0.13495086 -0.36102998 -0.029254645 -0.5704587
-0.2178597 -0.10528766 -0.11772077 -0.11479046 0.50139827 0.022061046 0.4416316 -0.11218163
-0.37011984 -0.026058884 0.18343589 0.42296025 -0.09746279 0.90843755 0.23983338 -0.7808821
-0.058260247 -0.0954822 -0.07036205 0.69986385 -0.4625432 0.58160377 0.040444262 -0.17957972
0.7753604 -0.12349087 0.6295636 0.588462 0.31813422 0.8901079 -0.10497403 0.76754296
0.0117002735 0.65553206 -0.2256856 -0.5596021 0.1894593 -0.14948767 0.39857146 -0.21790646
0.41944036 0.23285086 -0.12841155 0.5492809 -0.16472298 0.15414658 0.53080946 -0.6624295
0.18821923 0.65989476 0.81404245 0.0826587 -0.03628568 0.36154053 -0.009842627 0.62929446

fc.4.weight f4 [4, 64]
00000000: 9435 04bd 84aa 343e 9ced 2e3e 160c cb3f
00000010: f82c 953d e2c4 77be 6f5c 9e3d 88e1 b13e
00000020: 8ecc 8dbf 843d bd3d eabf 683d 77bb 48bc
00000030: 65ba 453f d4aa d1bd 3ec3 be3f fc38 883d
00000040: d315 82bf 1ba5 a0bc 0606 00bf 4d96 60bf
00000050: 8ddc 4e3f 7334 73bf bd24 b33d 13ec 70bf
00000060: 84c3 3ec0 2b93 f23d 4dfc c83d 4e02 733e
00000070: 074b 343e 4c28 393f 48a4 913c 489b a6be
00000080: ab7d 503f 4c15 fbbd 268a 5ebc 2a2a 0d3f
00000090: d32f d23e eb95 853e 6cfe 443e 1f55 0d40
000000a0: bf02 a5bf 9446 c23e 1d2e dcbe 08b4 cc3e
000000b0: 47d2 bcbf 23a8 89bb 2396 b8bf 57f6 a13f
000000c0: ac6c 4d3e 2321 473f 77cb c4be bdbd 903f
000000d0: 44ba bebd 11b2 9e3f 1bae 2a3f fbf0 97be
000000e0: ccb0 80bf 2685 5abe f7db 3a3f a584 5c3f
000000f0: 2b4d 823d a60b 97bf 7db3 46bd 9120 88bf
00000100: 242f bc3d 4dfe 613d 787c 27bd cc5d 683f
00000110: 189e f1bd bf1f a6be c347 1c3e 0a89 d6be
00000120: b284 89bf 80a7 4b3b 7dc4 3d3e 08a7 f6bd
00000130: 718f 0dbf d00f d23c 4ed9 f4bf 95a4 0c3d
00000140: 6753 68bd 5e1a da3d aea6 be3f 69a1 2bbe
00000150: 9c04 b6be 7a4e c23f b99a 2dbf c336 b7be
00000160: 9675 ecbf 9e43 163e 6068 f73c 3fee ad3d
00000170: e28a 243f 07ce 843e b41c 3f3d 939e 863e
00000180: 483f d63e 42a0 5fbc 94a1 583f 0fa1 6a3e
00000190: 897d 4f3d 2c32 a53e 5a1c e539 f28c fcbe
000001a0: d169 533e c07f 4c3f d2bb 58bf 4104 a9bd
000001b0: da78 c53e 6ad3 8a3e 8a19 a43f 3b01 8dbf
000001c0: f417 163f ab92 753f baa1 44be e3ef 6bbf
000001d0: 60c1 033c adc2 583f 4871 823f 9db6 fbbf
000001e0: 250b fc3e 6223 953f 8e87 1b40 3ef0 63bf
000001f0: 85a1 823f 4aaa 453f 6a23 0e3d 28db 4a3f
00000200: 50e1 c43c 43a5 223f 23fe 323f e38f 49c0
00000210: caa6 be3a 5c2c 063e 6d96 f9bc e0e9 b53f
00000220: 1f9b 383d 0662 b0bd 47a0 83bf e067 6c3c
00000230: 2091 98be ac7c ed3c 0c08 ff3d 52f7 3cbd
00000240: 5397 79bf 1b39 953d 9f96 b4be c4e1 8a3f
00000250: b132 a0bf 3a78 bd3f b9c3 cd3e b21d bd3e
00000260: f8bd d1be af5e 67bd d696 64bc e15a f83e
00000270: 74a3 6540 ff4f cdbe 6e83 fdbc 223d f53e
00000280: 54a2 203f e0c8 86bb d3d6 253f 9745 85bd
00000290: dc70 393f 5872 333f d7c7 8fbe 917b 993f
000002a0: 0698 923f 25fc b73e 4528 59be 987f 29bf
000002b0: 01a5 763e c966 783e 9c68 69bf 32d0 d63a
000002c0: 68d0 1dbf c619 5f3e a314 3bbe 0acd 0740
000002d0: faed de3d 515e 24be 62e9 023f 1b6e 263d
000002e0: d249 80bf e966 a83f 98ea 96bf 6440 96bc
000002f0: 5549 233e bf2b 9fbf a6e8 afbd 09d7 38c0
00000300: 1d81 b1bd e65c 0a3e cb55 bdbe 05a9 4e40
00000310: dc07 893d bd99 8a3e d709 9c3d 94c8 a2bf
00000320: 6e07 cd3d e39c 21bd c0ee 593f 61bf 873d
00000330: ff85 2bbe f6cf d9bd 2a25 673e c906 bfbd
00000340: 66b9 213f fcc6 85bd 1fe6 c6bd 50de 3cbf
00000350: 9360 0fbd ebd2 7d3e 8d4f 893e 7931 bdbe
00000360: 681a a23f 32d4 983d b345 9e3c 8e3e d73e
00000370: 2889 f3be a337 953f 0330 99bd 8bb6 183f
00000380: 22d8 37bf 2c92 d83d d9b2 dd3f 521e 9f3f
00000390: d493 923e ce74 e43e b57e c7be 49a4 5cbc
000003a0: 72e1 973e 4e60 7f3f c9fc a83e 8c5d 25bf
000003b0: 9bba 8ebf 0668 2abd fd72 e43f 8f1d 1ac0
000003c0: 7730 ec3e 4041 27be 108d 8c3f 47b4 f33e
000003d0: b514 7abc f639 4cbe 83e8 133f c57d fcbe
000003e0: 17fe 73bf 1570 c5bb 6142 02bf 7b9d 903d
000003f0: f8db 703d e6ad 31bf 59a1 593d f55b 0ec0
-0.03227766 0.17643172 0.17082828 1.5863063 0.07283968 -0.24196199 0.07732474 0.3474238
-1.107805 0.09240249 0.05682365 -0.012251726 0.7723754 -0.10237661 1.4903333 0.06651494
-1.016291 -0.019609978 -0.5000919 -0.8772934 0.80805284 -0.95001906 0.08747242 -0.9411022
-2.9806833 0.11844476 0.098137476 0.23731348 0.17606746 0.72327113 0.01777853 -0.32540345
0.81441754 -0.122599214 -0.013582742 0.5514246 0.41052112 0.2609094 0.19237679 2.2083204
-1.2891463 0.37944472 -0.43003932 0.39981103 -1.4751672 -0.0042009517 -1.4420818 1.2653302
0.20060986 0.7778494 -0.3843648 1.1307904 -0.09312871 1.2398092 0.66671914 -0.2967604
-1.0053954 -0.21339855 0.7299189 0.861399 0.06362375 -1.180043 -0.048511017 -1.0634938
0.09188679 0.05517416 -0.040890187 0.9076812 -0.11797732 -0.32446095 0.1526175 -0.41901428
-1.074362 0.003107518 0.18531986 -0.120435774 -0.55297 0.025642306 -1.9128816 0.034336645
-0.056720164 0.106495604 1.4894617 -0.16760792 -0.35550392 1.5180199 -0.67814213 -0.35783967
-1.8473384 0.14674231 0.030201137 0.084927075 0.6427442 0.25938436 0.046658233 0.26292858
0.41845155 -0.013649048 0.8462155 0.22913001 0.05065683 0.3226484 0.00043699407 -0.49326283
0.20645835 0.7988243 -0.8466159 -0.082527645 0.38568765 0.2711442 1.2820294 -1.1016
0.586303 0.9592692 -0.19202319 -0.92162913 0.00804171 0.8467205 1.0190821 -1.9665104
0.49227253 1.1651423 2.4301486 -0.89038455 1.0205542 0.77212965 0.034701742 0.79240656
0.024033219 0.6353342 0.6991903 -3.1494071 0.0014545557 0.1310286 -0.030467236 1.4211998
0.04506981 -0.086124465 -1.0283288 0.014429063 -0.29798222 0.028990112 0.12452707 -0.0461343
-0.9749653 0.07286283 -0.35271165 1.0850148 -1.251547 1.4802315 0.40188387 0.36936718
-0.40965247 -0.05648678 -0.013951978 0.48506835 3.5881014 -0.40100095 -0.03094646 0.47898203
0.62747693 -0.0041133016 0.6478092 -0.06507414 0.72437835 0.7009635 -0.28082153 1.1990834
1.1452644 0.3593456 -0.21206768 -0.6621032 0.24086381 0.2425796 -0.91175246 0.0016388951
-0.6164613 0.21787176 -0.18269591 2.1218896 0.10885234 -0.16051604 0.51137364 0.04063235
-1.0022528 1.3156406 -1.1790342 -0.01834125 0.15945943 -1.2435225 -0.08589296 -2.8881247
-0.086672045 0.13512 -0.36979517 3.2290661 0.06690952 0.27070418 0.07619064 -1.2717462
0.10011183 -0.03945626 0.8512993 0.066282995 -0.16750334 -0.106353685 0.2257277 -0.09327466
0.6317352 -0.06532094 -0.09711861 -0.7377672 -0.03500421 0.2478749 0.26818505 -0.36951807
1.2664309 0.07462348 0.019320345 0.42039913 -0.4756558 1.1657604 -0.07479861 0.5965354
-0.7181417 0.10574755 1.7320205 1.2431128 0.2862841 0.44620365 -0.38963857 -0.013466903
0.2966419 0.99756324 0.3300536 -0.64595866 -1.1150697 -0.04160311 1.7847592 -2.408054
0.46130726 -0.16333485 1.0980549 0.47598478 -0.015263726 -0.19943985 0.5777666 -0.49314705
-0.95309585 -0.006025324 -0.50882536 0.07061287 0.05880353 -0.6940597 0.05313239 -2.2243626

fc.4.bias f4 [4]
00000000: 6c06 da3e 206a d13e 1abd 233f 528d 813f
0.42583025 0.4090128 0.6396042 1.0121253

exp_avg f4 [64, 2]
00000000: 2a96 0d40 65d7 7440 985c e3bd 9e7f 113e
00000010: f530 52be c9d1 d13c 23f9 9e3e 0400 0000
00000020: 0000 0000 0000 0000 802a 003e d5f9 9abe
00000030: 6c33 6d3c 2f9a d53c 9ce3 6d3f 376b 0440
00000040: 587b bebc 4657 acbb fbab 1640 b353 9740
00000050: 752f 24be 34ed 463f 24bc 9d3f 62ee 0040
00000060: 4a38 cdbd 6c5e f1bd 375b d9be 8d95 24bd
00000070: 0400 0000 0400 0000 0000 0000 0000 0000
00000080: 4790 103f cb1f 893e f98b ca3f 4e12 fd3e
00000090: d4d9 febe 1757 8c3e ea78 43bf 3ae4 63bf
000000a0: 5e79 163f 822e 383e 48ae b1be cf0a 1d3f
000000b0: 84e4 74bc 1610 abbe 3fa1 e9bc 0400 0000
000000c0: f7f0 87bb 0400 0000 0000 0000 0000 0000
000000d0: cfde 3940 672d a33d 9eb2 7a3d d6e3 d33e
000000e0: 9323 babf 151e 06bf a48b 8cbe 4bcb 28bf
000000f0: f25d 6ebf 259a 93bf 0400 0000 0400 0000
00000100: f4e7 fabe 2e63 c73e ffbe f5be 9f3f 45bd
00000110: 5603 da3d 069f 383f 6d58 45c0 c5e1 5fbf
00000120: 512e b4bd a6c9 40bf f9b4 7d3e fc82 b13f
00000130: a463 1640 0af0 3640 98b6 dc3f 6ef6 8d40
00000140: 0400 0000 0400 0000 0000 0000 0000 0000
00000150: 0000 02c0 1587 1abf 9330 093f a5d1 d23d
00000160: 687a ccbd 053d 64bf 1d04 f240 ff99 2b40
00000170: ea5d 52be 313b 52bd 6069 9a3f 1e1d f73f
00000180: 6bdb 073f 3572 bc3f 0400 0000 0400 0000
00000190: 2c6c 883f e490 ba3f 0000 0000 0000 0000
000001a0: 8527 ec3e 1cc2 17bf 0000 0000 0400 0000
000001b0: 128b acbe f3b5 1bbe fd69 05c0 95ab 00c0
000001c0: 6dc0 633f a776 b03f 0400 0000 0400 0000
000001d0: 0400 0000 0400 0000 32c9 90bd 7b60 93be
000001e0: 670c 5fbe 0c3a 30be 88fd df3d 0400 0000
000001f0: 578f a5bf 409c 08bf 8ec1 5f3f 3293 ce3f
2.2122903 3.8256466 -0.11101645 0.14208838 -0.20526488 0.025612729 0.3104945 6e-45
0.0 0.0 0.12516212 -0.30268732 0.014477592 0.026074497 0.9292543 2.0690439
-0.023252174 -0.0052594272 2.3542469 4.728967 -0.16033728 0.77705693 1.2323041 2.0145497
-0.10020502 -0.11785588 -0.42452404 -0.040181685 6e-45 6e-45 0.0 0.0
0.5647015 0.2678207 1.5823966 0.49428028 -0.49775565 0.27410194 -0.76356375 -0.8902012
0.5877894 0.17986491 -0.3470328 0.6134462 -0.0149470605 -0.3341071 -0.028519271 6e-45
-0.0041485983 6e-45 0.0 0.0 2.9042242 0.07967644 0.0612055 0.41384763
-1.4542106 -0.5238965 -0.27450287 -0.659352 -0.931121 -1.1531416 6e-45 6e-45
-0.4900509 0.38942856 -0.4799728 -0.048156377 0.106451675 0.7211765 -3.083522 -0.8745387
-0.08797897 -0.7530769 0.24776067 1.3868098 2.3498316 2.8584008 1.7243223 4.4363317
6e-45 6e-45 0.0 0.0 -2.03125 -0.6036237 0.53589743 0.10293893
-0.09984285 -0.8915561 7.563002 2.6812742 -0.20543638 -0.05132598 1.2063408 1.9305761
0.5306918 1.4722353 6e-45 6e-45 1.0658011 1.4575467 0.0 0.0
0.461239 -0.5928056 0.0 6e-45 -0.33699852 -0.15206127 -2.084594 -2.0104725
0.88965493 1.378621 6e-45 6e-45 6e-45 6e-45 -0.07069625 -0.28784546
-0.21782075 -0.17209643 0.10937029 6e-45 -1.2934369 -0.5336342 0.87404716 1.613867

exp_avg_sq f4 [64, 2]
00000000: 779e f543 b7e2 d843 ff0c 8141 0233 e941
00000010: b74d 5e44 e167 2141 647f 8e40 3b1b 6436
00000020: 0000 0000 0000 0000 3d4c c641 d7ba 5242
00000030: bbfe 8b42 4c8e de43 4c9e ca42 0e58 1543
00000040: 5c7e b543 7b05 4540 002d f343 e21c 0244
00000050: 43eb 7c41 ddc7 3143 e670 b642 962f f042
00000060: 2e6f 3843 0330 2d43 2ff4 dd41 dd2a 893e
00000070: f401 0000 f401 0000 0000 0000 0000 0000
00000080: cce1 7a42 18bf b541 f128 0342 3c3f 6941
00000090: e2c2 7e43 e731 a742 c72b 8c42 1c1a de42
000000a0: 1c6e f041 47f9 2b41 e2c0 3843 30f1 0144
000000b0: 6138 543b 83b2 a041 a0c3 7642 4579 a034
000000c0: bafc 0e40 6a55 692c 0000 0000 0000 0000
000000d0: b89e a943 db13 a344 b538 3f41 9b8e 4c43
000000e0: aa11 8e42 88fd 4242 c944 e341 6e27 7d41
000000f0: 2927 1242 a755 3f42 f401 0000 f401 0000
00000100: f6d7 8c41 0507 5241 b4d9 cd41 c34e 8d3e
00000110: cd97 833f acd7 3e41 1578 9b42 4077 b541
00000120: c88e 5d40 bcf0 0841 0053 be41 cabc fb42
00000130: 8042 0943 87c7 2a43 c9fd 0943 e23f e143
00000140: f401 0000 f401 0000 0000 0000 0000 0000
00000150: 8c29 d841 dcf0 283f da66 1743 f352 803f
00000160: 163e 2e42 ed2b 9542 2ba1 dc42 0b2c a142
00000170: 65f6 8d41 695a 963e be65 e742 ce5d 0e43
00000180: 2dae c041 a88e 1942 9f5a 8829 4b4a 7129
00000190: 3f2c c441 1aac 0f42 0000 0000 0000 0000
000001a0: a8eb 4842 e17f 4642 0000 0000 f401 0000
000001b0: 3a07 e940 da46 ec3f bca7 6842 a49c 0842
000001c0: 8773 3042 8e9f 2242 8a5b 8f11 8a34 8e11
000001d0: 4e58 b33a 56b1 0336 9981 213d 5eb6 013f
000001e0: d553 9141 b6db 1741 8534 4d42 cb44 6637
000001f0: 387c c441 6d7f fe40 509f d743 d65a 0944
491.238 433.7712 16.131346 29.149906 889.2143 10.087861 4.4530506 3.3990498e-06
0.0 0.0 24.787226 52.68246 69.99752 445.1117 101.30917 149.34396
362.98718 3.0784595 486.35156 520.4513 15.807437 177.78072 91.220505 120.09294
184.4343 173.18755 27.74423 0.26790515 7e-43 7e-43 0.0 0.0
62.720505 22.718307 32.78998 14.577938 254.76126 83.597466 70.0855 111.050995
30.053764 10.748359 184.75345 519.76855 0.0032382237 20.087164 61.69104 2.9890558e-07
2.2341752 3.3158706e-12 0.0 0.0 339.24 1304.6205 11.9513445 204.55705
71.0345 48.74759 28.408587 15.822126 36.538242 47.833645 7e-43 7e-43
17.60545 13.126714 25.7313 0.27599153 1.0280701 11.927654 77.734535 22.683228
3.4618397 8.558773 23.790527 125.86873 137.25977 170.7794 137.99135 450.49908
7e-43 7e-43 0.0 0.0 27.020287 0.6599252 151.40176 1.0025314
43.56063 74.58579 110.31478 80.58602 17.74531 0.29365852 115.698715 142.36642
24.085047 38.389313 6.0553335e-14 5.357719e-14 24.521605 35.918068 0.0 0.0
50.230133 49.62488 0.0 7e-43 7.282132 1.8459122 58.163803 34.15297
44.11282 40.655815 2.2617837e-28 2.243603e-28 0.0013682933 1.9623744e-06 0.039430235 0.50668895
18.165934 9.49114 51.30129 1.3725085e-05 24.560654 7.953055 431.24463 549.4193

exp_avg f4 [64]
00000000: 7f9d eb3e e716 da3c caca 9ebb 2ff7 0e3d
00000010: 0000 0000 2fa1 19bd 6ac5 263b c313 813e
00000020: 7701 ab3c 666f 0d3f 9ae5 933d 7af8 c93e
00000030: 231a 173d c06f 44bd 0400 0000 0000 0000
00000040: 9b82 be3d b0a1 563e 5c26 62bd 0e7f edbd
00000050: a471 963d f8b7 2e3d de44 3abd 17da 48bd
00000060: 4d4a cfbb 0000 0000 32c1 d53e 5ca1 bdbc
00000070: b5f5 24be 9310 ce3b 8983 2ebe 0400 0000
00000080: af8e 1cbd 3e54 41bd 66ec 833d eb35 f0be
00000090: 8628 07be 120f 3f3e ab8c f83e 4d96 f33e
000000a0: 0400 0000 0000 0000 0a5f 4bbe 1245 6d3c
000000b0: 93e1 bebc a0a5 383f 5de5 7cbc c58e a43e
000000c0: 04c4 683e 0400 0000 d2d9 1e3e 0000 0000
000000d0: aa09 0ebb 0400 0000 386d 78bc c2fc c3be
000000e0: c1a4 873e 0400 0000 0400 0000 0f43 06bd
000000f0: 7fbf ddbc 46fc 20bd 0754 05be 9ab9 eb3e
0.46018597 0.026622249 -0.0048459517 0.0349037 0.0 -0.037507232 0.0025447258 0.2521039
0.020874722 0.55248106 0.072215274 0.39447385 0.03689016 -0.047958136 6e-45 0.0
0.09302255 0.20960116 -0.055212364 -0.115964994 0.07345894 0.042655915 -0.045475833 -0.04903611
-0.006325996 0.0 0.4174896 -0.023148231 -0.16109355 0.006288597 -0.17042364 6e-45
-0.03822201 -0.04719948 0.06441574 -0.46916136 -0.13199052 0.18658093 0.4854482 0.47575608
6e-45 0.0 -0.19860473 0.0144818 -0.023300922 0.72127724 -0.015435544 0.32140175
0.22731024 6e-45 0.1551278 0.0 -0.002167324 6e-45 -0.0151627585 -0.38278776
0.26492885 6e-45 6e-45 -0.032778796 -0.027068852 -0.039303087 -0.13020335 0.4604004

exp_avg_sq f4 [64]
00000000: 0868 2441 13d9 403f 00e4 3441 9754 6b3d
00000010: 0000 0000 745f a73f a6cc 0e41 9f52 8540
00000020: e635 c540 dc1c 3441 f38d 8740 c275 c840
00000030: d284 5440 a8e6 b93e f401 0000 0000 0000
00000040: 5842 9f40 b2ef 603f d6b1 b440 c228 2240
00000050: fe8c 3f3f 7c12 0d41 d61b 9f3f f5f0 de3f
00000060: c7e2 683f 0000 0000 ab49 d741 3b19 6740
00000070: 3e37 653f ea52 d83e c59f 3e3f f401 0000
00000080: 4fbd 2940 f046 fa3e 071f 853f 2f72 3240
00000090: 8d41 7b3f 82ae 9540 7e2b e940 f7ef d440
000000a0: f401 0000 0000 0000 81b4 9e3f 3572 cb41
000000b0: ab02 6540 f5d9 3540 c6dd c13e 1427 f140
000000c0: 8fbc 3840 32fa 6a26 dc84 8f3f 0000 0000
000000d0: c1b8 b240 f401 0000 3c18 d63d 2051 f13f
000000e0: c16a 0140 1345 8c0e 1a40 9337 21be f53b
000000f0: 61aa 893f 15ad bb3f 39fd a63e 963b 3441
10.275398 0.7533123 11.305664 0.057453718 0.0 1.3076005 8.924963 4.1663356
6.1628294 11.257046 4.236078 6.2643747 3.3206067 0.3630879 7e-43 0.0
4.9768486 0.87865746 5.6467085 2.5337377 0.7482451 8.817013 1.243037 1.7417284
0.90971035 0.0 26.91097 3.610915 0.8953742 0.42250758 0.7446254 7e-43
2.6521795 0.48882246 1.0400094 2.7882192 0.981469 4.677552 7.286559 6.6542926
7e-43 0.0 1.2398835 25.430765 3.5782878 2.841428 0.37864512 7.5360203
2.8865087 8.1524137e-16 1.121242 0.0 5.585053 7e-43 0.10453841 1.8852882
2.0221407 3.457918e-30 1.7553615e-05 0.007499472 1.075512 1.4662195 0.3261507 11.264547
