CartPole/CartPolePolicy.pth (torch, 5704 bytes, 4 tensors)

fc1.weight f4 [128, 4]
00000000: 2fc8 88be 47c7 31bf 89c3 cc3e 8945 e23e
00000010: f16c cdbe 3d05 e43e e58d 873f 7793 47bc
00000020: abd5 d63e a7c6 313e 1978 d5bd 286c 4fbf
00000030: 4e2a 64be cc4c 1d3f 23b6 153e a5ab 1b3f
00000040: 77ea fe3d 3be4 d13e c6b4 513d 2a71 92be
00000050: 5f98 8f3d 77f1 0f3e 3af8 babe 22e4 313d
00000060: 5cff 14bc 0b8c 4d3e bb88 5dbf ca8a 223d
00000070: f5e2 a5be 5ab3 55bd 9efb 6bbf e41f ce3d
00000080: be6f 43be 4410 05bf 701c b13e e19a 083f
00000090: 7e14 c13e 506f 2fbf 88da 93be 96cb 37bf
000000a0: a9f2 d6be d2bb 8f3d 9a7b 75bf eef9 0dbf
000000b0: d7f5 21bf 58bf 49bc c76d a83c 0de5 09bf
000000c0: 527e 3bbd 8c2c 92bd c2f0 49bf d388 69bf
000000d0: a453 aebe 1257 b03d 9694 c33d a6b1 4c3f
000000e0: b4e1 733d 5315 f63d e010 0ebf 9dc8 e63e
000000f0: c877 b43d 51c9 6c3e 145a e73e e52a 303e
00000100: 5f4a 86bd 4486 2dbe 1f4d 023f 2bdd 82be
00000110: acac e0be 731e c4be c0f2 3d3f 8c46 c83e
00000120: b693 183c 75e6 0dbf e8d1 913e 0960 573e
00000130: 4164 bebe be0a 773e 05af e73d ed74 32be
00000140: a3a6 e43e 8655 033d f1ff 5cbd 775e 263f
00000150: fc7d 38bf ed55 5e3e 414f bb3e 548e 843f
00000160: 93f5 1d3e 4759 653f 15c3 c43f 5b09 023f
00000170: 50d7 cf3e 2c22 b1bd 71fd 53bf 1d74 01bf
00000180: a16f 8a3e b318 01be 3b77 80bd b668 203c
00000190: df89 cabd af3e 87bb de09 153f e8e6 ddbd
000001a0: 44f4 b13e 2ef7 92bd cfcb 53bd 6905 253e
000001b0: 2082 9abd a25b 0cbe 1e9f a9bd 5cb4 bc3d
000001c0: f56d a93e de18 13bd d50f 1ebf 8fdf 743d
000001d0: 5057 19bd 39bc 14be cecc 7e3d 1074 b13c
000001e0: ae2e 913e 21cd 633e e433 cd3e 6aa4 febe
000001f0: 20b2 293e 23b2 71be 3ce7 423e 7a5e b83e
00000200: 8f93 0cbf 7d37 943d 826e 6bbf 23c2 2dbf
00000210: 5076 12bd 5c47 1b3e 1ed6 0d3f 3277 453f
00000220: c757 f03e 8ee8 8f3e 17e7 833f a4f4 c93e
00000230: 1e71 f23d 9776 23be e27e 123e 7332 eebc
00000240: f63d 8e3d e98b 6ebb 3aec 173f d067 183e
00000250: 6bd4 9ebe 867e c83e 16b9 9b3e faf8 283e
00000260: bbbd 573e 0e67 17be 0ac1 08bf 55fe 17bf
00000270: 11b1 a7bc 6ab8 7e3e ab99 9ebd f411 49be
00000280: 70d3 5e3e 048e 84be f4cb 183b 0af3 dcbe
00000290: 3167 c93d 4057 a03d d671 26bf 4494 bdbe
000002a0: ea93 cebb b42a 24bf c261 9dbf 789b 03bd
000002b0: 6283 1bbe 11bd 5c3e c71b 093f 6d4f 213f
000002c0: b8f3 efbe b129 a4be 6099 a2be 2baa cbbe
000002d0: dcb9 81be db03 a5bb 6fcd f03e 8de5 073f
000002e0: 9839 a03e 7c53 6abe fdc5 80bf 1f22 83bf
000002f0: b218 1bbf 5200 f3be 1e15 823e be0d d73d
00000300: b23d d73c 18ad d83d 538a 48bf 5c3c a7be
00000310: b33c 243d 4af2 11be 8085 d63e ca79 a43e
00000320: 5369 2e3e a245 bf3e 3c43 adbe f396 cabd
00000330: b11b 013e ab1e 053e 64b6 ddbd 4a41 9f3e
00000340: f2ea d0bc 05a7 06bd 3f9d c3be 965c cbbe
00000350: 9969 13be 8218 3f3c ae5d 95be cf65 ec3c
00000360: 96b7 683e 53a8 3d3d fa43 8bbe d7cc 1cbf
00000370: 4cad a6be e655 843e fe93 adbe 741d 98be
00000380: b6b9 32bf a051 18bf 6523 bebf a305 49bf
00000390: a933 9bbe 4b92 513e b260 3d3f d882 6d3f
000003a0: f0bd 033d ec9c 13bf cac2 2f3d 1e76 3abe
000003b0: fd82 1b3e 444b b1be fcfd c0be f80a c6bc
000003c0: adfe 403f 3f65 3b3f e020 b93f 8aa3 d33e
000003d0: 373f 823d d82f bd3e b200 69be c47d 69bc
000003e0: e4ae 40be 4c63 b93e de46 943f 1e29 e53e
000003f0: aece 113f 2422 3e3e 64ae 53be 884c 43bf
-0.26715228 -0.694447 0.3999293 0.44193676 -0.40122178 0.44535246 1.0590178 -0.012181154
0.4195989 0.17360936 -0.104232974 -0.8102441 -0.22281763 0.6144531 0.14620261 0.60808784
0.12447064 0.4099444 0.05119779 -0.28601962 0.07011484 0.14056955 -0.36517507 0.043430455
-0.009094086 0.20072953 -0.8653676 0.03968314 -0.32399717 -0.052172996 -0.9218081 0.100646764
-0.19085595 -0.51977944 0.3459201 0.53361326 0.37710947 -0.68529224 -0.28877664 -0.7179502
-0.4198201 0.07018246 -0.95891726 -0.5545949 -0.63265747 -0.012313686 0.020560158 -0.5386513
-0.045774765 -0.07137403 -0.7888299 -0.912244 -0.34048188 0.08610357 0.09549825 0.7995857
0.05954142 0.12015786 -0.554945 0.4507493 0.08811909 0.23123671 0.45185912 0.17203863
-0.06557154 -0.1694575 0.5089893 -0.25559363 -0.43881738 -0.3830448 0.7419853 0.39116323
0.009312561 -0.55429775 0.28480458 0.21032728 -0.37185863 0.24125192 0.11312679 -0.17427416
0.44658384 0.032063983 -0.053955022 0.6498789 -0.72067237 0.21712466 0.36583903 1.0355935
0.1542571 0.8958935 1.5372034 0.50795525 0.40593958 -0.08649096 -0.82808596 -0.505678
0.2703829 -0.12607078 -0.062727414 0.00979059 -0.09889578 -0.0041273455 0.5821818 -0.108350575
0.34756672 -0.07176052 -0.05170804 0.16115345 -0.075443506 -0.1370683 -0.08282302 0.09214088
0.33091703 -0.035912387 -0.6174291 0.059783515 -0.037436783 -0.14524926 0.062207036 0.021661788
0.28355926 0.22246219 0.40078652 -0.49734813 0.16571856 -0.2360311 0.19033521 0.3600958
-0.54912657 0.07237146 -0.91965497 -0.67874354 -0.035757363 0.1516394 0.5540484 0.77135
0.4694197 0.28107113 1.0304898 0.39444458 0.11837982 -0.15963207 0.14306214 -0.02907679
0.06945412 -0.003639931 0.5934483 0.14883351 -0.31021437 0.3915903 0.30414647 0.16501227
0.2106847 -0.14785406 -0.53419554 -0.59372455 -0.020470174 0.24875036 -0.077441536 -0.19635755
0.21760345 -0.258896 0.0023314925 -0.43154174 0.09834135 0.078291416 -0.6501745 -0.3702718
-0.006304254 -0.6412766 -1.2295458 -0.03213069 -0.15186837 0.21556498 0.5355801 0.6301182
-0.4686563 -0.32063058 -0.3175764 -0.39778265 -0.25337112 -0.00503586 0.47031733 0.5308464
0.3129394 -0.2288341 -1.0060421 -1.0244788 -0.6058456 -0.47461182 0.25406736 0.10500668
0.026274536 0.1057989 -0.78336066 -0.32663238 0.04009695 -0.14252582 0.41898727 0.32124168
0.17032366 0.37357813 -0.33840358 -0.098920725 0.1260822 0.1299998 -0.10825804 0.311045
-0.025502656 -0.032874126 -0.38205907 -0.39719075 -0.14395751 0.011663558 -0.29173034 0.02885714
0.22726282 0.046303105 -0.272003 -0.6125006 -0.3255409 0.25846785 -0.33901972 -0.2970997
-0.6981462 -0.5949955 -1.4854552 -0.78524226 -0.3031285 0.20465963 0.7397567 0.92777777
0.03216356 -0.5766132 0.042910375 -0.1820912 0.15186687 -0.34627736 -0.37693775 -0.024175152
0.75388604 0.73201364 1.4463158 0.41335708 0.063597135 0.36950564 -0.22754171 -0.014251176
-0.18816715 0.3620857 1.1584127 0.44757932 0.56955993 0.18567711 -0.20671993 -0.7628865

fc1.bias f4 [128]
00000000: e32d 163e c606 b2be b667 1abd 6afb 22bd
00000010: 70b7 633e 7c4f 0bbe 941f 243e fb7e 413d
00000020: 5f02 01bf 3c37 6a3c 3f56 233e 47fa cbbe
00000030: eff5 ed3e 5233 9b3d 374c 2abf fa30 10be
00000040: aebd eabe 83e9 e5be 907c 9fbe 17a4 cabe
00000050: e71d c8be 6042 e03e 11fb 213f d6b7 61bc
00000060: 76c2 9cbd 1784 a1be e161 9ebe efb4 8cbe
00000070: 501b a0be 6230 dabe fefd dfbd b880 1bbe
00000080: 497b 163e c705 e13d 92fb aa3e 492b edbe
00000090: 9543 d4be 45fd 87be 471e 8b3e 7419 d4be
000000a0: fe51 ebbe 1a06 073e 38a0 b53e 5670 103e
000000b0: 5758 343e 440b 983e 495a 133f d45f 1e3e
000000c0: b9d0 803e 5872 d5bd 7b54 7c3f 1ece dabe
000000d0: 3eaf a33e 6912 b2be c596 013e 63c6 14bf
000000e0: f6dc 253e 1011 b23e 53fa 793e caf0 e43e
000000f0: 0475 333f b2f3 b0be 5a18 7cbb b52a b13e
00000100: 1258 1f3e 8b09 023f 87f5 0c3e 5956 10bf
00000110: 430c a3bd a774 0bbf 4f1c a7be 3e3c a13d
00000120: 3f02 e8be 7646 0bbd 0fb2 19bf 9a1b 503e
00000130: f9fc 1fbe 6bc1 fcbe cb4c 8e3e fb06 923e
00000140: 28d4 093f 036a eebd aba1 09bf 14b5 e3bc
00000150: 78f7 393e bdfd 753e cb64 c5be 7959 03be
00000160: 7f09 763e ae2f 24bf 94cc ad3e 54ec 8abb
00000170: bf6b db3e 6438 d1be 3260 823e be5f 203e
00000180: 2b20 1fbf 7c5d b43e 50ee 97bd 8ce5 943e
00000190: e88c fc3d f65b 6abe a180 8c3d 4bd3 cb3e
000001a0: 7eab 353e 452b b1be 1270 b63e 7311 953d
000001b0: e06b 313f 0dc7 c93d 4b4c c8be 77a6 9c3e
000001c0: c7c7 8d3e 0a01 203e 1fe2 7b3e cc10 da3c
000001d0: 0a49 163f c484 9ebd f795 8a3e d5ab f93d
000001e0: 8608 07bf bdb0 2b3d ae99 a63e 4d5e ca3e
000001f0: b30a 8cbe ae39 033f e0cb fd3d a3cc 923e
0.14665942 -0.34770793 -0.037696563 -0.03979055 0.22237945 -0.1360454 0.16027671 0.04724024
-0.50394243 0.014295395 0.15950869 -0.39839384 0.46476695 0.07578148 -0.66522545 -0.14081183
-0.4584784 -0.44904718 -0.3114972 -0.39578316 -0.39085314 0.4380064 0.6327372 -0.01377674
-0.07654278 -0.3154609 -0.3093405 -0.2748179 -0.31270838 -0.42615038 -0.10937117 -0.15185821
0.14695467 0.1098743 0.33395058 -0.46322086 -0.4145781 -0.26560417 0.27171537 -0.4142567
-0.45960993 0.13185921 0.354738 0.14105353 0.17611824 0.29696095 0.5755964 0.15466243
0.25159243 -0.104222 0.98566407 -0.4273538 0.31969637 -0.3477967 0.1265517 -0.58115214
0.16197571 0.34778643 0.24411897 0.44714957 0.70100427 -0.34560925 -0.0038466663 0.34602895
0.1556094 0.5079581 0.13765536 -0.56381756 -0.07961323 -0.5447487 -0.32638785 0.078728184
-0.45314214 -0.034002744 -0.6003732 0.20323029 -0.15623845 -0.49366316 0.27792963 0.2852095
0.5383935 -0.11641314 -0.5376231 -0.027796306 0.18160808 0.24022575 -0.3855346 -0.128271
0.2402706 -0.64135253 0.33945143 -0.0042395983 0.4285564 -0.40863335 0.25464016 0.15661523
-0.6215846 0.35227573 -0.074185014 0.2908138 0.12331563 -0.22886643 0.068604715 0.3980964
0.177412 -0.34603325 0.35632378 0.07278719 0.6930523 0.09852419 -0.39120707 0.30595753
0.2769148 0.15625396 0.24597977 0.026619337 0.587052 -0.07740167 0.2706754 0.121909775
-0.5274738 0.041916598 0.32539123 0.3952507 -0.27351913 0.5125989 0.12392402 0.2867175

fc2.weight f4 [2, 128]
00000000: 0d00 87bd 37ca 58be 1a6f 713e 9629 4fbe
00000010: 1b00 11be 95fa 2bbd a52c 263d 0250 fe3d
00000020: c6e3 53be f74b 433e 8523 5f3e 98ba 12be
00000030: b591 ac3e c7ee 53be 027a 0c3e 82fe 31bd
00000040: 1a79 9b3d 50dd 22be 4462 01be 1dc3 79bc
00000050: 56dd 623e 922d 2ebf c09e 14bf a1a3 12bd
00000060: fa07 edbd 72dc 47bb 3395 243d d8fa fcbc
00000070: 3ab7 aebd 2236 d6bd 1aee 983c 636c d43c
00000080: 7856 b53e 7f28 d2bd 575e 5dbe afd0 0e3d
00000090: 96fc 003e ad48 ffbd 7044 853e f9a1 fdbc
000000a0: 5c5d 76bd f1af c33d aeb6 2f3e d872 3cbe
000000b0: 6c3c d53d cf23 ce3d 9269 043f f625 233e
000000c0: 4bb7 bc3c 008e 21bd 9324 ce3e e55f 803d
000000d0: cc45 013e 154c d93c 7094 853e 9a94 c53c
000000e0: 145f 023f 95db d6be cee0 eb3d 0aab be3d
000000f0: 5f30 00bf faac 85bd 5e9e 15be b81e a53e
00000100: b38f 8fbe 5039 9cbe 440f 6e3e 0f6c f73c
00000110: e9bf 9a3c 07e3 c7bc 09a8 74bd 7228 013e
00000120: 7a04 fcbc fa8f bdbd cd08 9a3b 2852 28bd
00000130: b1cb 35bd d42e 5bbb 17dd 1a3f 726f 363e
00000140: db60 21bf 70d3 59be e0df 0f3c 7af1 36bd
00000150: 345b edbe b568 86be 17f6 9abd c8e3 bf3c
00000160: a0e0 f93d 5238 2a3d f072 d2bd 8d9a 22be
00000170: d68d ddbe 9f53 1bbe f04e f9bd 5064 8a3e
00000180: eb53 30bd 4706 d6bd 4a2d 84bd babe 343e
00000190: c192 54be e59a e13c b11a 09be 0978 443e
000001a0: d218 2fbe 8ddc 543e 7e74 bbbe cb22 063e
000001b0: b940 e53e 850f 27be 7695 1fbe 6f0a 2a3e
000001c0: f70b 95be e2e7 c4be 1ff2 7bbe e540 b33e
000001d0: 8176 f2be c58e 3bbe 66a7 3a3f 8f31 2d3e
000001e0: 8b68 9f3d bff5 d23d 26d8 83be 8152 873d
000001f0: 622d c6bc 732e adbe 77b3 8a3c 0886 91be
00000200: 5ffa 423e f275 533e e1cd 50be 5374 a03d
00000210: b1da 763d 6264 02bd 56f6 923c 9f40 5abe
00000220: bfcb 823e 5bb7 1dbe 48d3 4ebe 1a89 563e
00000230: 21bf dfbe 9ea0 1d3e dbb4 c1bd 8069 0e3d
00000240: 7544 a7bd e0f1 bb3d 501c 173e 0e5a 413d
00000250: 7305 68be 31f5 463f f5f5 dc3e c897 b3bd
00000260: 8774 863d 07ae 563c 8b6d 9bbd 652b 96bd
00000270: 7302 613b 4dba 0e3d cffe 25bc 7a81 a2bc
00000280: d324 8cbe e4fa be3d 0cbc 6b3e 817b 94bd
00000290: 8780 e4bd 6324 5e3d c387 b9be f97b 8d3d
000002a0: 640c 353e c0b1 9fbd 70fc 30be d9f8 c33d
000002b0: dc8f c6bd c086 15be c4d4 e8be 4b62 10be
000002c0: cecb a2bd 970a 7dbd 232c d5be 0422 21bd
000002d0: 887b 42bd bf0a 013d 0442 3fbe cbc0 5d3d
000002e0: 9f98 1fbf 50c1 ee3e cb8e d0bd 98c2 3fbe
000002f0: 0150 223f cc6b cd3c 5376 153e a437 2fbe
00000300: cb69 713e 4429 a03e a89d 71be 1491 5ebd
00000310: 4dc8 9ebd 992d a3bc fd07 e63d 1aa9 33be
00000320: ace2 253d 3aab 88bb 989c 133d 9283 d23d
00000330: 9d9d 583b db37 2c3d 6211 14bf cce8 8ebe
00000340: 4be3 343f 7e17 903e 4e07 30bb 8935 253e
00000350: 2c02 f83e 3bb3 693e ecd2 f93c e560 02bc
00000360: c5d7 11be e91c 273b 202a 353e d431 ff3d
00000370: 5731 e13e 0a9b 6b3d 21f0 273e eb80 4bbe
00000380: 7998 65bd e041 303e 7777 1d3c 93e6 8cbe
00000390: 8358 8d3e ecc2 3a3c 9cbe 2e3e b4e0 68be
000003a0: e550 3b3e 55aa 31be cebb 9e3e 24e1 56be
000003b0: 0ef7 d6be fc7c 853e 2f8c bc3d 6ef5 1cbe
000003c0: 1317 173e ce57 a73e 6b00 4e3e 5f77 62be
000003d0: 40e8 d83e 55df b53d aa76 21bf c12d 92bd
000003e0: 4a46 783d fa65 14be 2f13 2f3e 6ca4 cfbd
000003f0: 1459 3bbd c476 db3e 2636 7e3b f406 a93e
-0.065918066 -0.21170889 0.23577538 -0.20230708 -0.14160196 -0.04198702 0.04056992 0.12417604
-0.20692357 0.19071947 0.21790893 -0.14328992 0.33704916 -0.20696555 0.13718417 -0.04345561
0.07591458 -0.15904737 -0.12635142 -0.015244273 0.22154745 -0.68038285 -0.58054733 -0.03580058
-0.11573787 -0.0030496386 0.04018135 -0.03088133 -0.085310414 -0.10459544 0.018668223 0.025930589
0.35417533 -0.1026163 -0.21618019 0.034866985 0.12596354 -0.12465034 0.26028776 -0.030961024
-0.06014763 0.095550425 0.1715953 -0.18403184 0.10411915 0.10065424 0.5172359 0.1593245
0.02303662 -0.039442062 0.4026228 0.062682904 0.12624282 0.026525537 0.2608981 0.02411871
0.5092633 -0.41964403 0.115174875 0.09309967 -0.5007381 -0.06527133 -0.14611194 0.3225
-0.2803932 -0.30512476 0.23248011 0.030202894 0.018890338 -0.024400247 -0.059730563 0.12613085
-0.030763853 -0.09255977 0.004700756 -0.041093975 -0.04438371 -0.003344466 0.60493606 0.1781595
-0.63038415 -0.21272063 0.008781403 -0.044663884 -0.46358645 -0.2625176 -0.07566469 0.023424044
0.12201047 0.041557617 -0.10275829 -0.15879269 -0.43272275 -0.15168618 -0.12173259 0.27029657
-0.04304878 -0.10450416 -0.06453951 0.17650881 -0.20759107 0.02753968 -0.13389088 0.19186415
-0.17099312 0.20787258 -0.36612314 0.1309921 0.44775942 -0.16314514 -0.15584359 0.16605543
-0.2911069 -0.38458163 -0.2460408 0.35010448 -0.47356036 -0.18316181 0.7291168 0.16913436
0.07783612 0.103007786 -0.25750846 0.06607533 -0.024191562 -0.338245 0.016931279 -0.2842257
0.19040821 0.20650461 -0.20391037 0.07834687 0.060267154 -0.031834014 0.017939728 -0.21313713
0.2554607 -0.15401976 -0.20197785 0.20950738 -0.43700507 0.15393302 -0.094583236 0.03476858
-0.08167354 0.09176993 0.14756894 0.047205023 -0.22658329 0.7771788 0.431564 -0.08769184
0.065651946 0.013103015 -0.07589253 -0.073324956 0.0034333735 0.03484564 -0.010131552 -0.01983713
-0.27371845 0.09325197 0.23020953 -0.07250119 -0.11157327 0.05423392 -0.3623639 0.069084115
0.17680508 -0.07797575 -0.17283797 0.09568948 -0.09695408 -0.14602184 -0.45474827 -0.14099996
-0.07949029 -0.061777677 -0.41635236 -0.03933908 -0.04748109 0.03150439 -0.18677527 0.05413894
-0.62342256 0.4663186 -0.101834856 -0.18726575 0.63403326 0.025075816 0.14595918 -0.17111069
0.23575513 0.31281483 -0.23595297 -0.054337576 -0.07753048 -0.019919204 0.112319924 -0.17544976
0.040499374 -0.0041708024 0.03603801 0.10279001 0.003305293 0.042045455 -0.57839024 -0.27911985
0.7065932 0.28142923 -0.0026859823 0.16133703 0.48439157 0.22822277 0.030496083 -0.007957672
-0.14242466 0.002549941 0.1769185 0.12460676 0.43982956 0.057520904 0.16400196 -0.19873397
-0.056053612 0.1721263 0.009611002 -0.27519664 0.27606592 0.011399012 0.17064899 -0.22741967
0.18292578 -0.17350133 0.3100266 -0.20984322 -0.41985363 0.26071918 0.092064254 -0.15327999
0.14754896 0.32684177 0.20117347 -0.22115849 0.42364693 0.08880488 -0.6307169 -0.07137633
0.060613908 -0.14492026 0.17097162 -0.10138783 -0.04573925 0.42864048 0.00387896 0.33013117

fc2.bias f4 [2]
00000000: c934 243e e2d3 06be
0.16035761 -0.13166764
