GridWorld/Sec_Try/3/dqn_model.pth (torch, 864702 bytes, 24 tensors)

conv1.weight f4 [16, 3, 3, 3]
00000000: e803 f53e cd69 03be 5d16 913c 09e9 873d
00000010: 965c d4bd 5beb 9f3d 410d be3d 7586 b03d
00000020: f974 8abd 3de8 053e 83e2 803e 91f1 553e
00000030: 607c 943e d022 cf3d 2caf 993e e6c7 10be
00000040: 97e7 91be d2db a23d 2fa8 913d bd33 1cbd
00000050: c810 5a3e 10ea 583d 9773 1d3e 151d 2b3e
00000060: f01c b43b 5e90 0ebd 7627 8a3d 8958 97bd
00000070: e213 97be 22b3 07be b42a 943e 55fc 153e
00000080: d3f0 f23d 4235 483c 0e73 903e 5734 33be
00000090: 199b 6dbd 9a0d 563e 9a19 cc3d 9fc0 dfbe
000000a0: f3d7 913d 863d ac3e 85a4 62be c043 7a3e
000000b0: 7aa4 833d d117 b13d cd4b d6bd fedf 10bd
000000c0: ba05 51bd 4b96 b93e 6789 203e c29f 6a3e
000000d0: 76a3 893e 5331 553d 4cc7 253c 1e11 8abd
000000e0: 692e b73c 3cf1 db3e 61c5 06bd 73ce 7bbd
000000f0: 2497 e63c 3b2d 613e e760 95bc bc26 a1bd
00000100: 7926 b2bd 2856 54be dbdc 923e 0884 583e
00000110: 7e5b 1cbe 565b b0bd b29b bbbd 8e25 86bd
00000120: f9bf b63c b53f 00be 11f5 1a3e 0ecb 863e
00000130: a49a 153f 055e b53e 6504 6cbe 19e8 27be
00000140: bb6f 2b3e c362 e3be 7345 cd3d fe55 303d
00000150: 001d c33d 3478 4abe bfd6 f5bb 4eeb 40be
00000160: f89b 84bc 23a6 6f3d acb8 fb3d ea76 213e
00000170: f14f 833d 5c7a 453d 2efb 17be 8a8d e1bd
00000180: 6946 603c 62fc efbc 5b3e 833c fbf3 99bd
00000190: d7f3 5f3e 987e 5c3e bf4f 0e3e 2c94 1cbe
000001a0: 994c c83c 757f f63d 2312 603e acdf e93c
000001b0: a6fa 7a3e b39c 263b 1cd0 913c 6fd5 333e
000001c0: 87cf 1abf 1782 7f3d e2e5 a5bc 95e2 ac3c
000001d0: 5f11 8c3d 702f d1bc 241b 883e dca7 283e
000001e0: 0696 833e 6b37 cc3d 413b 173e 1532 99be
000001f0: 5009 133e 2400 0a3e ced1 93bd f7c9 563e
00000200: eb04 acbd 3da6 8b3c 3797 183e 7ad5 31bd
00000210: a55e 253d 01f3 473e 9153 05be 2d2e 92be
00000220: 0663 85be 226c ec3d ad39 cb3e 13b1 8d3e
00000230: 1105 6dbe 55fe c33d 4d77 a73d 1656 dabc
00000240: e8e0 b0bd 6c20 313e d76e 523e 07cc 5e3d
00000250: fa8a 6a3e c428 213e c764 15be a8dd 7a3e
00000260: 43a7 8dbe d0cd 1d3d e59f c13b 27b2 25be
00000270: cfed fabd 34ba 9abe 4286 9b3d 4d12 dabd
00000280: 74f7 b2bd 2acb af3d 2a73 2e3c 52e9 903c
00000290: 135d c43d 89bb 1dbe 3934 723e 7be3 80bd
000002a0: 24c4 41be 3d33 133e bafa 803d 8799 413e
000002b0: 6f0f 443d 3c6d e13d c9d1 6d3e 28e1 2a3e
000002c0: 2319 473e 7e9c 553e 9ebe 983e ac19 123e
000002d0: af01 d5be 9587 e4bd 2ee9 29be dc6e 50be
000002e0: 4f2e b23e e1bf 783e c604 17bd 7cb8 a8bd
000002f0: 8b73 323e 6822 c83d 36ee 043d db39 393e
00000300: c70b a43e d0e7 a33d 9f43 963e 006e 933e
00000310: d817 513e c131 ff3d f712 23bd d117 96bd
00000320: 4707 ba3d 91bd ae3d 85dc 303d f379 a73d
00000330: 5853 643b 85d2 573e f7c9 06bd 7999 77bd
00000340: a703 173f 3ec8 163b d72d 89bd e038 ac3d
00000350: f4ca e53d c207 153b b89a 553e fe82 ca3d
00000360: 1336 07be a307 793e f8a4 9c3d 8ca9 90be
00000370: a192 69bc 27ac a9be 0efe 4f3e 7398 7b3d
00000380: 3769 a0bd 1e97 043d 69ce 003e db1e 623e
00000390: 38d3 8a3e 767b 873d c2df bbbe a473 0b3e
000003a0: 98c0 e1be 2e76 be3e e6ba c83d e6dc 823b
000003b0: dcf1 08bd 40a8 0fbd 7e28 f53d 8643 3bbe
000003c0: 8bcc 99bd 76a1 943e 5dc3 8b3e 16ae 843e
000003d0: 2f99 97bd be17 bd3e 4cf3 733e b973 30be
000003e0: 4af0 a8be 6fc4 053d 3a1c 9abd 5a5f ecbc
000003f0: 7eec 173e fec5 cc3d 6972 9c3e 19f9 0f3d
0.47854543 -0.12833329 0.017710859 0.06636245 -0.10369222 0.07808562 0.09279872 0.08619396
-0.06760592 0.13076873 0.25172815 0.20892932 0.2900114 0.10114062 0.30016458 -0.14138755
-0.28497002 0.07952084 0.071121566 -0.03813528 0.21295464 0.052957594 0.15376125 0.16710313
0.0054966137 -0.034805648 0.06745808 -0.073899336 -0.29507357 -0.13251927 0.2893883 0.14647038
0.1186234 0.012219729 0.2821278 -0.17500435 -0.05800924 0.20903626 0.099658206 -0.43701646
0.07121267 0.3364069 -0.22133072 0.24439907 0.06427856 0.08647121 -0.104636766 -0.035369866
-0.051030852 0.36247477 0.15677415 0.22912505 0.26882523 0.052048992 0.010118317 -0.06741546
0.022360997 0.42957485 -0.03290308 -0.061476182 0.028148241 0.2198991 -0.018234683 -0.07868716
-0.08698744 -0.20735991 0.28684124 0.21144116 -0.15269276 -0.08611171 -0.09160556 -0.06550132
0.022308337 -0.12524302 0.15132548 0.26326793 0.5843909 0.35423294 -0.23048551 -0.16397132
0.1674184 -0.44411287 0.10023012 0.04305076 0.09527016 -0.19772416 -0.0075024064 -0.18839762
-0.016187653 0.05850805 0.12291083 0.15768018 0.06411732 0.048212394 -0.14841911 -0.110133246
0.013688662 -0.02929515 0.016020944 -0.07517239 0.21870361 0.21532667 0.13897608 -0.15290898
0.024450587 0.12036029 0.21881919 0.028549038 0.24509677 0.002542299 0.01779943 0.17561887
-0.6047291 0.062379923 -0.020251218 0.021104136 0.06839251 -0.025535315 0.26583207 0.16470283
0.25700396 0.09971508 0.14768697 -0.29921022 0.14359021 0.13476616 -0.072177514 0.20975481
-0.083993755 0.017047042 0.14901434 -0.043416478 0.040373463 0.19526292 -0.1302016 -0.28550854
-0.2605211 0.11544062 0.3969244 0.2767416 -0.23146464 0.09569994 0.08177052 -0.026652377
-0.086366475 0.17297524 0.20550095 0.054393794 0.22904578 0.15738207 -0.14589225 0.24498618
-0.27666673 0.038526356 0.0059089535 -0.16181241 -0.1225239 -0.30220187 0.07593967 -0.10648022
-0.08738604 0.08583672 0.010647574 0.01768938 0.09588065 -0.1540357 0.23652734 -0.062933885
-0.18922478 0.14375015 0.06297822 0.18906222 0.04786628 0.11007163 0.23224558 0.16687453
0.19443183 0.20860478 0.2983293 0.14267606 -0.41602847 -0.11158673 -0.16592857 -0.2035479
0.34800956 0.24291946 -0.036869787 -0.082383126 0.17426889 0.097721875 0.03245374 0.18088476
0.32040235 0.08003199 0.29348466 0.2879486 0.20419252 0.12460662 -0.03981301 -0.07328761
0.09083419 0.08532251 0.043179054 0.08177557 0.0034839716 0.210764 -0.032907452 -0.060449097
0.5898995 0.0023007537 -0.066981964 0.084092855 0.11220351 0.002274022 0.20859802 0.09888266
-0.13204221 0.2431932 0.07648653 -0.28254354 -0.01425615 -0.33139154 0.20311758 0.061424684
-0.07832568 0.03237068 0.12578739 0.22082083 0.27114272 0.06615345 -0.3669415 0.13618332
-0.4409225 0.3719954 0.09801273 0.0039936183 -0.03343378 -0.035072565 0.11970614 -0.18287477
-0.075097166 0.29029435 0.27297488 0.25914067 -0.07402264 0.36932176 0.23823279 -0.17231645
-0.32995826 0.032658037 -0.07524915 -0.02885406 0.14836308 0.099987015 0.30556038 0.035149667

conv1.bias f4 [16]
00000000: 2746 64bd 73cd a3bd 64b6 be3d b8c6 9c3e
00000010: 5a11 783d 9911 453e b601 273e 4d32 ebbc
00000020: fe35 89bd 40aa 843e 4bc5 5d3e c044 153e
00000030: 5a93 173d c5b4 b63d f34e 09bc 62b4 893e
-0.055730965 -0.07998171 0.09312132 0.3062036 0.060563423 0.19244994 0.16309246 -0.028710509
-0.06699751 0.2591114 0.21657293 0.14577007 0.03700576 0.08921198 -0.008380639 0.26895434

conv2.weight f4 [32, 16, 3, 3]
00000000: a0ff c63d ac46 2f3e c9c2 83be 4d8a 223e
00000010: 2106 c5bd aa80 f5bd 3377 aebd 0d23 a03c
00000020: 86dd 4cbe c7ea 563e d6d4 31bc d31e 09be
00000030: d60f 1d3d 5ee9 1f3e 7186 563d 895f 263e
00000040: b68e 113d 5fda 443e 7f11 a43d d52c 1bbe
00000050: d4d4 2fbe b06e d53d 0ec7 b93e 53a7 44ba
00000060: 9199 1a3e 5eea d7bd fc15 f53d e778 6b3d
00000070: 77fc a7bd 8af3 3c3e 084e 83be eba5 4ebd
00000080: 6c98 543e 33ab 713e ea93 dc3d 777c 17bd
00000090: eef2 ca3e d998 023e 818c 5abb 94f8 3e3c
000000a0: 52a5 183e 6c32 a43d 0564 4c3d 4c3a 4e3e
000000b0: f5ba 6bbe 0851 e83d 401a 3b3c 1054 903d
000000c0: cfef 83bd 9fdc 7f3e 1341 05be cf76 1e3e
000000d0: c9e4 453e 15a6 123e 78f0 dbbd 1782 86bd
000000e0: 54f2 523e 3476 e43d 5c44 863e 26a4 3fbe
000000f0: dd90 d43c 68fa 473d f0ea 8b3d 7553 2dbd
00000100: 3903 17bc 666e f3bd 54ab 453d e27d 82bc
00000110: 75ad d13c a940 be3d 8fc1 93bb 3f16 14bd
00000120: d45d a03e 7176 453d 1e92 4bbd 1b0e 933e
00000130: ad90 823b 7947 bc3c 0405 adbd db81 64be
00000140: c279 0fbe ee4f 813d 2c55 0c3e d4bb 1bbe
00000150: 2ba8 09bd 02e6 793e 9831 aabd 5cde 763d
00000160: a903 2fbe 405a ef3d 9ca8 64bc 80f6 7dbe
00000170: 2f0a 9ebd 074f 71bc b4b3 54bc e0cd 5bbd
00000180: 0a46 86bc 80f0 243e 9b49 febb 2a89 f23e
00000190: 528d 0e3e acc7 5c3d 05d1 153e 6ebe d33d
000001a0: 778e a6bc d606 bb3d 5626 f3bc 7b48 233e
000001b0: fa8d 03bd ed06 80bc 43aa 503d f91a 443d
000001c0: 84ad 9abc bb14 bf3d 1938 43be 0452 0fbc
000001d0: 3fee 60be fe18 c2be cf0a b8bc 1451 cebc
000001e0: 5d3e b5bd a769 1a3e 5721 d43d 91e7 7fbd
000001f0: c77b da3b bb40 d23c 075a 03bd 7f69 873d
00000200: 284f 1bbe c35f aa3e 825f 95be 8c9b e8bd
00000210: 60b5 3bbe 5fc4 8abc b0ee 65be 56eb 7ebd
00000220: 1381 6ebd 0790 583e f53a 65bd 1f98 223d
00000230: fd28 163d 02c6 e3bd a410 873d 0ac8 c43d
00000240: 33f4 303e ca75 3a3e e915 8fbe 945f 1bbe
00000250: 7a45 ae3c b25f ff3d 5f43 98bd 8035 fd3d
00000260: 0ef1 03bf dd82 b93d 98ab fdbd 4793 d83d
00000270: 3cfb 0ebe 3552 913e 32e8 00be 9f3a 8abd
00000280: 562e 06ba 3194 2a3d 0d28 5c3e 66e1 aabe
00000290: f093 753e 88c5 ca3d 9a4e 943e 1a24 59be
000002a0: 5287 2a3e b2a4 2cbd a7a5 7a3e e0e7 5cbb
000002b0: 8584 aabd b3f2 0c3e b364 21bc db90 19be
000002c0: 0c6b 2bbe c6f7 b9bd c277 4ebe 0840 983e
000002d0: 7b63 23bd 3308 993d 599e 213e 79d7 47be
000002e0: 562a 8b3e b1df f1bd 8a6a 02be 76dc 80bd
000002f0: 53e4 94bd 052a dfbb d8b6 1dbe 75db cc3d
00000300: 7667 a73d 3148 e93d 113b 82be 4bea 56be
00000310: 4392 c03d 6cba 283e 1359 a43b 191c 67be
00000320: 51cc 1c3e a5c2 483e 14ce 71bd 9d9a b1bd
00000330: 5eb6 b93d ff4e 3f3e d1b1 b43d 7b42 1f3c
00000340: 608b e0bc f478 5d3d ff2d b1bb 6698 043e
00000350: 0c42 9f3d 19b8 ae3d 50c7 81bd 9778 59bc
00000360: 504e 033f 845d 173e d1f4 cbbd 0ffe 903e
00000370: a0c3 e03d 8b1d 453c edf2 9ebc beae e83d
00000380: fa77 dbbc 7380 7abc a9bb 56bd 7cf4 b0bc
00000390: be86 be3d e1f8 05bd 431a 7fbd 7ab2 81be
000003a0: 5d86 5a3d 4ecb 5f3d cdad 91bd 0481 3bbe
000003b0: 6722 93bd f15c 213d fbc7 e13d 696d 08bd
000003c0: 9040 3a3e 4738 063d 9245 543d 0726 e43c
000003d0: 700e 4f3e 3dad a73e 370f 8d3e f37c db3d
000003e0: e5c4 3abe 0ab3 a43e 9906 d9bd e2a9 11be
000003f0: 2007 b2bd 876a e93c 8a87 52be b435 39bd
0.09716725 0.17116803 -0.25734547 0.1587307 -0.096203096 -0.11987431 -0.08518829 0.019547964
-0.2000638 0.20987998 -0.010853967 -0.13390665 0.03834518 0.15616366 0.052374307 0.16247381
0.03553649 0.19223927 0.080111496 -0.15153821 -0.17171031 0.104215026 0.3628468 -0.000750174
0.15097643 -0.10542749 0.11967084 0.05748835 -0.08202451 0.18452278 -0.2564547 -0.0504512
0.2076127 0.23600464 0.107704 -0.036983933 0.39638466 0.12753619 -0.0033347907 0.011655945
0.14906815 0.0801743 0.049900074 0.20139426 -0.23020537 0.113435805 0.011419833 0.07047284
-0.06442224 0.24986504 -0.13013105 0.1547501 0.19325556 0.14321168 -0.10739225 -0.065677814
0.20600253 0.11155358 0.2622403 -0.18714961 0.025947982 0.04882279 0.0683192 -0.04231592
-0.009217077 -0.11886291 0.048259094 -0.015929166 0.025595406 0.09289677 -0.004509158 -0.036154028
0.31321585 0.048208658 -0.049699895 0.287217 0.003984532 0.0229833 -0.08448222 -0.22315161
-0.1401129 0.063140735 0.13704365 -0.1520837 -0.033607643 0.24404147 -0.083102405 0.060270652
-0.1709124 0.11687136 -0.013956215 -0.24801064 -0.07716786 -0.014728314 -0.012982298 -0.053663135
-0.01639082 0.16107368 -0.0077602393 0.47370273 0.13921097 0.05390136 0.14630516 0.10339056
-0.020331604 0.09132163 -0.029681366 0.15945618 -0.03211782 -0.015628302 0.050943624 0.047877286
-0.018881567 0.09330126 -0.19064368 -0.008747581 -0.21965884 -0.37909693 -0.022466091 -0.025185145
-0.088497855 0.15079366 0.103579216 -0.0624767 0.0066675874 0.025665632 -0.03206828 0.06611919
-0.15166914 0.33276185 -0.2917443 -0.11357793 -0.18330908 -0.01693934 -0.22454333 -0.062236153
-0.058228564 0.21148692 -0.05596443 0.039695855 0.036660183 -0.11121751 0.06594971 0.09608467
0.17280655 0.18208995 -0.27946404 -0.15173179 0.021273363 0.12469424 -0.07434725 0.1236372
-0.51539695 0.09058163 -0.123862445 0.10574966 -0.13963026 0.2838303 -0.12588575 -0.06749462
-0.0005118599 0.041645233 0.21499653 -0.3337509 0.23982215 0.09900957 0.28966218 -0.21205178
0.16653183 -0.042149253 0.24477254 -0.0033707544 -0.08326057 0.13764457 -0.009850669 -0.14996664
-0.16740054 -0.09080462 -0.20162871 0.29736352 -0.039889794 0.07472267 0.15783061 -0.1951579
0.27180737 -0.11810244 -0.12735954 -0.062920496 -0.07270112 -0.006810429 -0.1540178 0.100027956
0.081740305 0.113907225 -0.2543569 -0.20987813 0.09402897 0.16477364 0.0050155013 -0.22569312
0.15312316 0.19605501 -0.059034422 -0.08672068 0.09067987 0.18682478 0.08822978 0.00972044
-0.02741021 0.054070428 -0.0054070945 0.1294876 0.07776269 0.085312076 -0.06336844 -0.01327338
0.5129137 0.14781767 -0.099588044 0.2831883 0.109748125 0.012030969 -0.019402945 0.113614544
-0.026790608 -0.015289414 -0.05242506 -0.021600954 0.09303044 -0.032708053 -0.062280905 -0.2533148
0.053350795 0.054637246 -0.07113228 -0.18310934 -0.07184296 0.039395276 0.11024471 -0.033307467
0.18188691 0.032768514 0.05182416 0.027850164 0.20220351 0.32749358 0.2755067 0.107171915
-0.18239172 0.32167846 -0.105969615 -0.14224961 -0.08692765 0.028493179 -0.20559517 -0.04521723

conv2.bias f4 [32]
00000000: 7759 6d3d 5eb9 bdbd 0ade bfbd bdac 08bd
00000010: 790d ac3d 841e 09bc 1c38 acbc 9cc6 f0bc
00000020: f012 483d 24df f33d f119 e03c 2a04 7b3c
00000030: db42 933d d547 0bbd 35d0 8a3b fe8f 093c
00000040: 37f0 ccbd 7c43 bb3c 062b ac3d b9d6 60bb
00000050: 2d7f 1b3d 161a 51bc 59e6 80bd 16e1 d0bc
00000060: 87e4 54bd a84a 25bc 0e31 3b3d 8a06 9cbd
00000070: f00f 27bc e359 b7b9 bc34 583c cf5f 7b3b
0.05794665 -0.092638716 -0.093685225 -0.03336786 0.08401007 -0.008369092 -0.021022849 -0.02939158
0.048846185 0.11907795 0.02735612 0.015320817 0.07190486 -0.03400405 0.004236246 0.008396147
-0.10006755 0.022859327 0.084066436 -0.0034307672 0.03796308 -0.012762567 -0.06293935 -0.025497954
-0.051975753 -0.0100886 0.04570108 -0.07618435 -0.010196671 -0.0003497145 0.013196167 0.0038356667

fc1.weight f4 [128, 512]
00000000: 869b a43c 164e 3e3c e734 59bc 41b3 7dbc
00000010: 1305 1a3c 97bf 2dbd d1d1 0d3d 6647 40bd
00000020: 5013 1b3d 3167 42bc 884d bf3c 9156 ef3c
00000030: 6418 0b3d 71e8 193c a3bf 2cbc 1f20 e13c
00000040: c2d7 98bc 4a28 cebb 0a16 803b 184e 30bc
00000050: f039 1abc 66d6 2a3b 52b8 003d 03fb 2ebd
00000060: a923 523c 9cf0 b83a 2db2 e63c f281 9c3c
00000070: b3ca 093d 0023 d13c 82f2 cbbc bfd3 32bd
00000080: 2ce3 0f3d 8744 763c d567 033d cd8d cfbc
00000090: 6fd2 73bc e755 413b 2bc5 cebc 4ea9 563c
000000a0: ec89 c23c b8fb 1abc 4f01 28bd bb2f 85bc
000000b0: 377e 07bd bcf8 683c d790 aabc 6d4c cebc
000000c0: a80b 7bbb 0a1f c63b 545d 03bd a9f5 043d
000000d0: 296b 29bd cc6c fd3c 6f22 39bd a7c5 65bb
000000e0: 274e 2cbd 0ea3 28bd 05c4 173d 37e7 28bd
000000f0: 9cbb 6fba ff5e 5a3c 3c3b 2dbd f5cb 063d
00000100: 12f1 c4bc 3f3a 503c 0b1a 9d3c c908 32bd
00000110: 5de5 17bc 573e 2cbd 3d17 053d d6f1 eabb
00000120: 897f e63b 2563 16bd 5596 50bc bb89 01bd
00000130: 6949 b0bc 2b6a e3bc ad64 d53c a06b b33c
00000140: f8c1 293c 5200 21bc 72f3 2bbd b1df 8ebc
00000150: 0ea3 2abd 4547 11bd f12f 443b 8d9b 243c
00000160: 1026 a33c ad33 193d fb53 42bc fd12 b03b
00000170: 0d34 50bc df54 bc3c ba45 cc3c 0be4 d13c
00000180: 3532 0d3d 1e5b 2bbd 81a8 2cbd 828b ed3c
00000190: 6cd8 febc 8704 f0bc 9901 233d 40bf 1bbd
000001a0: 7ec4 523c 8670 a4bc 6620 45bc 60f0 5cbc
000001b0: e843 bebc 7c56 1fbd 5409 22bd 7bdc 973c
000001c0: 5032 ac3c 0c2c 16bd bfba 9f3b 7e3a 05bc
000001d0: ec16 3dbd e646 113b 4477 e8bc 619e d33c
000001e0: 778e 3ebd fe8d a7bc 5887 973b 5225 8b3c
000001f0: 1017 fb3c f897 193c e320 563c f279 d2bc
00000200: e2b8 96bc 1331 83bc f503 fbbc de9d 62bc
00000210: 297a 123d 9f26 ddbc acc0 253d e200 fe3c
00000220: c73e dbbb 5e03 b2bc 818c 1dbd 3351 023d
00000230: cc5b 833c a18e fb3c 70bb 0abd 44fe 4fbb
00000240: 134f 7a3c f971 073d e7ab 2bbd b86e 00bd
00000250: 119a 11bd 2a37 b33c d40b b3bc 34f5 6ebc
00000260: 39e6 b03c abf2 f73c 41fd 19bd 1267 d93c
00000270: e5f1 c6bc a96b 08bd 3b08 113c f601 e43c
00000280: bd4c 963b 0f3b e7ba a21f 873c 1f3a 72bb
00000290: 0bc9 123d 86c5 8b3c db7d 723c 3f93 a63c
000002a0: 7484 c8ba f1b6 243d 020b 163c 562c 0e3d
000002b0: 6517 41bc daa8 14bd d19f 2ebd 6ee3 3cbd
000002c0: 215d 903c 02af ee3b c6c9 ac3c e712 b93c
000002d0: ecd7 d6bc 94cc 213c e296 febc 6661 cfbc
000002e0: e968 27bb c1c2 19bd 86cf 39bd 807d 033d
000002f0: 36e0 d23c 29d9 44bc bd01 fabc 6dd6 30bb
00000300: d4ca 06bd 7ae1 37bd 2247 2abd ca5f 2bbd
00000310: 0862 153d 6c09 0bbd 19cf babb 1d54 e139
00000320: aeee 60bc 2820 d039 b18b 1d3d 0c14 55bc
00000330: 8d4e 283d cd83 003b 0969 133d 2b40 573c
00000340: 5708 84bc 7de1 29bc 63b7 f93c 738b ee38
00000350: a017 01bd eb2b 383c 20fc e7bc 8693 06bd
00000360: 1a47 02bd fb26 93bc 9299 963a e7f8 00bc
00000370: 06d8 3cbd 6176 543c 84a1 1e3b f88d 373c
00000380: 05b2 0dbd 933d cf3c 706a afbc 1f4b 0bbd
00000390: 06d9 443c c9bd ec3b 3b58 25bd 0499 c43c
000003a0: e096 a03b 93d5 c5bc 9b0a 093d 0cd6 0bbd
000003b0: 0b95 1dbd 5136 423b 1cce 573c 1f30 593c
000003c0: 675f 153d adde ce3c e2a5 033d c70e 023d
000003d0: faee 94bc 0a00 ff3c 569d 8bbc 113b dbbb
000003e0: a8ce d6bc d345 18bd 5ca9 f13b 40a6 0f3d
000003f0: 8021 12bd 3ea6 32bd e2d2 063b 0fb6 793c
0.02009369 0.011615297 -0.013257242 -0.015484632 0.009400624 -0.042419042 0.034623925 -0.04694309
0.037860215 -0.011865423 0.0233524 0.029216083 0.033958808 0.009393797 -0.010543737 0.027481137
-0.018657569 -0.006291424 0.0039088773 -0.0107608065 -0.009413227 0.0026067733 0.03142578 -0.042719852
0.012825885 0.0014109793 0.028161133 0.019104932 0.033640575 0.025529385 -0.02489591 -0.043658968
0.035128757 0.015030987 0.032081444 -0.02533617 -0.014881714 0.0029500665 -0.025240501 0.013101889
0.023747407 -0.0094594285 -0.041016873 -0.016258111 -0.033079352 0.014219459 -0.020821018 -0.025182927
-0.0038306508 0.0060461806 -0.032071427 0.032460842 -0.04136196 0.030935667 -0.045198854 -0.0035060437
-0.04206672 -0.041171126 0.037052173 -0.04123613 -0.00091450824 0.013328313 -0.04229282 0.032909352
-0.024040733 0.012709199 0.019177457 -0.04346541 -0.009270993 -0.04205164 0.032492865 -0.0071699424
0.0070342463 -0.036715645 -0.012731154 -0.03162549 -0.02151938 -0.027760586 0.026048983 0.021901906
0.010361187 -0.0098267365 -0.041980214 -0.017440649 -0.041659407 -0.03546836 0.0029935802 0.010046852
0.01991561 0.037402797 -0.011860843 0.0053733573 -0.012707722 0.022989688 0.024935592 0.025621435
0.03447171 -0.041834943 -0.042152885 0.028997187 -0.031109057 -0.029299034 0.039796446 -0.038024187
0.01286423 -0.020073187 -0.01203165 -0.013485044 -0.02322574 -0.038900837 -0.039559677 0.01853775
0.021020085 -0.0366631 0.004874557 -0.008131621 -0.046164438 0.0022167503 -0.028377183 0.025832357
-0.046522584 -0.02045345 0.0046242885 0.01698557 0.030650645 0.009374611 0.013069364 -0.025692914
-0.018398706 -0.016014611 -0.030641535 -0.013831584 0.035761032 -0.026995955 0.04046695 0.03100628
-0.0066908333 -0.021730121 -0.038464073 0.03181572 0.016034983 0.03070766 -0.03387016 -0.0031737247
0.015277642 0.033067677 -0.041911986 -0.03135559 -0.03554732 0.02187689 -0.021856226 -0.014584828
0.021594154 0.03026708 -0.037595037 0.026538406 -0.024285266 -0.033305798 0.00885206 0.027832966
0.0045867846 -0.0017641502 0.016494576 -0.0036960912 0.03583626 0.01706196 0.014800514 0.020333884
-0.0015298263 0.04021353 0.009157898 0.03471025 -0.011785363 -0.036293842 -0.04263288 -0.04611533
0.017622532 0.007284046 0.021092307 0.022592021 -0.026226006 0.009875435 -0.031077806 -0.025314998
-0.002554471 -0.037539247 -0.045363925 0.032102108 0.025741678 -0.012014666 -0.030518407 -0.0026983276
-0.032908276 -0.044892766 -0.041571744 -0.0418394 0.036470443 -0.033944532 -0.0057009575 0.00042978014
-0.013728781 0.0003969681 0.0384633 -0.013005268 0.041090537 0.001960981 0.03598884 0.013137857
-0.016117258 -0.010368702 0.030482953 0.00011374699 -0.03151667 0.01124094 -0.028318465 -0.032855533
-0.03180609 -0.017962923 0.0011489859 -0.007871843 -0.046104454 0.012967677 0.0024205158 0.011203282
-0.0345936 0.025297916 -0.021413058 -0.034007188 0.012014633 0.0072247726 -0.040367346 0.023998745
0.004900798 -0.024149692 0.03345738 -0.034139678 -0.038472217 0.0029634426 0.013171699 0.013256102
0.036467936 0.025252664 0.03214062 0.031752374 -0.01818036 0.031127948 -0.017042797 -0.006690391
-0.026221588 -0.037175965 0.0073749255 0.035070658 -0.03567648 -0.043615572 0.0020572473 0.01524116

fc1.bias f4 [128]
00000000: cdeb 29bd ebfc 2c3d 3c29 a13c 0040 98bc
00000010: 8204 c8bc 726f 073d a992 883b 23c2 a53a
00000020: 97ed 9abb f9c4 e8bc bb4c 4b3d 5b76 e9bc
00000030: 6858 2d3d 6435 063d 175a cfbc 72fe b4bc
00000040: 843f 033d 005f 163b 07e5 ce3d 4998 82bc
00000050: 1036 6cbc 2bdb f3bc 7ce1 e03a 8c03 b63b
00000060: f43e 7f3d 0650 543d 7b38 643c e74a 8d3d
00000070: 54c6 13bc e4d7 08bd f175 e13b 86db 7abd
00000080: a2ee 2cbd 17f5 1c3d 3642 143d af0d 63bb
00000090: 1cd9 203d f591 673c a104 2abd b23d fabb
000000a0: 00e7 f9bc bd5c 1abd ace7 32bd 6ca5 27bd
000000b0: c825 b6ba 5f33 0fbd e24b 89bc ba8d a8bb
000000c0: fb2c 1f3c f81d 513c dba9 ba3b 291b 133d
000000d0: 4818 853b b1c1 c5bc 322a 043c 9df3 f2ba
000000e0: 4d3f 763d 686d dd3b 31a1 a6bb 329a 14bd
000000f0: 592e d4bc 482c 22bd c6ad c0ba 813e 20bc
00000100: 9240 a7bc bda7 35bd 150a 453c 22e2 26bd
00000110: 00df 6b3c d844 06bd 8d12 afbb 0014 65bb
00000120: 4c82 97bc 74c2 e8bb 2159 fa3c 6903 2ebd
00000130: 5b4b 46bb fb88 56bc caed 2ebc 8997 5e3d
00000140: 3322 b4bc 8ab5 35bd 32fb 36bd fff5 2abd
00000150: 9afb 3fbd e1f3 043c 49d6 1cbd 4fff fe3c
00000160: f517 fbbc af62 b23c 1c1e 8d3c f7a7 7b3c
00000170: 0e74 27bd e0eb a8bc 4b78 edbc ea98 0f3d
00000180: bc45 50bc 1656 6f3c 9b35 5cbd 8082 b53c
00000190: c077 c1bc dc72 b3bb 3c05 13bd a108 003d
000001a0: 84b5 38bd 5b06 a43c 3f1b 593c e3d7 a33c
000001b0: f16f fc3c 8a62 23bd 8b67 1e3d 1aa9 b9bc
000001c0: 0a67 6bbc f276 eebc 1dd4 073c 072b 1dbd
000001d0: c264 cf3b e77e 033c 2414 a73c 085d 623c
000001e0: 3a96 94bc 2f09 233d 1951 0a3d 25be 143d
000001f0: 72bb 233c 27b6 71bc 3f98 ff3c bec2 9b3b
-0.041484643 0.04223339 0.019672982 -0.018585205 -0.024416212 0.033065267 0.004167874 0.0012646358
-0.00472803 -0.028414236 0.049633723 -0.02849882 0.04232064 0.03276576 -0.025311513 -0.022093985
0.032042995 0.0022944808 0.10102277 -0.015941756 -0.014417186 -0.029767593 0.0017157043 0.005554622
0.062315896 0.05183413 0.013929482 0.06899052 -0.009019453 -0.033409014 0.006880515 -0.06124451
-0.042219765 0.038319673 0.036195956 -0.0034645607 0.03926955 0.01413392 -0.04150832 -0.007636749
-0.030505657 -0.0376861 -0.04367797 -0.040929243 -0.0013896758 -0.0349611 -0.016759817 -0.0051438482
0.009715314 0.012763493 0.005696518 0.035914574 0.0040617324 -0.02414021 0.008066701 -0.0018535737
0.060118962 0.006757427 -0.0050851335 -0.036279865 -0.025901007 -0.03959301 -0.0014700226 -0.009780527
-0.020416532 -0.04434942 0.0120263295 -0.040743 0.014396429 -0.0327805 -0.0053427876 -0.0034954548
-0.018494748 -0.0071032587 0.030560078 -0.04248372 -0.0030257318 -0.013094182 -0.0106768105 0.054343734
-0.021988964 -0.044362582 -0.044673152 -0.041738506 -0.046870805 0.008114786 -0.038290296 0.0311276
-0.030651072 0.021775572 0.017226271 0.01535987 -0.040882163 -0.020620286 -0.028988024 0.03505794
-0.0127119385 0.014607927 -0.05376206 0.022156954 -0.023616672 -0.005476339 -0.035893664 0.03125823
-0.04509498 0.020022562 0.013251125 0.020000404 0.030815097 -0.039888896 0.038672965 -0.022663642
-0.014367828 -0.029109452 0.008290318 -0.038371112 0.00632915 0.008025861 0.020395346 0.013816126
-0.01813804 0.03980368 0.033768747 0.03631415 0.009993421 -0.014752901 0.031200526 0.0047534397

fc2.weight f4 [4, 128]
00000000: 717d b43d b853 383c b0a0 0b3c 4260 9c3e
00000010: 8069 483a d0a9 9b3c 8e11 11be 1856 14be
00000020: 35f5 aabc 4521 d23b fc6b 283b db2a 3c3e
00000030: effb 413d 9d41 00be 568c a5bd 56a0 6ebd
00000040: b707 dabd 1d69 a13d 9275 2e3d f372 6a3d
00000050: 7dbe d0bd e5bf 67bd 5dbe 6fbd 3f38 fb3c
00000060: b338 e13d e8ca fbbd 6066 d1bd 764e 2cbe
00000070: 0f81 983b 1bfb 913d cb2a 5bbd e8a3 ac3e
00000080: 4ede 323e cbe5 843d b87d 11be 67f9 483d
00000090: 4445 2d3e bc50 733e 5849 0c3d 929a 153d
000000a0: 98cf 2cbe 3131 4a3d 01d9 e43c 1784 b43d
000000b0: 7af5 a1bc a5a3 1b3e 1b9c 89be 67db 113e
000000c0: 3bdf fb3c f042 153c 7827 6bbe 3157 76be
000000d0: 3c50 1cbd 2ff4 b33e c218 2dbe 3389 a13d
000000e0: 703c 2dbe 3769 3f3e fd4d 51bf 7fdf 1cbc
000000f0: 8b12 773e c93f d3bd c52b 03be 0373 b03d
00000100: 2986 dfbd abbd 273d 1423 d2be e4bc 2a3e
00000110: 34a4 35bb ba80 cbbd 0d74 3abe 4958 d6bc
00000120: 7024 433d 03a9 dc3c 1f43 1bbe 1c7f 6e3d
00000130: 2f13 933d 9b22 263c ec76 28be 411b 033e
00000140: 9823 7b3e 1d76 b23c 0a19 023d 8457 a7bd
00000150: 4e99 873d 9256 733e f783 9e3e e2c0 0fbe
00000160: ceee e13c ad5c 1fbe 7842 c4bd 0f1e d23c
00000170: 015d 693d 68e0 423d c2e5 48be bd4f 943d
00000180: 7d51 43bd 9180 dcbd e0b7 103e 474b b13d
00000190: e040 48bd 016d 4b3d d28d f73d a9ad a8be
000001a0: 4660 843d a8e9 91be 380e af3d ce29 003d
000001b0: cf0d 82be fa78 e23c ab41 d93d 705e 94bd
000001c0: b862 88be 95bd 9f3d b481 c43d 882c 2a3d
000001d0: 24bd 99bd 0906 003e 2a30 d03d 6355 0abd
000001e0: be63 e2bc 457c 04be bf8b 22bd 6c71 a53d
000001f0: f7a2 2abe 632b 413d 2718 91bd 2e83 193d
00000200: 153c c338 dd33 b73d 4fb8 853d 114e b4bd
00000210: 88a8 51bd f92f d13c ff51 2ebe beec 3dbe
00000220: 0abe e0bb b597 463c f34a 85be 3dab 62be
00000230: f8da 493c e670 863e 7ef4 d03c a370 673d
00000240: a33f aabd df7c 633c 3d45 733e e867 02bd
00000250: 8897 00bd 37e1 5dbd eb78 f43e d886 453c
00000260: f40a 203e 8814 4d3e c9a2 b6bd 06a0 c93d
00000270: 6371 3abe 28a9 1a3d d61e 55be feba 40be
00000280: 28d6 24be 3fb4 21bc 7bba 19bd e32b 2b3d
00000290: cce7 f83c 0cfc 063e ed81 9c3d 5ef9 743d
000002a0: cd9f 8cbe 22b0 b2bc 8462 913d 64e7 95bc
000002b0: e8eb 723d c54e d43e a492 993e e6c9 14be
000002c0: 00f7 21bd 882b bbbc 9c27 ddbe 8ef5 013e
000002d0: cb84 3fbd 65b0 26bd 6f57 01be a0be dcbb
000002e0: 7c65 0ebe ca9a 66be 755f 76bc aadf 843d
000002f0: 4d11 48be fc6b 14be b2b4 15be 0f23 f9b9
00000300: e4e5 ba3d adc1 1fbd c99a acbd dd87 d2bd
00000310: 4d8e 9a3d 0550 6abe bd91 87bd 7a50 223d
00000320: 5ac6 303e ca38 783d 7079 a0bd 93f2 043d
00000330: cbb5 033d 262e ab3d e964 1abb 3d55 573e
00000340: 9d43 b33d 9f09 50bd 9785 893d 1441 3f3d
00000350: 7766 21bd c263 f4bd c551 1fbd 4839 0cbe
00000360: a1e7 94bd 788f 243e 3bec 4fbe ec1d 4c3d
00000370: d94b 93bd c443 b1bd 7478 0dbf c682 9f3d
00000380: 77e4 9a3d 9af3 06bd 9b18 9fbc 1341 3c3e
00000390: 89c2 953d 070a 7fbd 8d84 18be fdf7 fc3d
000003a0: 074e e53c 5f29 b53c 64ee 8b3e 7340 bb3d
000003b0: f9eb dd3d f98e aa3d 990e 133e 42d3 40bd
000003c0: fafd babc a569 8dbd a1c0 97bd 38c5 a2bd
000003d0: 2598 083e 6af3 08bf ae5c 21bd 9d67 4abd
000003e0: 8e45 05be 61b8 3fbd daa9 39be 3675 653d
000003f0: 4b2f f8bd 34c5 94bd 7a1f 0cbe 32e2 773d
0.088129885 0.011250429 0.008522198 0.3054219 0.0007645115 0.019001871 -0.14166853 -0.14485967
-0.020868877 0.0064126574 0.002569913 0.18375723 0.047359403 -0.1252503 -0.080834076 -0.058258377
-0.10646003 0.07881377 0.042592593 0.05723853 -0.10192583 -0.05657949 -0.058531154 0.030666469
0.10997143 -0.12294561 -0.102246046 -0.16826805 0.004654057 0.07127973 -0.053507607 0.337188
0.17467615 0.06489142 -0.14208114 0.049065974 0.16920954 0.23761266 0.034249634 0.036524363
-0.16876066 0.04936332 0.027935507 0.08814257 -0.019770373 0.15199144 -0.26876912 0.14243852
0.030746093 0.009110197 -0.22964275 -0.24056698 -0.038162455 0.35147235 -0.16903976 0.07887497
-0.16917586 0.1869248 -0.81759626 -0.00957477 0.24128167 -0.103149004 -0.12809666 0.08615687
-0.10914261 0.040952366 -0.41042387 0.16673619 -0.002771628 -0.09936662 -0.18208332 -0.026165145
0.04764217 0.02693606 -0.15162323 0.05822669 0.07181393 0.0101400865 -0.16451615 0.12803365
0.24525297 0.021784836 0.03176216 -0.08170989 0.066210374 0.23763493 0.30960056 -0.14038423
0.027579691 -0.15562697 -0.095829904 0.025649099 0.05697346 0.04757729 -0.19618896 0.07241771
-0.047685135 -0.107667096 0.14132643 0.08656936 -0.048889995 0.0496645 0.12087597 -0.32944992
0.06463675 -0.28498578 0.08547634 0.031289868 -0.2540116 0.027645577 0.10608228 -0.07244575
-0.26637816 0.07799832 0.095950514 0.041546375 -0.07506779 0.12502302 0.101654366 -0.033772837
-0.027635451 -0.1293803 -0.039684054 0.08078274 -0.16663729 0.047160517 -0.07084685 0.03747862
9.309516e-05 0.08945439 0.06529295 -0.088039525 -0.051186115 0.02553557 -0.17023467 -0.18547341
-0.006858592 0.012121131 -0.26033744 -0.22135635 0.012320273 0.2625801 0.025507208 0.056503903
-0.08312919 0.013884752 0.23756881 -0.031837374 -0.03139451 -0.05416986 0.47748503 0.012056075
0.15629178 0.20027363 -0.089177676 0.09844975 -0.18207316 0.037758976 -0.20812544 -0.18821332
-0.16097319 -0.009869634 -0.037531357 0.0417899 0.030383967 0.13182086 0.07641969 0.059808128
-0.27465668 -0.021812502 0.070988685 -0.018298812 0.05930701 0.41466346 0.2999469 -0.14530143
-0.0395422 -0.022847906 -0.43194282 0.12691328 -0.0467575 -0.040695567 -0.1263101 -0.0067365915
-0.139059 -0.22519985 -0.015037407 0.06487973 -0.1953785 -0.14494318 -0.14619711 -0.00047519102
0.091258794 -0.039003063 -0.084279604 -0.1027982 0.07546673 -0.22882088 -0.06619594 0.03962753
0.17263165 0.060601033 -0.07835662 0.0324579 0.032155793 0.083584115 -0.0023558682 0.2102861
0.087531306 -0.050790425 0.06714933 0.046692923 -0.03940436 -0.1193309 -0.03889634 -0.13693726
-0.07270742 0.16070354 -0.20304959 0.049833223 -0.07192201 -0.086555034 -0.5526192 0.07788615
0.075631075 -0.03294716 -0.019420912 0.18384199 0.07312495 -0.062265422 -0.14894314 0.123519875
0.027991308 0.022114454 0.27330315 0.09143152 0.10836024 0.08328051 0.14361037 -0.04707647
-0.022826184 -0.06904916 -0.07409788 -0.07947773 0.13339289 -0.5349642 -0.039395027 -0.04941522
-0.13014814 -0.046806697 -0.181312 0.056019984 -0.121183954 -0.07264176 -0.13683882 0.06051845

fc2.bias f4 [4]
00000000: dc29 b5bd 423e b03d 90d7 493d d7d9 41bd
-0.08845875 0.08605625 0.049277842 -0.04732689

exp_avg f4 [16, 3, 3, 3]
00000000: 1749 39be e6e8 16be 75ec 203d ae60 783b
00000010: 9c24 0c3d dd9a fcbd 812e 1b3d 512c 213e
00000020: d0d1 00be 13af 3cbe d524 dd3d 3b21 123c
00000030: 6721 ecbd 08f8 713d 5fa3 97bd 5222 8a3c
00000040: e831 30bb e75e 0d3d 990c 09be 373d ec3d
00000050: 71ac b7bd 0aa1 1ebe 3f23 f3bc d1de 87bc
00000060: 8406 043e da0c 87bd 2b9d dbbd 07ab 6b3d
00000070: 43b7 f9ba b8c7 29bc bfbd b23d 94c9 0c3d
00000080: 2530 f8bc 0959 3d3e 87db 1abd 6180 f5bd
00000090: 1c10 bcbc 007e 1d3d e2dd c33a b8ef 113b
000000a0: 08f2 203e cdf4 bdbc 478c 9fbb d29a e43c
000000b0: 2ca0 cfbc d6f5 863c 3df2 f5bb e5e6 083b
000000c0: 89e6 afbc c952 90bd d769 b7bb 3d2b 843c
000000d0: 9807 28bd 9bf9 b5bc d668 f43c 6a24 18bd
000000e0: c307 973d a36d 55bc 12b9 26bd f354 963d
000000f0: 1910 063e 2683 1f3c 971d 483e 8782 ac3c
00000100: dd39 84bc f1ff 0ebc 12bb 0e3d 994c b43d
00000110: c066 9cbc f00e 29bd 0a76 123d 87eb f23c
00000120: 0bb1 ac3b fb9b 983b 76a7 6f3c e4c5 f6bd
00000130: d1c3 ccbd 29be 00bd 3221 3b3c f815 ae3c
00000140: 294f 2ebd c7b3 363d 779b 52bd c20f 89bc
00000150: 37c2 e2bd 37ad b1bd 0ea8 d3bd e9e5 88bd
00000160: 7ec4 50be 909a a93c 2e21 c33d ab78 45bd
00000170: 50b2 c9bb 0df2 00bc 032a 39bc d6d9 afbc
00000180: 12b9 c3bc f774 86bd a214 dbbc e5b2 513d
00000190: 7d11 cfbc 3f86 e13c 1f70 9e3b 57f5 783d
000001a0: 317a 363d a784 23be 92c8 a8bd 7fae 693c
000001b0: cab2 8cbe 0177 24be c0c7 8ebe 1da8 aabd
000001c0: 01de 1e3c ade8 43be f9f7 a33b ce94 adbc
000001d0: 4e50 a2be e56c 96bd 7ea6 79bd 379a a33d
000001e0: 61c2 34be 0c3c 363d 90c5 c9bd 12c0 e83a
000001f0: 314a cd3d 1477 a73c 58f1 44bc 466b b73d
00000200: efd8 45bd 4514 55be a8ab e6bd 4611 3abd
00000210: 5ac8 0ebe c956 d6bd e60a c1bd 7f12 763d
00000220: bedb f83c d216 683c f365 f4bc f532 3cbd
00000230: 873f ffbb ceb9 883d 659c 53be 24ce 8abd
00000240: 48f6 1f3b c5d9 023c d666 90bd 7b74 b53d
00000250: 0473 c03d 14c6 8c3b beb0 d9bc 5690 42bd
00000260: b3c1 dcba cf75 993d ef02 b03c 3a4e c23c
00000270: 5de4 5bbd 11dc 603b eb72 1d3d 8a8f 29bd
00000280: adda f6bd 94cc ddbd c2da ae3d 693f 1ebe
00000290: 3a5e 31be b049 ccbd de92 b1bd 81e9 88be
000002a0: 0786 2dbd 36aa 52be c5a0 1dbe 4abd b8bd
000002b0: 5f4d 39bd e2bc 543b cc8b a3bc ba70 83bc
000002c0: 0757 293d 10cc 193d 8832 3fbd 00d3 863d
000002d0: a15d 27bc 217e 0d3b 1b45 093d 7fda 7dbc
000002e0: 9227 0fbe 0797 303d 377b 6abd b11c e6bc
000002f0: 0be6 be3c a5f2 113e 6fef 433e 2394 533d
00000300: 859e 083e b2a7 2f3e bdc6 903d 2ff7 e33d
00000310: 1718 b53d d83d 703d f034 a93c 4346 083d
00000320: 3a79 6d3d f19c d5b9 0a12 d93d b6e4 373b
00000330: 3edd 23ba fde7 cb3c fe8e dbbc 767c 373c
00000340: 72f9 a5bc d56c 1dbd 519b 7c3c cb4c a53d
00000350: 8e7d 053d 4db5 de3c f412 df3d 5530 b23c
00000360: c5c3 84bd 4209 c3be 9750 f1bd 574b 2cbd
00000370: 68a2 73be 8565 2bbc bcab 5dbb d586 31be
00000380: b905 273e a96a a53c 77d3 483d ed73 55bd
00000390: 2d7a 003c 61e3 adbd f8c2 a9bc fedd f83c
000003a0: 0400 0000 4e27 2c3e e620 0dbd 3877 4cbd
000003b0: 1f4a 813c e831 dabc 4ff3 47be aa9f 193d
000003c0: 888f 0e3c d26b 91be 35cf cbbd 1bd9 a3bd
000003d0: b6d1 8abd f876 2b3e 856b 99bd 69cd 84bd
000003e0: 0cf6 c63c 089a d13c fd89 c8bd f0a1 933e
000003f0: 490e 553d e15d 193d af30 3cbd 006e 1bbd
-0.18094288 -0.14737281 0.039288003 0.0037899422 0.0342146 -0.12334225 0.037886146 0.15739562
-0.12580037 -0.1842616 0.10798041 0.008919056 -0.115298085 0.05907443 -0.074042074 0.016862068
-0.0026885215 0.034514334 -0.13383712 0.11535113 -0.089684375 -0.15491119 -0.029679893 -0.01658574
0.1289311 -0.06594248 -0.10723337 0.05753615 -0.0019051809 -0.010362558 0.087275974 0.034371927
-0.030296395 0.18490995 -0.037807014 -0.11987377 -0.0229569 0.03845024 0.0014943446 0.0022268128
0.15717328 -0.02318802 -0.0048690173 0.027905855 -0.02534493 0.016474646 -0.0075056837 0.0020889577
-0.021472232 -0.0704704 -0.005597334 0.016133899 -0.041022867 -0.022213748 0.029835146 -0.037144102
0.07374527 -0.013026628 -0.04070384 0.073404215 0.13092078 0.009735858 0.19542538 0.021058334
-0.016140873 -0.008728013 0.034846373 0.08803672 -0.019091964 -0.04127401 0.035757102 0.029653324
0.0052701286 0.004657266 0.014627328 -0.120494634 -0.099982865 -0.03143135 0.011421489 0.02125071
-0.04255596 0.044605043 -0.051417794 -0.016731147 -0.110722 -0.08675616 -0.10334788 -0.06684477
-0.20387456 0.020703584 0.09527813 -0.04821078 -0.0061552897 -0.007870209 -0.01130152 -0.021466177
-0.02389196 -0.06565278 -0.026743237 0.051195998 -0.025276894 0.027529834 0.004835143 0.06078085
0.044550125 -0.15968572 -0.08241381 0.0142627945 -0.27480155 -0.16061021 -0.27886772 -0.08332846
0.009696485 -0.19131728 0.005003926 -0.02118912 -0.31701893 -0.07344989 -0.060949795 0.079883985
-0.17652275 0.04449086 -0.09852135 0.0017757437 0.100239165 0.020442523 -0.012020431 0.08956008
-0.048302587 -0.20808513 -0.112632096 -0.04542663 -0.13943616 -0.10465772 -0.09425907 0.060076233
0.030378219 0.014165597 -0.02983377 -0.045947034 -0.0077895555 0.066760644 -0.20665129 -0.067775995
0.002440827 0.007986491 -0.070508644 0.088601075 0.093969375 0.0042960737 -0.026573535 -0.04750093
-0.0016842395 0.07493173 0.021485774 0.023718942 -0.05368458 0.0034310857 0.038439672 -0.041396655
-0.12053428 -0.10830036 0.085378185 -0.15453877 -0.17321101 -0.09974992 -0.08670591 -0.2674065
-0.042364147 -0.20572743 -0.1539336 -0.09020479 -0.045239802 0.0032461216 -0.019964121 -0.016044963
0.04134276 0.037548125 -0.04667905 0.06583214 -0.010215194 0.0021590071 0.03351317 -0.015493988
-0.13979939 0.04311278 -0.057246413 -0.028089853 0.023303052 0.14252718 0.19134305 0.051654946
0.1334172 0.17153814 0.07069156 0.11131131 0.088424854 0.05865273 0.020655125 0.03327013
0.05797694 -0.00040743456 0.10599144 0.0028059906 -0.0006250924 0.024890894 -0.026801582 0.011199107
-0.020260546 -0.03843387 0.01541789 0.08071288 0.03259044 0.02718606 0.10892287 0.021751562
-0.064826526 -0.38093 -0.117829494 -0.042064037 -0.23792422 -0.010461216 -0.0033824285 -0.1733659
0.16310777 0.020192461 0.049029794 -0.05211251 0.007841629 -0.08490635 -0.020722851 0.030379292
6e-45 0.16811869 -0.034455203 -0.049918383 0.015782414 -0.026635125 -0.19526409 0.037505783
0.008701213 -0.28402573 -0.09951631 -0.08000394 -0.067782804 0.16744602 -0.07491211 -0.064844914
0.024287246 0.025586143 -0.09791944 0.28834486 0.052015577 0.037443046 -0.045944866 -0.0379467

exp_avg_sq f4 [16, 3, 3, 3]
00000000: 128d 103f e579 0a3f 29c2 183f 62ac 433f
00000010: a10e f03e e1f7 283f ab93 253f d4da 283f
00000020: 0447 123f 6b8a 9a3e a876 9a3f dcdd 4e3e
00000030: 1ea8 1f3f d618 a43e e4eb 383e c5a5 bf3c
00000040: d3c2 b83a 0f72 903d 4154 d13e 391d 483e
00000050: cf4e 563e d69b 073e 65b4 3a3e a1ab fe3d
00000060: a8d3 8f3e ceb1 be3d 910f de3d a774 903d
00000070: f364 b33c 6356 2c3d 7350 d83d ad5c 223e
00000080: 7b79 003e 4f58 e53d a954 3e3e 5531 db3d
00000090: 88e3 2a3d 2f25 bf3c 52f6 423e 174c 0239
000000a0: 4766 043e b68b b23c 6802 4c3d f9f6 ac3d
000000b0: 2d42 513d 9ce6 633d e618 0b3d b29f ce3b
000000c0: 0ade 183d 153c b63d db47 073d 856e c83c
000000d0: 1a80 863d ec4e 9e3c be17 a53e 420a 8f3e
000000e0: 4a75 823e ed6a 923e 0b67 953e eac7 b03e
000000f0: 9798 ad3e a342 c53e f763 063f d4ec 993d
00000100: ae7c 373d 6d25 693c 0750 633d 6297 383f
00000110: 0fbd a63b 1dc6 e83d fd0a 963d e588 913d
00000120: 3ea1 4e3e f81f 023d cff7 c43c 409c 403e
00000130: 49b9 2c3e 6ff9 7e3d 2457 7f3d 795f 333c
00000140: 365d 1e3d ae93 8d3c 36c2 3e3e fc86 963e
00000150: 703b c23e 560c 923e d855 d73e 7e71 853e
00000160: 3419 a53e a224 a83e fae9 743d 0844 e83e
00000170: 2bca 063d 53dc 573e 78c4 b23c ba8a 963d
00000180: 2db5 1b3c 8921 553e 5b71 613c 1218 ea3d
00000190: 4efe ab3d d3b3 433d 42a6 d53d 7d52 973d
000001a0: 7d4c 4c3d 2ec8 1e3e ada1 803d c645 b03c
000001b0: ebd6 663f 0f81 903f dcbf 953f c000 883f
000001c0: e57b 2d3c 4661 903f 61a5 813f bdf6 8e3f
000001d0: f93d 9f3f d011 643e 862b f73e 2d4c aa3e
000001e0: cd59 c23e 74ba c43e 36af 6e3f 1c33 f73a
000001f0: b607 d73e 9b3b b23c bdd4 e83d 811b f33e
00000200: e81d 353e e237 803e 2e30 d33e 7d01 393e
00000210: 0a8e 163e 3b6b 773e e064 b93d d7d9 1b3e
00000220: 92e0 da3d 0719 a83e 8b98 9b3e fdac c23e
00000230: 21a4 933e 9491 903e d173 c13e 5055 a43e
00000240: da2e d83d dbd2 a13e 95ec 883e 09fc 413e
00000250: b66e a23e 7e74 7a3c ef69 a23d 8811 173d
00000260: ceca 083a d983 5b3e d0c3 de3d f0a1 5f3d
00000270: 9c16 d13d 4395 453d e434 633d 9dcc b43d
00000280: fd75 ba3d 017c 193d 962b c73d c013 733e
00000290: 3bc0 9c3e 159e 3d3e 5f9b 1d3f 702b da3e
000002a0: c753 093e 1049 9c3e dc79 5a3e a109 293e
000002b0: 1c1c c03d 1d77 443c a15f c53d 694e a93d
000002c0: 64d2 ab3d 25d8 673d f2a4 ab3d afe5 c13d
000002d0: 2890 8d3b 6f24 6e3d 72d6 a93c b667 363d
000002e0: 5a74 063e de94 853d 220f 1d3d 3a5f 063d
000002f0: 7a85 ee3c 5591 4a3e 293d a53e b39d 473e
00000300: c706 2a3e 19a0 f53e 7686 c43e d44e 1f3e
00000310: 0b4d d33e 7875 c23e 4126 d33c a879 1c3d
00000320: 0b6c 0d3e c5e8 ec3c bad7 6d3e 4c44 853d
00000330: 008a 7c3d c4cb e93d 507d 813d 8032 823d
00000340: 0c7f 153d dfbe 963c b44d b43d 1ab2 b93d
00000350: e69b 883d 1bc9 233d fd03 5c3d 0ead eb3c
00000360: 7978 d53d 32de 623f c6af 253e 6443 983c
00000370: 4db5 1b3f bbcc 733d a68f 963e c9da 243f
00000380: dc72 7a3e 92ab 7b3d d095 873d 29d4 7a3f
00000390: 26ad 473e a2c0 703d cce2 133b 606c a93c
000003a0: 99b2 cc30 7e52 fb3e 800b d63c a9c9 1c3d
000003b0: 9653 a53d e9b7 6a3c 0ecd 913e 0076 8e3d
000003c0: 488b 863b 89fd 9f3e e5a1 243e fec4 fb3d
000003d0: fefe 943e e62f 383e 23aa 303e 73a9 4e3e
000003e0: 3fdc 4c3e 9c75 733e 752c a03e b223 9e3e
000003f0: f58e 8f3d 6280 093e da99 773e 2c1e 3b3e
0.56465256 0.54092246 0.59671265 0.7643491 0.4688616 0.66003233 0.6467845 0.65958905
0.5713961 0.3018373 1.2067461 0.2020182 0.623659 0.32050198 0.18058735 0.023394475
0.0014096148 0.07053005 0.40884593 0.19542398 0.209285 0.1324304 0.18232878 0.12435079
0.28091168 0.09311257 0.10842813 0.070535 0.021898722 0.042074572 0.105622195 0.15855666
0.12546341 0.11198484 0.18586983 0.10702769 0.041720897 0.02333316 0.19039276 0.00012426112
0.1292964 0.021795135 0.049806982 0.08445544 0.0510885 0.055639848 0.033959292 0.0063056583
0.037321128 0.088981785 0.03302751 0.024466762 0.06567402 0.019324742 0.32244676 0.27937514
0.2548011 0.28597203 0.29180178 0.34527522 0.3390548 0.38527402 0.52496284 0.075158745
0.04479664 0.014230114 0.055496242 0.7210599 0.0050884555 0.11365912 0.073263146 0.07106189
0.20178697 0.03176877 0.024043946 0.18809605 0.16867556 0.062249597 0.062338963 0.010948055
0.03866311 0.017282333 0.18628773 0.2939986 0.37935972 0.28525037 0.4205768 0.2606315
0.3224579 0.3284045 0.05979345 0.45364404 0.032907646 0.21080141 0.0218222 0.07350679
0.009503645 0.20813574 0.013759936 0.11430372 0.08398114 0.047778916 0.10432102 0.0738878
0.049877632 0.1550605 0.06280837 0.021517646 0.9017169 1.1289386 1.1699176 1.0625229
0.010588621 1.1279685 1.0128595 1.1169049 1.2440788 0.2227242 0.48275393 0.33261243
0.37959138 0.38423502 0.932361 0.0018859836 0.4199807 0.021756938 0.113687016 0.4748192
0.1768719 0.25042635 0.41247696 0.18066974 0.14702621 0.24161999 0.090524435 0.15219818
0.10687365 0.32831594 0.3038982 0.38022605 0.28836158 0.28236067 0.37783673 0.32096338
0.10555811 0.31606182 0.26742998 0.189438 0.3172509 0.015286563 0.079303615 0.036881953
0.00052182085 0.21437015 0.10877192 0.054597795 0.102093905 0.04823805 0.055470362 0.088280894
0.09104536 0.037471775 0.0972511 0.23738003 0.3061541 0.18517335 0.615652 0.42611265
0.13410865 0.30524492 0.21335548 0.1650758 0.093803614 0.011991289 0.096373804 0.08266909
0.08389738 0.056602616 0.0838107 0.09467637 0.0043201633 0.058140215 0.020732138 0.0445325
0.13130322 0.06522535 0.03834451 0.03280566 0.029116381 0.19782002 0.32273224 0.19493751
0.16604148 0.47973707 0.38383836 0.15557414 0.41269717 0.37980247 0.025775077 0.038201958
0.13810746 0.028919587 0.23226824 0.06507167 0.061655045 0.11415818 0.063227296 0.06357288
0.036498114 0.018401561 0.08803883 0.09067173 0.0667036 0.03998671 0.05371474 0.028769042
0.10423369 0.88620293 0.16180333 0.018586822 0.6082352 0.059521418 0.2940647 0.6439634
0.24457878 0.06144292 0.06620371 0.9797998 0.19499645 0.05877746 0.0022565601 0.02068156
1.4893714e-09 0.49086374 0.02612853 0.038278256 0.080725834 0.014326074 0.28476757 0.069561005
0.004105959 0.3124812 0.16077383 0.12293433 0.29100794 0.17987022 0.17252402 0.20181827
0.20005892 0.23775333 0.31283918 0.30886608 0.07009689 0.1342788 0.24179783 0.18273228

exp_avg f4 [16]
00000000: 5e6a 90be 1377 ab3d b467 223d 93d7 29be
00000010: 357c b2be 0b69 3c3d 3139 68be 2077 bb3e
00000020: 2fc0 84be ce2d 3abe 9df0 983e f982 1dbe
00000030: 56d3 99bd 8ec2 edbe b3ad 763e 9c77 e33d
-0.28206152 0.08372321 0.03964968 -0.16586141 -0.34860387 0.045998614 -0.22678067 0.36614323
-0.25927874 -0.18181536 0.29871073 -0.15381993 -0.07511012 -0.46437496 0.24089698 0.11106798

exp_avg_sq f4 [16]
00000000: 719e 2c40 8836 a33e efc9 a63f 182b ff3f
00000010: e109 9a41 d280 543f 59a7 1c40 aab8 a540
00000020: a80d 9940 44c4 5d3f a8d8 ec40 ca8a 6241
00000030: d670 5c41 fe8a 6740 4cd2 0740 e090 ea3e
2.6971705 0.31877542 1.3030375 1.9935026 19.254824 0.83009064 2.447714 5.178792
4.782917 0.866276 7.4014473 14.158884 13.777548 3.6178584 2.1222105 0.45813656

exp_avg f4 [32, 16, 3, 3]
00000000: 0ef0 4abc 4f62 3c3b 9a21 23bc 5daa efba
00000010: 1272 78bc 33e3 983b 7d3d d3ba a209 b63c
00000020: ffee d6bb 4ed6 1f3c 5f33 783b 7880 babc
00000030: 2b41 be3c ca84 1dbd 9fdc 213c 6764 a53b
00000040: 882d d139 d28c 0cbd d298 13bc aac4 ed3b
00000050: 7747 2139 3460 bdbc f303 05bd 8ed6 2a3c
00000060: 5810 afbb 6a81 60bb 3649 86bc 2ff9 dc3c
00000070: fa0f b5bc 02c0 8abb 6538 873c ef4e 38bc
00000080: a32c 55bc 2ad1 87ba e507 39bc c9d9 6cbc
00000090: 91d5 803b 98b1 20bc faaa a3bc 8433 deb8
000000a0: 41b0 57bc 1792 233b 8b32 90bc b7d7 de3c
000000b0: f438 b7bc c310 53bc aa3d e73c 4581 9cbb
000000c0: 7bed 583c b2a1 b73c fdbd e43b 02ac 303b
000000d0: 6930 76bc 31dd 803b c5f1 ba3c 7b61 ae3b
000000e0: 8ac6 24bc 18f7 b63b 7983 b3bc 20c8 6e3c
000000f0: 576e aa3c 79cf fabc d2b1 a03c 33bf 453c
00000100: cf89 4f3c 0971 cabc ec29 883c b77e 4c3c
00000110: 3369 29bb 7e98 48bc b655 203d e30b 0bbc
00000120: 98d4 ebba 8039 06bc 0f20 793c ce8e debb
00000130: df81 22bb 2d7f d5bb 7245 623c 887f 83bc
00000140: d0d3 a83b 7f6a a13b 7316 643b 2cdf 83bc
00000150: 133e 25ba 030e 20bc 1722 a0bc 9999 0a3b
00000160: dce6 383c 982e 94bb 6a1a 2f3d eeb3 94ba
00000170: e063 08bc 02ca e43c 4ce9 943c 068b 803b
00000180: d338 473c 7ea8 2cbb 246c 3a3c a798 b43c
00000190: 1b62 aebc 2cbe 20bc 93e0 d03b f79c 91bc
000001a0: cb76 79bc 759a 68bc f194 4ebc fef7 dbbc
000001b0: 7695 7abb a296 1139 3586 913b d79e 70bc
000001c0: a302 65bc 927e 64bc 905d 10bc ec61 5cbb
000001d0: d1e8 513a 71da d53c 2600 62bb 1ff2 ffbc
000001e0: f498 d23b 3cc5 30bd bf10 2fbc 57a5 59bc
000001f0: 0967 30b9 3226 63bc 14a1 5abc 0830 ea3b
00000200: 4bd2 22bc 7a1a 1fbc 9e52 1dba 2647 0fbc
00000210: 6b95 c03a 8cea 843c ce32 503b b350 ba3c
00000220: 5ca4 f03c fc18 1f39 0f95 ad3c 2b74 b13b
00000230: c25d 96ba cc90 993c 5305 7ebc 5e7d f63c
00000240: 6aab bdbc 68e1 b5bc 4633 a6bc d9f1 b5bc
00000250: 4ae7 cbbc 7003 1fbc 13ea 8bbb 6fb3 c6bb
00000260: 076c 203c dcd0 80bc 1812 0e3b 7c2b 3abd
00000270: 8385 763b e57f 02bd 4326 dbbb 3e47 013c
00000280: 27da f9bb 99af 71bc da42 99bc 6497 a1bc
00000290: 67dc 23bd dfd5 ddbc 2ca6 e3bc 38d3 afbb
000002a0: 38af 03bd e030 24bd e650 d0bb 99f6 1ebc
000002b0: 9150 1cbd 4a4d 17bd 4ba7 eabb a96f 62bd
000002c0: 14bf 6ebc c678 d03b 0897 9bbb 4891 d9ba
000002d0: e6e3 37bc f4e8 08bd 0453 02bd 0ff2 6ebb
000002e0: 050e 53bd 93c6 ae39 aa34 24bc f5bc b23a
000002f0: 4f75 c03a 7ba4 0bbd 4372 8ebc 7227 13bd
00000300: 8abc 60bc 0c92 603c d94c 67bc be75 86bb
00000310: f1b3 413c d997 66bc 0242 c0bc b1a1 15bd
00000320: 2618 30bd 6366 3dbc 96cc d9bc 3e3e ccbc
00000330: e822 56bc 04ae debc 21ca 37bc 6c79 b5bc
00000340: 1476 3abd 1796 e6bc 978c 02bc 70a7 5ebd
00000350: b079 f6bc 90f7 023c 01f4 13bc 3944 1abc
00000360: 91f8 f13b c296 84bc 060e 16bc 8214 febc
00000370: 716a a6bb a25a 47bb ff73 f03b 2ddf 0fbb
00000380: 6d02 4bbc 50af 1ebd 08de 55bd bce2 e6bc
00000390: c98e 85bc c546 f2bc 22ad 34bc 85ac 8cbc
000003a0: 8b0e 35bc 08ae 483b ce21 e0bc b064 26bd
000003b0: 5ed6 aebd 9890 c3ba aa5e 74bd e4c5 b1bd
000003c0: f5b5 11bc cd1d 563c bcc3 2bbd 4275 f03a
000003d0: 69f9 19bd f464 763b b3f6 593a 03eb 2abd
000003e0: 1791 35bc a92a 9bba 4cb8 6abc e0d5 0c3b
000003f0: 342e 85bc 2444 a9bc 3ba8 03bc f397 92bc
-0.012386335 0.002874512 -0.009956742 -0.0018285025 -0.015163915 0.004665756 -0.0016116347 0.02222139
-0.0065592523 0.009755684 0.0037872416 -0.022766337 0.023224434 -0.038456716 0.00987926 0.0050473693
0.0003989751 -0.034313984 -0.009008603 0.00725611 0.00015380779 -0.023117162 -0.03247447 0.01042713
-0.0053425245 -0.0034256824 -0.016392332 0.026974289 -0.022102345 -0.004234315 0.016506383 -0.011249288
-0.0130111305 -0.0010362018 -0.011293386 -0.014456221 0.003931709 -0.009807967 -0.019978989 -0.000105953804
-0.013164581 0.0024958903 -0.017602226 0.02720247 -0.022366025 -0.012882414 0.028227646 -0.0047761523
0.0132402135 0.02241597 0.006980656 0.0026957993 -0.01502619 0.003932618 0.022820363 0.005321679
-0.010057101 0.005583655 -0.021913277 0.014574081 0.020804567 -0.030616509 0.019616041 0.012069511
0.0126671335 -0.024712102 0.016621552 0.012481383 -0.0025850057 -0.012243388 0.03914424 -0.008486721
-0.0017992435 -0.00819242 0.015205397 -0.006791926 -0.0024796647 -0.0065154047 0.013810502 -0.016052023
0.005152203 0.0049260254 0.003480342 -0.016097628 -0.00063035 -0.009768966 -0.019547505 0.002114868
0.01128551 -0.004522156 0.0427498 -0.0011345127 -0.008324593 0.027928356 0.01817765 0.003922823
0.012159544 -0.0026345546 0.011378322 0.022045447 -0.021287015 -0.0098109655 0.0063744276 -0.017775042
-0.015226076 -0.014196982 -0.012608753 -0.02685165 -0.0038236058 0.00013884393 0.0044410476 -0.014686308
-0.013977679 -0.013946192 -0.00881137 -0.0033627702 0.00080074096 0.026105138 -0.0034484952 -0.031243382
0.006426925 -0.043156847 -0.010685145 -0.013284049 -0.00016823052 -0.013864087 -0.013344068 0.007146839
-0.009937833 -0.009710902 -0.00060013856 -0.00874499 0.0014692968 0.016225122 0.0031768563 0.022743559
0.029375248 0.00015172729 0.02118924 0.0054154596 -0.0011472034 0.018745802 -0.015504199 0.030089077
-0.023153026 -0.022202209 -0.020288121 -0.022210049 -0.02489056 -0.009705409 -0.004269847 -0.0060638706
0.009791381 -0.015724592 0.0021678265 -0.045451626 0.00376162 -0.03186025 -0.0066879108 0.007890521
-0.0076248827 -0.014751338 -0.018708635 -0.019725509 -0.040005114 -0.02707952 -0.027789198 -0.0053657554
-0.032149523 -0.040085673 -0.0063573 -0.009702348 -0.03816277 -0.036938943 -0.007161056 -0.05528227
-0.014571924 0.0063620536 -0.004748229 -0.0016599083 -0.011223769 -0.033425286 -0.03181745 -0.0036460196
-0.051527042 0.00033335816 -0.010022322 0.0013636636 0.0014683398 -0.034092408 -0.017388469 -0.03592629
-0.013716826 0.013706695 -0.014117443 -0.0041033914 0.0118226865 -0.014074289 -0.023468975 -0.036531154
-0.04299178 -0.011560055 -0.026586812 -0.024932023 -0.013069846 -0.027182586 -0.011217625 -0.022152625
-0.045522764 -0.02814774 -0.00796809 -0.0543589 -0.030087322 0.007993594 -0.009030343 -0.00941568
0.0073843678 -0.016185168 -0.009158617 -0.031015638 -0.005078607 -0.0030419012 0.0073380466 -0.0021953091
-0.012390715 -0.03874141 -0.0522137 -0.028184287 -0.016303437 -0.029574761 -0.011027606 -0.017172107
-0.011050831 0.0030621309 -0.02735987 -0.040623367 -0.08536981 -0.0014920412 -0.05966059 -0.08680323
-0.00889348 0.0130686285 -0.041934714 0.0018345492 -0.03759137 0.0037596794 0.0008314654 -0.04172803
-0.011081955 -0.0011838275 -0.014326166 0.0021489784 -0.016257383 -0.020662375 -0.008035715 -0.01789472
