GridWorld/Sec_Try/4/dqn_model.pth (torch, 435672 bytes, 8 tensors)

conv1.weight f4 [16, 3, 3, 3]
00000000: 13be e73d e9db 543e 2cd8 743e 0ece 1fbe
00000010: ae07 49be b2e9 553d c6fe 253e 392d 41be
00000020: 633a a33e b67d 4d3d 1dbe 033d 56ea 213d
00000030: cf5f b03b f82c 6f3d 83c4 163e 6e0f d23d
00000040: 8ff6 2d3e 7586 313d 4750 7e3d 1699 293e
00000050: 02d9 b4bd 932e 51bd e054 81be a72b 3c3d
00000060: eda1 fbbc 02b5 22be 9f11 53be 723e 5dbd
00000070: 2f80 f53d 0d89 abba f67d 9c3c 7220 7ebe
00000080: 9970 d4bc 4054 b4be 9288 b3bc de2a 613e
00000090: ccbb 253e 27df 673e 73b8 b8bc fa3d 8c3e
000000a0: fb55 0cbe 54ba 483e 0470 22be 8ad2 8f3e
000000b0: 35f3 9a3d 96e7 49bd fe4b 833e a5d0 5c3c
000000c0: e835 3b3c e452 02be c847 4ebe 0ef8 97bd
000000d0: f04c 03bb 4734 a43d ea38 18be 5835 983e
000000e0: 0472 eabd 7aaa a23e 0e4c c039 4187 233e
000000f0: de45 163e fc53 02be fb3c 20bc 6260 eebd
00000100: e5b6 053d e31c f7bc f93d e83d b819 2b3e
00000110: 4be9 84bd 75d9 11bd 745d 1a3b 6f30 5abd
00000120: ca0a 36bb bb91 383e c569 0dbe 3556 6c3e
00000130: da04 523e 3ca0 983e 6aa1 f9bd 6f21 cfbd
00000140: 08d9 e63d 9056 ffbc b5a9 6bbd 1379 883d
00000150: 5122 17bd 6363 223e 8636 753d 7c8e 0cbe
00000160: adf5 a03e 183e 91bd f905 93bd 6cb4 143d
00000170: 84e4 963c 51bc fc3d e2fa ac3d 7410 b13d
00000180: 0063 203e c609 d73d 69ca 20be 77b6 133e
00000190: 3b1a 37bd 6121 3ebe f932 963e eab3 0abe
000001a0: de76 0b3e 58b3 f43d d00c 113e a3ce cbbd
000001b0: 1a6a ae3e 940e cd3e fd0c 303e 58ce c4bd
000001c0: eae1 05be 6899 cf3d 58f7 aabd 6a38 483e
000001d0: b2e6 3dbe a74b 87bd c712 503b 0d81 e13d
000001e0: b4b3 a03d 7dbb 373b 599c 853c 1402 0f3d
000001f0: 48b9 1dbe 0716 633d 8e99 283d 1a0e 743e
00000200: 7205 7abd 708e 0c3e 1a82 063e 96f9 4a3d
00000210: fca8 01bc 45c9 0dbd dc66 543e 1a68 703e
00000220: 092f 3dbd 238a da3c 0175 d3bb e02d 283e
00000230: 0fca dc3d 7ce5 4f3e aa4f 7ebe 6040 37be
00000240: fd25 ee3c 80ad d7bd 5530 3c3e a19b d83d
00000250: ede8 4ebd 343e 5b3d 6c2a f9bd 22a5 fcbd
00000260: b42b 783d c6c2 cd3d 5b94 3a3e 256d 29bd
00000270: 40f2 813d 6510 40be e5f3 0fbe 9398 98bd
00000280: 3781 58be ef74 55be 39c8 823e 184c ca3d
00000290: e40d 003e e7e1 18be 607e 413e f514 873e
000002a0: bea1 2ebe 376c 46bc 059e 47be 4ac9 b4bd
000002b0: 3d66 2e3e b7fa bcbd 7528 1dbe 64e3 ec3d
000002c0: c2ff 0c3d 8737 0dbd 2a72 b9bd 156f 2f3e
000002d0: ae22 973a a733 20be 9780 893d e33f 7dbe
000002e0: 6ccc 47bd 3e79 1bbd 99e3 28be 2287 d63d
000002f0: 2ea3 99bd c518 d2bc b94e 233e e487 873d
00000300: 75d5 3c3e c606 b43d 9d10 7fbd 9ff3 dd3d
00000310: e730 a5bd cbfc 70be e992 49be bb51 643d
00000320: e608 92bd f622 32be 9e8f 3fbe b0b4 b73d
00000330: afbd 673d 60ee 0fbe 1db1 1a3e f866 5e3e
00000340: 0680 373e 44c6 50bd 0ccc a03e 7846 843e
00000350: d2e6 c9bd 7764 193d db53 b33d af7d 00be
00000360: 0bc8 a03e f2c2 77ba ff93 8d3c 2e21 053e
00000370: 0085 e3bc 26a3 d8bd b80b 633e 1ac4 6fbe
00000380: 4362 9d3d 8333 c43d d465 cebb e576 97bd
00000390: 48cb 4f3d 9817 123e bb31 513e 2ecc 133d
000003a0: 6a28 093e a251 22be 8b92 dc3d 330e 17be
000003b0: b1f5 49be 736c b43d 5bbb de3c c995 19bd
000003c0: 0ece ce39 bbd1 22be f5e1 57be 55f1 aebd
000003d0: 0edf 76bd 9874 de3d 66e4 7e3d 75ff bc3e
000003e0: c164 e3bd 4fce e23d 28cf a83e 1381 5b3c
000003f0: 1785 4fbe 388e 403e 35e8 97be 9d3f 2bbe
0.11315551 0.20787014 0.23910588 -0.15605947 -0.19631836 0.052224822 0.1621047 -0.18864907
0.31880483 0.050168715 0.032163728 0.03953012 0.005382515 0.058392495 0.14723401 0.10256849
0.16988586 0.04334112 0.062088277 0.16562304 -0.088304535 -0.051069807 -0.25260067 0.045940068
-0.03071686 -0.15889362 -0.2061219 -0.05401463 0.1198734 -0.0013087109 0.019103032 -0.24817064
-0.025932597 -0.35220528 -0.021915708 0.21989009 0.1618492 0.2264372 -0.02254889 0.27391034
-0.13704674 0.19602329 -0.15863043 0.28090316 0.07565919 -0.049293123 0.25643915 0.013477479
0.0114264265 -0.12726933 -0.2014457 -0.074203596 -0.0020034872 0.080177836 -0.14865461 0.29728198
-0.11447528 0.31770688 0.0003667776 0.15969564 0.1467509 -0.1272735 -0.009780164 -0.11639477
0.032645125 -0.030165141 0.11339945 0.1670903 -0.064898096 -0.035607774 0.0023554238 -0.053268846
-0.0027777427 0.18024342 -0.13809879 0.2307976 0.20509663 0.2980975 -0.121889904 -0.10113799
0.11271864 -0.031169206 -0.057534892 0.06663718 -0.03689796 0.15858226 0.05986645 -0.13726228
0.31437436 -0.070919216 -0.071788736 0.036304876 0.018419512 0.12340606 0.084462896 0.08645716
0.15662766 0.10499911 -0.15702213 0.14425074 -0.04470275 -0.1856742 0.29335764 -0.13545194
0.13619563 0.119482696 0.14165044 -0.09951522 0.34065324 0.40050185 0.17192455 -0.096096694
-0.1307446 0.10136682 -0.08347958 0.1955277 -0.18545035 -0.066062264 0.0031749473 0.110109426
0.07846776 0.0028035336 0.016309904 0.03491409 -0.1540271 0.05544093 0.041162066 0.23833504
-0.06104035 0.1372621 0.13135567 0.04955443 -0.007913824 -0.034615774 0.20742363 0.23477212
-0.046187434 0.026677197 -0.006453157 0.1642375 0.10780727 0.20302385 -0.24835077 -0.17895651
0.029070849 -0.105311394 0.18377812 0.10576559 -0.050515104 0.05352612 -0.121662945 -0.12336184
0.060588554 0.10046916 0.18220656 -0.041363854 0.06345034 -0.18756254 -0.14057882 -0.07450976
-0.21143042 -0.20845388 0.25543383 0.09877795 0.12505299 -0.14929925 0.18895864 0.26383176
-0.17053887 -0.012110761 -0.19493873 -0.08827455 0.17031188 -0.092275076 -0.15347464 0.11566809
0.034423597 -0.034476783 -0.09054978 0.17132218 0.0011530721 -0.15644704 0.0671398 -0.24731402
-0.048778936 -0.037957422 -0.16493072 0.10474993 -0.07501827 -0.025646577 0.15947999 0.06617716
0.18440802 0.087903544 -0.062271703 0.10837483 -0.08065968 -0.23533933 -0.19684948 0.055742007
-0.071306035 -0.17396149 -0.1870713 0.0897001 0.05657738 -0.14055777 0.15106626 0.21718967
0.17919931 -0.05097033 0.31405675 0.25835013 -0.098584786 0.037449326 0.087562285 -0.12547944
0.3140262 -0.00094513514 0.017282484 0.13000938 -0.02777338 -0.10577993 0.22172439 -0.2341465
0.076847576 0.095801376 -0.00629876 -0.07395724 0.050730973 0.14266813 0.20429127 0.036083393
0.13394323 -0.15851453 0.10770138 -0.1475151 -0.1972263 0.088097475 0.027188947 -0.037496362
0.00039444905 -0.15900318 -0.2108229 -0.08542124 -0.060271315 0.10862082 0.062229536 0.36913648
-0.11103202 0.110745065 0.32970548 0.013397473 -0.20265613 0.18804252 -0.29669347 -0.16723485

conv1.bias f4 [16]
00000000: ad46 7f3e 97d5 be3d a511 603e ed20 473c
00000010: 7c46 5339 6d3b 9d3e 1d3c 883e d99e 55bd
00000020: 892f 863e e12f c5bd 5d3f e33d d038 863d
00000030: c05c 90bd ca9f 823e 2255 04be dd6b 873e
0.24929304 0.09318083 0.21881731 0.012153846 0.00020148786 0.307094 0.26608363 -0.052153442
0.2620814 -0.09628273 0.1109607 0.06553805 -0.07048941 0.25512534 -0.129231 0.2644948

conv2.weight f4 [32, 16, 3, 3]
00000000: 48be 553d 2332 a33c 6569 483c ddbb c3bc
00000010: af99 3ebc b476 783b 8dac 213e 6155 2d3d
00000020: bed9 3a3d 88c2 913d 1861 e9bd 98e1 58bd
00000030: f4c2 eabd 7872 c1bd 9e8f a83b fd05 e73d
00000040: c3ff 4fbe 4b50 30bd f8fe 55bc 3b78 2ebd
00000050: deb7 803d f0a8 1f3d 2ed6 a63d 2d46 703d
00000060: d17b 89bd b4dc f53c 7288 40bd f5d6 50bb
00000070: f96b 833c 6443 aabd 0c40 aebc 2868 463b
00000080: fd9d 66bd 1b5e a3bd 0208 b6bd db80 58bd
00000090: 7902 c8bc a73e 23bd b03c e9bd f12e 1bbe
000000a0: cd79 833d 955a ad3d c12f 603e ae40 663e
000000b0: 0c37 b03d 92dd d1bd a0fb 073d 64ad 42bc
000000c0: ed3c ae3d db64 5d3c 1a62 103e d157 1abc
000000d0: 9b9f 083e cc7a 223d 92b1 923c 8554 543d
000000e0: 2a47 a0bd 42ec ac3d 950e eabc 14ab 063d
000000f0: 1001 2c3e 2f5f 223e 1ad9 103e 7a56 57be
00000100: 5d32 bcbd bab9 293d 2fb4 afbd dc34 6e3c
00000110: 2d8e 853d 0bf1 62be 351e f6bd 11c8 cb3c
00000120: 1dd6 6b3d ca00 003d 327d d8bc 51b7 133d
00000130: 4953 0b3d f78b ac3d e4e7 7fbd e2e4 9a3d
00000140: 83ed e93c 6da0 4a3d 6c11 ef3d b63e 283e
00000150: e408 853d 5716 f93d d7e1 aa3d 2bd6 4c3d
00000160: 135c d2bc b7bd 05bd 67a4 6f3d 58bd 103e
00000170: 2562 123d 8ecc f13d f620 d2bd 69cc e8bd
00000180: 3233 4cbe 3af8 623d e37c debd ddf8 dabd
00000190: 2226 763d 1d36 113d 9734 553e dc83 d33d
000001a0: d32a d93c 3948 20bd 74f3 e93c 6706 113e
000001b0: 9ca7 16be f7e6 67bd 618e e0ba 867c 613d
000001c0: 7bbb 7abb c012 36be 2eb6 24bd 3c80 1a3d
000001d0: f23e bebc 76e2 e83d bf0c 033d fd0c 023e
000001e0: 02ac f13d de4e 2cbd 286b 60bd 75f2 e33c
000001f0: 225b 43bd eda1 24bb dc8a 143c ed6b edbc
00000200: 219f f63d bb1a ad3d c9aa ad3d 80b3 b53d
00000210: 8da4 9c3c edce f13d b3ba 013d ee24 713d
00000220: 37ec 8b3c 6474 4f3d 5f22 943d 6ff2 743d
00000230: 6afd 883c 6e51 1a3e 9767 9e3d bfeb 61bc
00000240: 467d 3c3d 43b4 eebd c04d 9fbc 6412 ebba
00000250: fbb9 333e 08b7 05bd 7228 793d b42b 203e
00000260: a102 eebd e91f 363e 6c97 17be aef8 0fbe
00000270: 8618 5dbe 2951 453d 92a8 10be 0a76 2dbe
00000280: 9902 43bd db64 07be 0f7f 523d 2444 d9bc
00000290: 3dfd 1c3e 5454 cabc bf64 de3d 2583 053d
000002a0: e0dc e93d 3b23 cbba cfd4 05bd 79f2 13bd
000002b0: 059a 7e3d 77f1 0fbc 2416 cfbc 9fc0 69be
000002c0: 0eab 2f3d fe88 63bc 4ac0 06be 7a69 193c
000002d0: 63d1 60bd 973d 0bbd 87cd 88bd 90e7 c43c
000002e0: f71a 533c 3d52 7c3e 8509 f63c 7503 0b3e
000002f0: 8f37 013e 93a9 9cbc 91a2 f13d 2449 a83d
00000300: 677a 0e3b eb8a e73c eec3 233b b04c 6ebd
00000310: 3dfd 8b3d 9d00 1a3d db84 523d 48ad 25bd
00000320: c5c0 203d 5840 b439 c7e3 1b3d cae1 9bba
00000330: 9237 863d e05a b03d 76f6 56bc 80b8 33be
00000340: ffde d0bd b6bf b83d 80c6 e5bd f58e a0bd
00000350: 99cb 1cbe 9fa2 efbd 02e1 4abe 5a09 ddbd
00000360: c1fd 8cbd 827a 82bd 78f5 af3d b9d4 223c
00000370: 3903 ff3c 7b8c e73d 9516 f63c ad48 0d3e
00000380: 4162 18bc c6d5 963c 57e0 153e d851 9a3c
00000390: db2a da3d f824 a33c 0e55 033e 56dd d33d
000003a0: 383d a1bd 6df0 833e d943 e73d aa45 7c3d
000003b0: 1543 16be 178b 1fbd 415d f2bd 67a8 d63b
000003c0: 53b3 bdba 70e3 05bc 6325 33bd 5098 d6ba
000003d0: 3f04 b63d 6475 033d 1593 0a3d ff33 ce3a
000003e0: 7670 1b3e 4242 9dbc baf7 ae3d 7ac0 cb3d
000003f0: 16da d03d ae02 8a3c 4e5c c1bd b1ac 4dbd
0.05218342 0.019921368 0.012232159 -0.023893291 -0.011633321 0.003791255 0.15788479 0.04231775
0.04561781 0.07117182 -0.11395472 -0.052949518 -0.114629656 -0.09445661 0.0051440736 0.11280439
-0.20312409 -0.043045323 -0.013061278 -0.04259513 0.0628507 0.03897947 0.0814632 0.058660675
-0.06713069 0.030012466 -0.047005124 -0.0031866406 0.016042696 -0.08313635 -0.021270774 0.0030274484
-0.056303013 -0.079769336 -0.08888246 -0.05285726 -0.024415242 -0.03985467 -0.11388528 -0.15154625
0.06419716 0.08464543 0.21893217 0.22485611 0.08604249 -0.10247339 0.033198953 -0.01188216
0.085077144 0.013512815 0.14099923 -0.009420351 0.13342135 0.03966789 0.017906938 0.051838417
-0.078260735 0.084435 -0.028571406 0.032877997 0.1679728 0.15856622 0.14145318 -0.21029082
-0.091892935 0.04143689 -0.08579289 0.01453897 0.065212585 -0.22162263 -0.1201748 0.024875673
0.05757724 0.031250753 -0.026426885 0.036063496 0.034014974 0.08425134 -0.062477008 0.07563187
0.028555637 0.0494694 0.11673245 0.16430172 0.064958364 0.12162464 0.08343857 0.050008934
-0.02567867 -0.03265163 0.058506396 0.14134729 0.03573813 0.11806594 -0.10260193 -0.11367113
-0.19941404 0.05541251 -0.10863664 -0.10691998 0.06009496 0.035451997 0.20820843 0.103278846
0.026509678 -0.039131377 0.02855847 0.14162599 -0.14712375 -0.05661675 -0.0017132276 0.055050395
-0.003825872 -0.1778059 -0.040212803 0.03771995 -0.023223374 0.11371319 0.031994577 0.12700267
0.11800386 -0.0420674 -0.054789692 0.027825573 -0.047694333 -0.002512093 0.00906631 -0.028982127
0.1204207 0.08452364 0.0847984 0.088721275 0.019121433 0.11807046 0.03167219 0.05887311
0.01708041 0.050648108 0.07233118 0.059801515 0.0167224 0.15070125 0.07734602 -0.013789116
0.046017908 -0.11655476 -0.019446254 -0.0017934558 0.17551415 -0.032645255 0.060829587 0.15641671
-0.11621595 0.1778561 -0.14803857 -0.14059708 -0.21591386 0.048173103 -0.14126804 -0.1693956
-0.0476099 -0.13222067 0.051390704 -0.02652175 0.15330978 -0.024698414 0.108590595 0.032595772
0.11419082 -0.001549817 -0.032673653 -0.03611991 0.062158603 -0.008785597 -0.025279112 -0.22827385
0.04288774 -0.013887642 -0.1315929 0.0093635265 -0.054887187 -0.033994284 -0.06679826 0.024036199
0.012884847 0.24640746 0.030033836 0.13575538 0.1261885 -0.019123828 0.11798585 0.082170755
0.0021740438 0.028264483 0.002498861 -0.058178604 0.06835411 0.03759824 0.051396232 -0.040448457
0.03924634 0.00034380215 0.038059022 -0.0011892852 0.06553568 0.08611083 -0.013120284 -0.1755085
-0.10198783 0.09020941 -0.112195015 -0.07839767 -0.15312041 -0.117009394 -0.19812396 -0.10792799
-0.06884337 -0.06371023 0.08591741 0.009938412 0.031129466 0.113060914 0.030040065 0.13797255
-0.009300769 0.018412482 0.1463636 0.018837854 0.10652705 0.019915089 0.12825415 0.10344951
-0.07873005 0.25769368 0.11292238 0.061589874 -0.14674027 -0.038951006 -0.11834193 0.006550837
-0.0014472998 -0.008171901 -0.043736827 -0.0016372297 0.08887529 0.032094374 0.033831675 0.0015732049
0.15179619 -0.019196633 0.08543344 0.09948821 0.101978466 0.01684698 -0.09441434 -0.05021352

conv2.bias f4 [32]
00000000: a42f b93c 5c05 e23d 7bd0 373d 26d2 a0bc
00000010: 5c6a 493d 67d6 83bc 0870 80bb 3ef9 273c
00000020: 8649 0a3e 0d5b f23d a2d1 6fbc f510 ef3d
00000030: 5ee0 52bc 33e3 7a3d be9b a43d af74 af3c
00000040: 17c8 6f3d f604 633a 823a f73d eb79 2f3e
00000050: 9d68 8e3d 6cae e13d 80fd 4b3d a00d 0e3e
00000060: 4d86 e93d d0a6 d93b b14d d63d 5013 183c
00000070: 174e 0b3e c4f6 833c af25 8e3c afd3 163e
0.022605725 0.110361785 0.044876557 -0.019631457 0.049173698 -0.016093446 -0.003919605 0.010252295
0.1350461 0.11833773 -0.014637383 0.11673156 -0.012870876 0.06125183 0.08037518 0.021417944
0.05854043 0.0008660102 0.12071706 0.17136352 0.06953547 0.110195965 0.049802303 0.13872385
0.11402569 0.0066422 0.10464037 0.009281948 0.13604008 0.016108878 0.017351953 0.14729188

fc1.weight f4 [128, 800]
00000000: 6415 843b aea7 87bc fb63 6a3c 384b eebc
00000010: 0aab 183c 7efc ce3c f9bc d2bc 1ecb c23c
00000020: d5de 5a3c d269 593c 9479 03bc b76b cfbc
00000030: 68a6 b6bc 37cc e4bc 3a5b 07bc 2038 19bd
00000040: 5079 913c feb5 a9bc 7bce ce3b 9586 5cbc
00000050: 2879 3537 1f9d 42bc a99c 9c3c 177c 143c
00000060: 4aed cfbb aeec dfbb 42fc 97bc 15c9 0dbd
00000070: c877 e83b abb9 ce3c 4810 c6bc f5e8 0ebd
00000080: 2521 05bd 17f8 c6b8 e63e 3e3c feba 683c
00000090: ec75 eebb 54e0 22bc fbc7 a3bc fe12 b2bb
000000a0: 0dd2 853c 3440 75bc 5328 0b3d 9978 003c
000000b0: 97a7 b5bc 65a0 ddbc 956a 743c ab3e b73c
000000c0: 4ac1 debc 59e9 d0bc b6c5 673c 94a9 2ebc
000000d0: 782e c8bc 8c9e f6bc 986c 56bc 039c 9fbc
000000e0: 4101 833b a0b6 b3bc 4232 ea3b 0bad d53c
000000f0: cef8 813c 4947 b5ba 5793 0bbd 7962 e7bc
00000100: 2afb e0ba a9a1 ee3c afc6 163a a793 3f3a
00000110: 1237 493c bc74 8cbc 23c6 29bc a0c9 df3b
00000120: 8ad6 fb3c 2307 ae3b d2be d6bc 20a2 db3c
00000130: 74df 4e3c 50c6 203c e65e d43c 034c 0fbd
00000140: 5e8f ff3c dd36 f33b 9f97 32bc ea0e 023c
00000150: 80c7 f2bb e6c8 b43c 80b2 953c 7958 00bd
00000160: 2078 adbc 9f16 523c d27e b63c 79f4 c3bc
00000170: 93c5 ae3b 58f6 933c 9a02 dc3b 4d4a ce3c
00000180: 5ceb 9d3c 273f 9ebc 413e 213c f968 ae3c
00000190: 368f e33c cb9b 1a3c 5d37 353c 75e4 f33c
000001a0: 788c 08bd 30e9 3a3b e852 51bc a47f c63c
000001b0: 78a7 febc 25f3 fd3c 4d67 debc fd59 02bb
000001c0: e05e a3bc 2db0 dcbc c70d f3bc 98e5 6a3c
000001d0: 70de 3d3a cadb a8bc a82e 913c ad7f cd3c
000001e0: bc3f 003c e6eb d7bc e2a3 313c a139 d7bb
000001f0: d4a8 ce3c 30d1 f7bc bdf3 bcbc ca0d 8d38
00000200: a7e0 afbc 6e34 8bbc c08e 10bd 5408 abbc
00000210: 4ea4 5fbc 13cf b3bc a877 c83c 2d96 003d
00000220: b647 dabc e78d 353c 9836 31bc 4293 34bc
00000230: 332c 8fbc 87df 3f3c 0e5c c93c d121 e83b
00000240: 912b 4fbc 0d3c 79bc b2ef f53c bb53 ca3c
00000250: e76a 183c a42a d53c de55 b03c 2050 583c
00000260: 8c61 db3b 6809 91bc 63de c9bb 4e97 eb3c
00000270: f0c6 3a3c 0381 f2bc e563 02bd 7423 e33c
00000280: 69e5 853c a347 78bc 0c13 88b9 975b bebc
00000290: c120 833c 8aec a7bc ba70 c43c 664f ea37
000002a0: 54cf 53bc f9d2 96bc f7fc a7bc 8217 95bc
000002b0: 73fc 08bd 72f4 283c 8dfe 093d 9886 ef3b
000002c0: 3f46 013d c4ce c43c 1f5d a0bc 2eb2 df3a
000002d0: d55a 5e3c e7ea 24bb 70a6 10bb 6590 cf3c
000002e0: f38b d0bc 176f 44bc bda0 8dbc eb30 1d3c
000002f0: 4635 19bb d886 77bc a0d0 11bb 3bb6 f8bb
00000300: 8287 eb3c e345 d1bb ab0e 08bc 098f 0abd
00000310: 1969 203c b839 013d cd73 a73a ed59 89bc
00000320: ea75 fe3c 66ca 273c 7448 073c 18e7 8db9
00000330: 1a59 5f3c c9ff 0bbd e00d dfbc 5f71 50bc
00000340: 8c41 593c 33a2 afbc 8e9b af3c 8fbf dfba
00000350: 2d35 c13a 1567 efba 029c b6bc ff5f c83c
00000360: df62 093d e0a0 d2bc ac46 67bc 2b65 c4bc
00000370: a158 0abd 50d2 b1bb a0c5 573c 164e adbb
00000380: 274d b9bc 355b c5bc a959 09bd deea 493c
00000390: 59e9 e63a 50a4 ea3c 5fd4 15bd 64b3 d03c
000003a0: 4e3e c4bb 1ac8 bab8 b3a8 453c a09a c33c
000003b0: 747c 093c 086a c6bc deba d2bc a62a 063d
000003c0: 760b dabb bc80 b83b 373f 0bbd e614 4b3b
000003d0: d039 033d fded b9bb 1ffd bebc 1776 ed3c
000003e0: 8116 fa3c 6ba7 0abd 6016 04bd 7ce0 603c
000003f0: ee70 0bbd 8926 b53b bb8f f7bc c505 e7bc
0.0040308703 -0.016559448 0.014306064 -0.029088601 0.009318123 0.025266882 -0.025724875 0.023778494
0.013358791 0.013269858 -0.008024592 -0.025319917 -0.022296146 -0.027929408 -0.008261496 -0.03740704
0.017758042 -0.020716663 0.0063112355 -0.013459821 1.081665e-05 -0.011878281 0.01911767 0.009062788
-0.0063454257 -0.0068336343 -0.018552903 -0.034615595 0.007094357 0.025235018 -0.024177685 -0.034890134
-0.032502312 -9.487586e-05 0.011611676 0.014204739 -0.007277241 -0.009941179 -0.019992819 -0.005434393
0.016335512 -0.0149689205 0.033974003 0.007841253 -0.02217464 -0.027054021 0.014917989 0.02236875
-0.027191777 -0.025501894 0.014146259 -0.010660548 -0.02443622 -0.030104898 -0.013087414 -0.019483572
0.003997952 -0.021937668 0.0071471045 0.02608349 0.01586571 -0.0013830449 -0.03407606 -0.028245198
-0.0017164696 0.02912982 0.0005751652 0.00073080737 0.012281196 -0.017145507 -0.010362181 0.0068294555
0.030741949 0.0053109094 -0.026214037 0.026810706 0.012626518 0.009812906 0.025924157 -0.0349846
0.031196292 0.0074223117 -0.010900407 0.007938126 -0.007409036 0.022068452 0.018273592 -0.031334374
-0.021175444 0.012822776 0.02227727 -0.023920285 0.0053336113 0.018061802 0.0067141773 0.025181914
0.019277267 -0.019317223 0.009841503 0.02129029 0.02777825 0.009436558 0.011060563 0.029772023
-0.033337086 0.0028520338 -0.012776114 0.024230786 -0.031085715 0.03099973 -0.027148867 -0.0019890063
-0.0199427 -0.026939476 -0.029669655 0.014336966 0.00072429236 -0.020612616 0.017722443 0.025085295
0.007827695 -0.026357602 0.010842295 -0.006568149 0.025226988 -0.030251116 -0.023065442 6.725972e-05
-0.021469427 -0.016992774 -0.035292387 -0.020877995 -0.013650013 -0.021949327 0.024471119 0.03139322
-0.026645523 0.011081195 -0.010816239 -0.011021437 -0.01747713 0.011711008 0.024580028 0.0070841094
-0.012644664 -0.015212071 0.030021522 0.024698129 0.009302831 0.02602131 0.02152532 0.013202697
0.006694978 -0.01770468 -0.0061605438 0.028758671 0.011399969 -0.029602533 -0.031833548 0.027726866
0.016344743 -0.015153798 -0.00025954132 -0.023237033 0.01600683 -0.020498533 0.023979533 2.7931947e-05
-0.012927849 -0.018411146 -0.020506365 -0.018199686 -0.03344388 0.010312187 0.033690024 0.007309746
0.031561133 0.024024375 -0.019575654 0.0017066651 0.013571461 -0.0025164427 -0.002207186 0.025337407
-0.025457358 -0.0119893765 -0.01728856 0.0095941825 -0.00233777 -0.015107833 -0.0022249594 -0.007590083
0.028751139 -0.006386505 -0.008304278 -0.033827815 0.009790682 0.031549186 0.00127756 -0.016766513
0.031062085 0.010241127 0.00825702 -0.00027065794 0.013632083 -0.034179483 -0.027228296 -0.012722342
0.0132602565 -0.021439647 0.021436479 -0.0017070639 0.0014740579 -0.0018264974 -0.022291187 0.024459837
0.033541556 -0.025711477 -0.014115971 -0.023974022 -0.03377593 -0.0054266825 0.013169676 -0.0052888496
-0.022619797 -0.024091342 -0.033532772 0.012324063 0.001761715 0.028642803 -0.036579486 0.025476165
-0.0059888726 -8.906443e-05 0.012064147 0.023877442 0.008391488 -0.024220482 -0.02572387 0.032755516
-0.0066541983 0.0056305807 -0.033995833 0.0030987798 0.032037556 -0.0056741224 -0.023314057 0.028986974
0.030528309 -0.03385107 -0.0322479 0.013725396 -0.034043245 0.0055282754 -0.030219903 -0.028200993

fc1.bias f4 [128]
00000000: e32a 2dbc cec0 023d 3581 613d 4a25 853d
00000010: b856 ad3b e393 06bc a517 633d 2c5f 9ebc
00000020: aa58 bdbc 988e 93bb 8d6e cabc d3d7 fbbb
00000030: 36a8 433b a216 dabc 92f4 b93c 1b3d ccb9
00000040: 1b7e fb3d eef2 12bb 5481 28bd a4ae d0bb
00000050: b6b6 0b3d c826 0dbc fdfd 993b 3306 e33c
00000060: 7df9 44bc 2fa0 75bc 5c6d 4d3d 0aa9 99bc
00000070: 1890 113d d434 bbbb 081e d83c 262a 7a3d
00000080: 14e6 00bd c098 f9ba 4d80 a63c dc9f 6ebb
00000090: cd5d ff3c 89fc 503c a418 38bd 197a 04bd
000000a0: 6660 6abc a3a3 013d 29f6 ae3c ee71 67bc
000000b0: 4aea b5bb 2899 2f3d d09e 013d 78f4 b9bc
000000c0: 15c0 14bc d60a 00bd 0511 8f3c 0bb8 06bd
000000d0: 7532 d13c 7e8a 33bc fb08 f93a 6431 583c
000000e0: 0724 e13a 7e7a 63bc fd18 56bc 2dc8 103d
000000f0: b6b6 863d 3f6c 3cbc 5bd1 483c d418 8e3c
00000100: f35e 9aba c0df 09bd bb1a c6bc 3f44 dc3b
00000110: 87d6 12bb 6899 afbb 466e 503c 916d 383d
00000120: 1cf2 6abc 2c37 f8bb 640b 093d 670f 67bc
00000130: 7870 39bc 3f01 cb3c b021 cb3c d0b5 693d
00000140: e4d8 1bbd 8684 39bb 42ea db3c 6824 8fbc
00000150: 1284 a0bc 6fc5 80bc 59c2 e73a 4b50 2e3c
00000160: ee5e 1b3d c4ca 48bb c628 803d 6cdb 8d3c
00000170: 8a42 0abd b27f c8bb 638d 97bb 581d bbbc
00000180: e0c0 5c3d d5a8 c83c b2e9 00bd 61ca e8bc
00000190: 1168 e93c 1754 8ebc 5e0c 893c 2374 cbbc
000001a0: 41a6 353d 6eaf 5abc 30f9 ebbc f9f3 ae3c
000001b0: 9764 323c bc24 c63c 84b1 85bc e118 e3bb
000001c0: 1e95 4c3c 169d cbbc 0249 07bd 5350 d1bc
000001d0: 9703 2c3c bdde 443d 3d6f 6ebc 7971 c03d
000001e0: 7999 8e3d bcf4 313d 034b 56ba 5339 01bc
000001f0: 5e0c 53bb be10 44bd 93eb 91bc 71a4 f0bc
-0.010569307 0.031922154 0.055054862 0.06501253 0.0052898787 -0.00821397 0.05544247 -0.01933249
-0.023113567 -0.0045030825 -0.024710918 -0.0076856404 0.00298549 -0.02662212 0.022699628 -0.0003895544
0.12279912 -0.002242263 -0.041138962 -0.006368475 0.034109794 -0.008615203 0.004699467 0.027712917
-0.012022373 -0.014991804 0.05015312 -0.018757362 0.03553781 -0.0057130847 0.026381508 0.061075352
-0.03146942 -0.0019042715 0.02032485 -0.0036411202 0.031172657 0.012755522 -0.044945374 -0.032343004
-0.01430521 0.031650197 0.021357613 -0.014126284 -0.005551611 0.04287067 0.031645596 -0.02269958
-0.009078999 -0.031260334 0.01746417 -0.03289036 0.025536755 -0.010958312 0.0018999869 0.013195369
0.0017176875 -0.013884185 -0.013067481 0.035347153 0.06577818 -0.011500417 0.0122569455 0.017345823
-0.0011777565 -0.03366065 -0.024182668 0.0067220028 -0.00224057 -0.0053588636 0.012721604 0.045026366
-0.01433995 -0.0075749364 0.03345813 -0.014102793 -0.011318319 0.024780868 0.024796337 0.057058156
-0.03804864 -0.002830775 0.026845101 -0.017473415 -0.019594226 -0.015719144 0.0017681821 0.0106392605
0.03793233 -0.0030638436 0.06257777 0.017316543 -0.033754863 -0.006118738 -0.004625009 -0.02284114
0.053894877 0.024494568 -0.03147287 -0.028416814 0.028492006 -0.017374082 0.01672953 -0.024835652
0.044348005 -0.01334749 -0.028805345 0.02135657 0.01088824 0.024187438 -0.016319998 -0.006930456
0.012486724 -0.024855178 -0.03302861 -0.025550997 0.010498903 0.048063982 -0.014552888 0.09396643
0.06962866 0.043446288 -0.000817463 -0.007887202 -0.0032203416 -0.04786753 -0.017812526 -0.029375287

fc2.weight f4 [4, 128]
00000000: 17dc fbbb 37ad 5c3e ea49 9ebc 8b7a 643e
00000010: 4436 0abe 250c 043d 8814 cb3d 5a34 e0bd
00000020: ee4c a7bc 64fb 8c3d f233 1e3d f8ad 843d
00000030: 0f6f 9cbd be01 4e3d 3267 82bd f40a aabc
00000040: d984 cb3d 50e4 a83c a287 63bd cdfa 003e
00000050: 7b33 1cbd 0adc 623d ffa6 bfbd 11d9 9e3d
00000060: 08f4 1bbd d836 813b 6db2 3f3e 503b 12be
00000070: e01d 393d e4b4 a8bb cc88 b1bd 5c7e 923d
00000080: 2071 53bc bc2e babd 7f75 2dbd f2ed 4cbc
00000090: f870 23be b4d6 433d 9e9b 833d 5e92 dcbd
000000a0: 02f6 683d 634a 87bd 52ce 00be 3b39 9ebb
000000b0: a1a2 d2bd 899a 863c 3bd7 be3d 1a34 fcbd
000000c0: c703 08be 5ec8 06bd 0cc7 7e3d 8fdf c4bc
000000d0: 203d c0bd 172d 06bd 6abd 7e3d 13a3 e6bd
000000e0: aafd f33d e2f3 013d 624c c5bc 02db 34bd
000000f0: ce65 263e 4006 18bd b65c 28bd 52f3 513d
00000100: 2ae5 45bd c874 893d d841 a53d da6c a4bd
00000110: 7c34 053d ccb3 1fbe 9022 cdbb fc9b 83bd
00000120: ae95 303e 0e60 d5bd 9cec 093e b765 b53d
00000130: c83a 18be c0c5 c73d d18c 40be e802 b83d
00000140: 4fdb 4b3d 8892 223e 2979 43bd 6687 cbbd
00000150: 8654 70bd 0202 1cbe 7e93 62bd 121f 023e
00000160: 4ca5 2ebe 251e f13b cb12 5a3e 3402 abbc
00000170: 6f73 8f3d 0f84 ebbd d0c0 703c 6143 683c
00000180: c4e4 513e 7637 8e3c 4f7e 41bd 605d 053c
00000190: 58ab 0fbe 8f32 03be c5c3 953b c514 1bbe
000001a0: 6945 473e 4385 4ebc 1d7e b33d 8474 6c3e
000001b0: ebe7 913d 367a 34bb e4c5 94bc 2710 2f3e
000001c0: 2a7d 02be 6ec4 733d 6c2c 97bd d17d 273e
000001d0: dd83 e43c 258d 043e 6158 86bd 8044 0c3e
000001e0: b242 013e d92e 0f3e f159 433b 6453 643d
000001f0: 248c 56bd 82a9 a5bd bc69 febd 3428 083c
00000200: 4be6 423d de38 64bd 2926 443e b2dc 9b3d
00000210: 1d1b 07be a2e4 1f3d b4d8 34be 3dc6 0fbe
00000220: b476 0ebb 449b 583d 7be7 47bd a60a afbd
00000230: 9ae2 d03d e0b1 62bb 8803 193e 77d9 5e3c
00000240: 9d3d 963d a652 093e bcb1 10be 9626 cbbc
00000250: 79b4 503e da10 793d f94d 00be 5081 32be
00000260: 586c 033d 67c4 05be 1867 d0bd 8a2e 023e
00000270: c63b 17be 08b2 893c c53d 0e3d 6d6d 8f3d
00000280: 7317 3bbd df10 8cbd 7e8b 963d bbb1 f73a
00000290: 6b8f 6abc 221f bebc 25c4 e3bd add7 98bd
000002a0: 73a2 943d 4072 0bbb c3bf 2dbd 4d40 e3bc
000002b0: 94b0 a7bd d476 b13d d20c fdbd 6f02 01be
000002c0: 1713 0abe 3c4d 543d 3154 483d 80a8 4aba
000002d0: 97a2 ccbd 1fe5 ebbd cb15 93bd a218 92bd
000002e0: 4b9c 0fbe d0f3 dcbc 342d 3ebe fa5e 433c
000002f0: dd98 613e f8ea 1bbc 8fe0 af3d e5b3 2abd
00000300: d7dd 973d 8d49 073d 9f2d 00be 8d2b 1f3d
00000310: 8207 00be ba85 363d a5c9 17bc 2c32 e63d
00000320: 5307 7cbd 673a 29be 040a 99bd 0dc5 3ebe
00000330: 45f7 14bd e417 03be 5469 8fbd ae78 0e3e
00000340: 0ba2 e3bd 9bd6 82bc 6120 723d bf92 b4bc
00000350: 2d98 ab3d eaa7 cdbd 3be0 fabd 902c 1fbe
00000360: 1788 de3d bf55 5f3d aac8 43bd ec7e 8d3d
00000370: 1a23 9bbd 63cf 003e 7e09 a23d 560e d2bd
00000380: 0b5a fabc f471 c1bd 630f e4bd 8ded 25bd
00000390: f300 17be 39ec 0fbe 1140 053d fe68 a5bd
000003a0: a344 fa3d a939 09be cd53 a43d 713d 40bd
000003b0: 6c73 033d 2e2f 4a3e 96a1 9cbd 43e0 05be
000003c0: 255d 2c3d 903e d93b 22ec 353d 2730 37be
000003d0: 76a6 5a3d 13ff 0a3e bc5f 1abd 8075 eb3d
000003e0: 9ae0 39bc cb1b d6bc abe5 51be 2aa9 bbbc
000003f0: b92d 483d d59f e1bc 7631 17bc 73d3 843d
-0.007686149 0.21550451 -0.019322354 0.22312371 -0.13497263 0.032238144 0.099160254 -0.10947485
-0.020422425 0.068838865 0.038623758 0.064784944 -0.0763837 0.05029463 -0.06367339 -0.020757176
0.09937448 0.02061668 -0.05554927 0.12595673 -0.038135033 0.055385627 -0.09358024 0.07756246
-0.038074523 0.0039433055 0.18720408 -0.14280438 0.045194507 -0.005148517 -0.0866867 0.071530074
-0.012905389 -0.09090945 -0.04234838 -0.012507902 -0.15961063 0.04781218 0.06426166 -0.10770105
0.056875236 -0.06605985 -0.12578705 -0.0048285997 -0.10284925 0.01643111 0.09318396 -0.12314625
-0.13282691 -0.03290593 0.062201545 -0.024032382 -0.09386659 -0.032757845 0.062192358 -0.11261573
0.11913617 0.031726725 -0.024084274 -0.044154175 0.16249773 -0.037115335 -0.04110404 0.05125744
-0.04831425 0.067117274 0.08069199 -0.08028574 0.032520756 -0.15595931 -0.0062602237 -0.06426236
0.17244598 -0.104187116 0.13469166 0.08857291 -0.14866173 0.09754515 -0.18803717 0.08984929
0.049769696 0.1587621 -0.04772297 -0.099379346 -0.058674358 -0.15235141 -0.05531644 0.12707165
-0.17055243 0.00735833 0.21296231 -0.020875074 0.07004439 -0.114997976 0.014694408 0.014176221
0.20497423 0.01736043 -0.047239598 0.008139938 -0.14030206 -0.12812255 0.0045704567 -0.15144642
0.19460072 -0.012605014 0.087642886 0.23091322 0.07124313 -0.0027538664 -0.018160768 0.17096005
-0.12743059 0.0595135 -0.0738152 0.16356589 0.027894909 0.12944467 -0.06559826 0.13698006
0.12623098 0.13982715 0.0029808248 0.05574359 -0.052379742 -0.08088972 -0.12422511 0.008310366
0.047582906 -0.055718295 0.19155182 0.07610454 -0.13193937 0.0390364 -0.1766079 -0.14040466
-0.0021738233 0.052882448 -0.04880474 -0.08546953 0.10199471 -0.0034590885 0.14942753 0.013601652
0.073359706 0.13410434 -0.141303 -0.024798673 0.20381345 0.060807087 -0.12529744 -0.17432141
0.032085747 -0.13063203 -0.101759136 0.12713066 -0.14768896 0.016808525 0.034726877 0.07003293
-0.04567666 -0.068391554 0.07350825 0.0018897572 -0.01431642 -0.023208205 -0.11121396 -0.07463012
0.07257547 -0.0021277815 -0.042419206 -0.027740622 -0.081879765 0.08665243 -0.12355961 -0.12598585
-0.13483845 0.05183147 0.048908416 -0.0007730797 -0.09991949 -0.11518311 -0.07181891 -0.071336046
-0.14024465 -0.026971728 -0.18571931 0.0119245 0.22030969 -0.00951647 0.08587753 -0.041675467
0.074153595 0.033029128 -0.12517403 0.038859893 -0.12502864 0.044561125 -0.009264384 0.11240038
-0.061530422 -0.16526185 -0.074726135 -0.18629856 -0.036368627 -0.12802082 -0.070025116 0.13913223
-0.111148916 -0.015971472 0.05911291 -0.02204263 0.083786346 -0.10041793 -0.122498 -0.15544343
0.10865801 0.054525133 -0.04779879 0.06908974 -0.075750545 0.12579112 0.07911967 -0.102566406
-0.030560514 -0.09445563 -0.11135747 -0.04050975 -0.14746456 -0.14054956 0.0325318 -0.08076666
0.12220123 -0.13400902 0.08023796 -0.046933595 0.032092497 0.1974456 -0.076480076 -0.1307383
0.042081017 0.0066297725 0.044414647 -0.17889462 0.053381406 0.13573866 -0.037688956 0.11497021
-0.011345053 -0.0261363 -0.20497768 -0.022907812 0.04887173 -0.027542034 -0.009228101 0.06485643

fc2.bias f4 [4]
00000000: 885d 5dbd 1bc2 3ebd 1122 b93d 4356 f23d
-0.054044276 -0.046571832 0.09039701 0.11832859
